node {
  name: "parallel_read/input_producer/Const"
  op: "Const"
  attr {
    key: "_output_shapes"
    value {
      list {
        shape {
          dim {
            size: 200
          }
        }
      }
    }
  }
  attr {
    key: "dtype"
    value {
      type: DT_STRING
    }
  }
  attr {
    key: "value"
    value {
      tensor {
        dtype: DT_STRING
        tensor_shape {
          dim {
            size: 200
          }
        }
        string_val: "/content/dataset/train_gbucket/1_1119_0.tfr"
        string_val: "/content/dataset/train_gbucket/1_104_0.tfr"
        string_val: "/content/dataset/train_gbucket/1_130_1.tfr"
        string_val: "/content/dataset/train_gbucket/1_1074_0.tfr"
        string_val: "/content/dataset/train_gbucket/1_1054test_1.tfr"
        string_val: "/content/dataset/train_gbucket/1_1097_0.tfr"
        string_val: "/content/dataset/train_gbucket/1_1073test_1.tfr"
        string_val: "/content/dataset/train_gbucket/1_1061_0.tfr"
        string_val: "/content/dataset/train_gbucket/1_1068_0.tfr"
        string_val: "/content/dataset/train_gbucket/1_146_1.tfr"
        string_val: "/content/dataset/train_gbucket/1_1374test_1.tfr"
        string_val: "/content/dataset/train_gbucket/1_1053_0.tfr"
        string_val: "/content/dataset/train_gbucket/1_1494test_1.tfr"
        string_val: "/content/dataset/train_gbucket/1_1040_0.tfr"
        string_val: "/content/dataset/train_gbucket/1_13_1.tfr"
        string_val: "/content/dataset/train_gbucket/1_1041_0.tfr"
        string_val: "/content/dataset/train_gbucket/1_100_0.tfr"
        string_val: "/content/dataset/train_gbucket/1_134_1.tfr"
        string_val: "/content/dataset/train_gbucket/1_1036_0.tfr"
        string_val: "/content/dataset/train_gbucket/1_1120_0.tfr"
        string_val: "/content/dataset/train_gbucket/1_12_1.tfr"
        string_val: "/content/dataset/train_gbucket/1_1089_0.tfr"
        string_val: "/content/dataset/train_gbucket/1_1009_0.tfr"
        string_val: "/content/dataset/train_gbucket/1_1065_0.tfr"
        string_val: "/content/dataset/train_gbucket/1_1346test_1.tfr"
        string_val: "/content/dataset/train_gbucket/1_1069_0.tfr"
        string_val: "/content/dataset/train_gbucket/1_1032_0.tfr"
        string_val: "/content/dataset/train_gbucket/1_1054_0.tfr"
        string_val: "/content/dataset/train_gbucket/1_1118_0.tfr"
        string_val: "/content/dataset/train_gbucket/1_105_0.tfr"
        string_val: "/content/dataset/train_gbucket/1_1230test_1.tfr"
        string_val: "/content/dataset/train_gbucket/1_128_1.tfr"
        string_val: "/content/dataset/train_gbucket/1_113_1.tfr"
        string_val: "/content/dataset/train_gbucket/1_1104test_1.tfr"
        string_val: "/content/dataset/train_gbucket/1_106_1.tfr"
        string_val: "/content/dataset/train_gbucket/1_120_1.tfr"
        string_val: "/content/dataset/train_gbucket/1_1037_0.tfr"
        string_val: "/content/dataset/train_gbucket/1_1014_0.tfr"
        string_val: "/content/dataset/train_gbucket/1_1050_0.tfr"
        string_val: "/content/dataset/train_gbucket/1_1506test_1.tfr"
        string_val: "/content/dataset/train_gbucket/1_107_1.tfr"
        string_val: "/content/dataset/train_gbucket/1_1122_0.tfr"
        string_val: "/content/dataset/train_gbucket/1_1091_0.tfr"
        string_val: "/content/dataset/train_gbucket/1_1084_0.tfr"
        string_val: "/content/dataset/train_gbucket/1_1013_0.tfr"
        string_val: "/content/dataset/train_gbucket/1_112_1.tfr"
        string_val: "/content/dataset/train_gbucket/1_1064_0.tfr"
        string_val: "/content/dataset/train_gbucket/1_1353test_1.tfr"
        string_val: "/content/dataset/train_gbucket/1_141_1.tfr"
        string_val: "/content/dataset/train_gbucket/1_1009test_1.tfr"
        string_val: "/content/dataset/train_gbucket/1_1243test_1.tfr"
        string_val: "/content/dataset/train_gbucket/1_118_1.tfr"
        string_val: "/content/dataset/train_gbucket/1_126test_1.tfr"
        string_val: "/content/dataset/train_gbucket/1_103_0.tfr"
        string_val: "/content/dataset/train_gbucket/1_1085_0.tfr"
        string_val: "/content/dataset/train_gbucket/1_149_1.tfr"
        string_val: "/content/dataset/train_gbucket/1_1072_0.tfr"
        string_val: "/content/dataset/train_gbucket/1_1380test_1.tfr"
        string_val: "/content/dataset/train_gbucket/1_132_1.tfr"
        string_val: "/content/dataset/train_gbucket/1_1142test_1.tfr"
        string_val: "/content/dataset/train_gbucket/1_1063_0.tfr"
        string_val: "/content/dataset/train_gbucket/1_1027_0.tfr"
        string_val: "/content/dataset/train_gbucket/1_1044_0.tfr"
        string_val: "/content/dataset/train_gbucket/1_1438test_1.tfr"
        string_val: "/content/dataset/train_gbucket/1_1417test_1.tfr"
        string_val: "/content/dataset/train_gbucket/1_1056_0.tfr"
        string_val: "/content/dataset/train_gbucket/1_1355test_1.tfr"
        string_val: "/content/dataset/train_gbucket/1_1071_0.tfr"
        string_val: "/content/dataset/train_gbucket/1_1075_0.tfr"
        string_val: "/content/dataset/train_gbucket/1_104_1.tfr"
        string_val: "/content/dataset/train_gbucket/1_1348test_1.tfr"
        string_val: "/content/dataset/train_gbucket/1_1060_0.tfr"
        string_val: "/content/dataset/train_gbucket/1_1459test_1.tfr"
        string_val: "/content/dataset/train_gbucket/1_100_1.tfr"
        string_val: "/content/dataset/train_gbucket/1_124_1.tfr"
        string_val: "/content/dataset/train_gbucket/1_1033_0.tfr"
        string_val: "/content/dataset/train_gbucket/1_1094_0.tfr"
        string_val: "/content/dataset/train_gbucket/1_1215test_1.tfr"
        string_val: "/content/dataset/train_gbucket/1_117_1.tfr"
        string_val: "/content/dataset/train_gbucket/1_144_1.tfr"
        string_val: "/content/dataset/train_gbucket/1_14_1.tfr"
        string_val: "/content/dataset/train_gbucket/1_1049_0.tfr"
        string_val: "/content/dataset/train_gbucket/1_136_1.tfr"
        string_val: "/content/dataset/train_gbucket/1_1047_0.tfr"
        string_val: "/content/dataset/train_gbucket/1_1232test_1.tfr"
        string_val: "/content/dataset/train_gbucket/1_1081_0.tfr"
        string_val: "/content/dataset/train_gbucket/1_1247test_1.tfr"
        string_val: "/content/dataset/train_gbucket/1_11_0.tfr"
        string_val: "/content/dataset/train_gbucket/1_1051_0.tfr"
        string_val: "/content/dataset/train_gbucket/1_131_1.tfr"
        string_val: "/content/dataset/train_gbucket/1_1410test_1.tfr"
        string_val: "/content/dataset/train_gbucket/1_1073_0.tfr"
        string_val: "/content/dataset/train_gbucket/1_126_1.tfr"
        string_val: "/content/dataset/train_gbucket/1_143_1.tfr"
        string_val: "/content/dataset/train_gbucket/1_110_0.tfr"
        string_val: "/content/dataset/train_gbucket/1_1010_0.tfr"
        string_val: "/content/dataset/train_gbucket/1_137_1.tfr"
        string_val: "/content/dataset/train_gbucket/1_1059_0.tfr"
        string_val: "/content/dataset/train_gbucket/1_1088_0.tfr"
        string_val: "/content/dataset/train_gbucket/1_108_1.tfr"
        string_val: "/content/dataset/train_gbucket/1_125_1.tfr"
        string_val: "/content/dataset/train_gbucket/1_1034_0.tfr"
        string_val: "/content/dataset/train_gbucket/1_129_1.tfr"
        string_val: "/content/dataset/train_gbucket/1_105_1.tfr"
        string_val: "/content/dataset/train_gbucket/1_102_0.tfr"
        string_val: "/content/dataset/train_gbucket/1_1086_0.tfr"
        string_val: "/content/dataset/train_gbucket/1_1086test_1.tfr"
        string_val: "/content/dataset/train_gbucket/1_1048_0.tfr"
        string_val: "/content/dataset/train_gbucket/1_140_1.tfr"
        string_val: "/content/dataset/train_gbucket/1_127_1.tfr"
        string_val: "/content/dataset/train_gbucket/1_119_1.tfr"
        string_val: "/content/dataset/train_gbucket/1_150_1.tfr"
        string_val: "/content/dataset/train_gbucket/1_1029_0.tfr"
        string_val: "/content/dataset/train_gbucket/1_1079_0.tfr"
        string_val: "/content/dataset/train_gbucket/1_1046_0.tfr"
        string_val: "/content/dataset/train_gbucket/1_139_1.tfr"
        string_val: "/content/dataset/train_gbucket/1_1078_0.tfr"
        string_val: "/content/dataset/train_gbucket/1_11_1.tfr"
        string_val: "/content/dataset/train_gbucket/1_1258test_1.tfr"
        string_val: "/content/dataset/train_gbucket/1_112_0.tfr"
        string_val: "/content/dataset/train_gbucket/1_101_0.tfr"
        string_val: "/content/dataset/train_gbucket/1_1121_0.tfr"
        string_val: "/content/dataset/train_gbucket/1_103_1.tfr"
        string_val: "/content/dataset/train_gbucket/1_1096_0.tfr"
        string_val: "/content/dataset/train_gbucket/1_1123_0.tfr"
        string_val: "/content/dataset/train_gbucket/1_109_0.tfr"
        string_val: "/content/dataset/train_gbucket/1_151test_1.tfr"
        string_val: "/content/dataset/train_gbucket/1_110_1.tfr"
        string_val: "/content/dataset/train_gbucket/1_1578test_1.tfr"
        string_val: "/content/dataset/train_gbucket/1_1093_0.tfr"
        string_val: "/content/dataset/train_gbucket/1_1083_0.tfr"
        string_val: "/content/dataset/train_gbucket/1_109_1.tfr"
        string_val: "/content/dataset/train_gbucket/1_1042_0.tfr"
        string_val: "/content/dataset/train_gbucket/1_1012_0.tfr"
        string_val: "/content/dataset/train_gbucket/1_122_1.tfr"
        string_val: "/content/dataset/train_gbucket/1_1030_0.tfr"
        string_val: "/content/dataset/train_gbucket/1_123_1.tfr"
        string_val: "/content/dataset/train_gbucket/1_1031_0.tfr"
        string_val: "/content/dataset/train_gbucket/1_1087_0.tfr"
        string_val: "/content/dataset/train_gbucket/1_1182test_1.tfr"
        string_val: "/content/dataset/train_gbucket/1_10_1.tfr"
        string_val: "/content/dataset/train_gbucket/1_1390test_1.tfr"
        string_val: "/content/dataset/train_gbucket/1_1080_0.tfr"
        string_val: "/content/dataset/train_gbucket/1_107_0.tfr"
        string_val: "/content/dataset/train_gbucket/1_142_1.tfr"
        string_val: "/content/dataset/train_gbucket/1_1327test_1.tfr"
        string_val: "/content/dataset/train_gbucket/1_1077_0.tfr"
        string_val: "/content/dataset/train_gbucket/1_115_1.tfr"
        string_val: "/content/dataset/train_gbucket/1_1_1.tfr"
        string_val: "/content/dataset/train_gbucket/1_1058_0.tfr"
        string_val: "/content/dataset/train_gbucket/1_1092_0.tfr"
        string_val: "/content/dataset/train_gbucket/1_1039_0.tfr"
        string_val: "/content/dataset/train_gbucket/1_1095_0.tfr"
        string_val: "/content/dataset/train_gbucket/1_114_1.tfr"
        string_val: "/content/dataset/train_gbucket/1_1062_0.tfr"
        string_val: "/content/dataset/train_gbucket/1_1055_0.tfr"
        string_val: "/content/dataset/train_gbucket/1_108_0.tfr"
        string_val: "/content/dataset/train_gbucket/1_1533test_1.tfr"
        string_val: "/content/dataset/train_gbucket/1_106_0.tfr"
        string_val: "/content/dataset/train_gbucket/1_101_1.tfr"
        string_val: "/content/dataset/train_gbucket/1_1098_0.tfr"
        string_val: "/content/dataset/train_gbucket/1_138_1.tfr"
        string_val: "/content/dataset/train_gbucket/1_16_1.tfr"
        string_val: "/content/dataset/train_gbucket/1_1038_0.tfr"
        string_val: "/content/dataset/train_gbucket/1_111_0.tfr"
        string_val: "/content/dataset/train_gbucket/1_1067_0.tfr"
        string_val: "/content/dataset/train_gbucket/1_1011_0.tfr"
        string_val: "/content/dataset/train_gbucket/1_1454test_1.tfr"
        string_val: "/content/dataset/train_gbucket/1_1166test_1.tfr"
        string_val: "/content/dataset/train_gbucket/1_133_1.tfr"
        string_val: "/content/dataset/train_gbucket/1_147_1.tfr"
        string_val: "/content/dataset/train_gbucket/1_121_1.tfr"
        string_val: "/content/dataset/train_gbucket/1_1427test_1.tfr"
        string_val: "/content/dataset/train_gbucket/1_1045_0.tfr"
        string_val: "/content/dataset/train_gbucket/1_135_1.tfr"
        string_val: "/content/dataset/train_gbucket/1_10_0.tfr"
        string_val: "/content/dataset/train_gbucket/1_1052_0.tfr"
        string_val: "/content/dataset/train_gbucket/1_1333test_1.tfr"
        string_val: "/content/dataset/train_gbucket/1_1169test_1.tfr"
        string_val: "/content/dataset/train_gbucket/1_102_1.tfr"
        string_val: "/content/dataset/train_gbucket/1_1021test_1.tfr"
        string_val: "/content/dataset/train_gbucket/1_111_1.tfr"
        string_val: "/content/dataset/train_gbucket/1_148_1.tfr"
        string_val: "/content/dataset/train_gbucket/1_1057_0.tfr"
        string_val: "/content/dataset/train_gbucket/1_15_1.tfr"
        string_val: "/content/dataset/train_gbucket/1_1117_0.tfr"
        string_val: "/content/dataset/train_gbucket/1_1035_0.tfr"
        string_val: "/content/dataset/train_gbucket/1_107test_1.tfr"
        string_val: "/content/dataset/train_gbucket/1_1070_0.tfr"
        string_val: "/content/dataset/train_gbucket/1_1082_0.tfr"
        string_val: "/content/dataset/train_gbucket/1_1076_0.tfr"
        string_val: "/content/dataset/train_gbucket/1_1028_0.tfr"
        string_val: "/content/dataset/train_gbucket/1_1090_0.tfr"
        string_val: "/content/dataset/train_gbucket/1_116_1.tfr"
        string_val: "/content/dataset/train_gbucket/1_1530test_1.tfr"
        string_val: "/content/dataset/train_gbucket/1_112test_1.tfr"
        string_val: "/content/dataset/train_gbucket/1_145_1.tfr"
        string_val: "/content/dataset/train_gbucket/1_1043_0.tfr"
        string_val: "/content/dataset/train_gbucket/1_1066_0.tfr"
        string_val: "/content/dataset/train_gbucket/1_1366test_1.tfr"
      }
    }
  }
}
node {
  name: "parallel_read/input_producer/Size"
  op: "Const"
  attr {
    key: "_output_shapes"
    value {
      list {
        shape {
        }
      }
    }
  }
  attr {
    key: "dtype"
    value {
      type: DT_INT32
    }
  }
  attr {
    key: "value"
    value {
      tensor {
        dtype: DT_INT32
        tensor_shape {
        }
        int_val: 200
      }
    }
  }
}
node {
  name: "parallel_read/input_producer/Greater/y"
  op: "Const"
  attr {
    key: "_output_shapes"
    value {
      list {
        shape {
        }
      }
    }
  }
  attr {
    key: "dtype"
    value {
      type: DT_INT32
    }
  }
  attr {
    key: "value"
    value {
      tensor {
        dtype: DT_INT32
        tensor_shape {
        }
        int_val: 0
      }
    }
  }
}
node {
  name: "parallel_read/input_producer/Greater"
  op: "Greater"
  input: "parallel_read/input_producer/Size"
  input: "parallel_read/input_producer/Greater/y"
  attr {
    key: "T"
    value {
      type: DT_INT32
    }
  }
  attr {
    key: "_output_shapes"
    value {
      list {
        shape {
        }
      }
    }
  }
}
node {
  name: "parallel_read/input_producer/Assert/AssertGuard/Switch"
  op: "Switch"
  input: "parallel_read/input_producer/Greater"
  input: "parallel_read/input_producer/Greater"
  attr {
    key: "T"
    value {
      type: DT_BOOL
    }
  }
  attr {
    key: "_output_shapes"
    value {
      list {
        shape {
        }
        shape {
        }
      }
    }
  }
}
node {
  name: "parallel_read/input_producer/Assert/AssertGuard/switch_t"
  op: "Identity"
  input: "parallel_read/input_producer/Assert/AssertGuard/Switch:1"
  attr {
    key: "T"
    value {
      type: DT_BOOL
    }
  }
  attr {
    key: "_output_shapes"
    value {
      list {
        shape {
        }
      }
    }
  }
}
node {
  name: "parallel_read/input_producer/Assert/AssertGuard/switch_f"
  op: "Identity"
  input: "parallel_read/input_producer/Assert/AssertGuard/Switch"
  attr {
    key: "T"
    value {
      type: DT_BOOL
    }
  }
  attr {
    key: "_output_shapes"
    value {
      list {
        shape {
        }
      }
    }
  }
}
node {
  name: "parallel_read/input_producer/Assert/AssertGuard/pred_id"
  op: "Identity"
  input: "parallel_read/input_producer/Greater"
  attr {
    key: "T"
    value {
      type: DT_BOOL
    }
  }
  attr {
    key: "_output_shapes"
    value {
      list {
        shape {
        }
      }
    }
  }
}
node {
  name: "parallel_read/input_producer/Assert/AssertGuard/NoOp"
  op: "NoOp"
  input: "^parallel_read/input_producer/Assert/AssertGuard/switch_t"
}
node {
  name: "parallel_read/input_producer/Assert/AssertGuard/control_dependency"
  op: "Identity"
  input: "parallel_read/input_producer/Assert/AssertGuard/switch_t"
  input: "^parallel_read/input_producer/Assert/AssertGuard/NoOp"
  attr {
    key: "T"
    value {
      type: DT_BOOL
    }
  }
  attr {
    key: "_class"
    value {
      list {
        s: "loc:@parallel_read/input_producer/Assert/AssertGuard/switch_t"
      }
    }
  }
  attr {
    key: "_output_shapes"
    value {
      list {
        shape {
        }
      }
    }
  }
}
node {
  name: "parallel_read/input_producer/Assert/AssertGuard/Assert/data_0"
  op: "Const"
  input: "^parallel_read/input_producer/Assert/AssertGuard/switch_f"
  attr {
    key: "_output_shapes"
    value {
      list {
        shape {
        }
      }
    }
  }
  attr {
    key: "dtype"
    value {
      type: DT_STRING
    }
  }
  attr {
    key: "value"
    value {
      tensor {
        dtype: DT_STRING
        tensor_shape {
        }
        string_val: "string_input_producer requires a non-null input tensor"
      }
    }
  }
}
node {
  name: "parallel_read/input_producer/Assert/AssertGuard/Assert/Switch"
  op: "Switch"
  input: "parallel_read/input_producer/Greater"
  input: "parallel_read/input_producer/Assert/AssertGuard/pred_id"
  attr {
    key: "T"
    value {
      type: DT_BOOL
    }
  }
  attr {
    key: "_class"
    value {
      list {
        s: "loc:@parallel_read/input_producer/Greater"
      }
    }
  }
  attr {
    key: "_output_shapes"
    value {
      list {
        shape {
        }
        shape {
        }
      }
    }
  }
}
node {
  name: "parallel_read/input_producer/Assert/AssertGuard/Assert"
  op: "Assert"
  input: "parallel_read/input_producer/Assert/AssertGuard/Assert/Switch"
  input: "parallel_read/input_producer/Assert/AssertGuard/Assert/data_0"
  attr {
    key: "T"
    value {
      list {
        type: DT_STRING
      }
    }
  }
  attr {
    key: "summarize"
    value {
      i: 3
    }
  }
}
node {
  name: "parallel_read/input_producer/Assert/AssertGuard/control_dependency_1"
  op: "Identity"
  input: "parallel_read/input_producer/Assert/AssertGuard/switch_f"
  input: "^parallel_read/input_producer/Assert/AssertGuard/Assert"
  attr {
    key: "T"
    value {
      type: DT_BOOL
    }
  }
  attr {
    key: "_class"
    value {
      list {
        s: "loc:@parallel_read/input_producer/Assert/AssertGuard/switch_f"
      }
    }
  }
  attr {
    key: "_output_shapes"
    value {
      list {
        shape {
        }
      }
    }
  }
}
node {
  name: "parallel_read/input_producer/Assert/AssertGuard/Merge"
  op: "Merge"
  input: "parallel_read/input_producer/Assert/AssertGuard/control_dependency_1"
  input: "parallel_read/input_producer/Assert/AssertGuard/control_dependency"
  attr {
    key: "N"
    value {
      i: 2
    }
  }
  attr {
    key: "T"
    value {
      type: DT_BOOL
    }
  }
  attr {
    key: "_output_shapes"
    value {
      list {
        shape {
        }
        shape {
        }
      }
    }
  }
}
node {
  name: "parallel_read/input_producer/Identity"
  op: "Identity"
  input: "parallel_read/input_producer/Const"
  input: "^parallel_read/input_producer/Assert/AssertGuard/Merge"
  attr {
    key: "T"
    value {
      type: DT_STRING
    }
  }
  attr {
    key: "_output_shapes"
    value {
      list {
        shape {
          dim {
            size: 200
          }
        }
      }
    }
  }
}
node {
  name: "parallel_read/input_producer/RandomShuffle"
  op: "RandomShuffle"
  input: "parallel_read/input_producer/Identity"
  attr {
    key: "T"
    value {
      type: DT_STRING
    }
  }
  attr {
    key: "_output_shapes"
    value {
      list {
        shape {
          dim {
            size: 200
          }
        }
      }
    }
  }
  attr {
    key: "seed"
    value {
      i: 0
    }
  }
  attr {
    key: "seed2"
    value {
      i: 0
    }
  }
}
node {
  name: "parallel_read/input_producer"
  op: "FIFOQueue"
  attr {
    key: "_output_shapes"
    value {
      list {
        shape {
          dim {
            size: 2
          }
        }
      }
    }
  }
  attr {
    key: "capacity"
    value {
      i: 32
    }
  }
  attr {
    key: "component_types"
    value {
      list {
        type: DT_STRING
      }
    }
  }
  attr {
    key: "container"
    value {
      s: ""
    }
  }
  attr {
    key: "shapes"
    value {
      list {
        shape {
        }
      }
    }
  }
  attr {
    key: "shared_name"
    value {
      s: ""
    }
  }
}
node {
  name: "parallel_read/input_producer/input_producer_EnqueueMany"
  op: "QueueEnqueueMany"
  input: "parallel_read/input_producer"
  input: "parallel_read/input_producer/RandomShuffle"
  attr {
    key: "Tcomponents"
    value {
      list {
        type: DT_STRING
      }
    }
  }
  attr {
    key: "_class"
    value {
      list {
        s: "loc:@parallel_read/input_producer"
      }
    }
  }
  attr {
    key: "timeout_ms"
    value {
      i: -1
    }
  }
}
node {
  name: "parallel_read/input_producer/input_producer_Close"
  op: "QueueClose"
  input: "parallel_read/input_producer"
  attr {
    key: "_class"
    value {
      list {
        s: "loc:@parallel_read/input_producer"
      }
    }
  }
  attr {
    key: "cancel_pending_enqueues"
    value {
      b: false
    }
  }
}
node {
  name: "parallel_read/input_producer/input_producer_Close_1"
  op: "QueueClose"
  input: "parallel_read/input_producer"
  attr {
    key: "_class"
    value {
      list {
        s: "loc:@parallel_read/input_producer"
      }
    }
  }
  attr {
    key: "cancel_pending_enqueues"
    value {
      b: true
    }
  }
}
node {
  name: "parallel_read/input_producer/input_producer_Size"
  op: "QueueSize"
  input: "parallel_read/input_producer"
  attr {
    key: "_class"
    value {
      list {
        s: "loc:@parallel_read/input_producer"
      }
    }
  }
  attr {
    key: "_output_shapes"
    value {
      list {
        shape {
        }
      }
    }
  }
}
node {
  name: "parallel_read/input_producer/Cast"
  op: "Cast"
  input: "parallel_read/input_producer/input_producer_Size"
  attr {
    key: "DstT"
    value {
      type: DT_FLOAT
    }
  }
  attr {
    key: "SrcT"
    value {
      type: DT_INT32
    }
  }
  attr {
    key: "_output_shapes"
    value {
      list {
        shape {
        }
      }
    }
  }
}
node {
  name: "parallel_read/input_producer/mul/y"
  op: "Const"
  attr {
    key: "_output_shapes"
    value {
      list {
        shape {
        }
      }
    }
  }
  attr {
    key: "dtype"
    value {
      type: DT_FLOAT
    }
  }
  attr {
    key: "value"
    value {
      tensor {
        dtype: DT_FLOAT
        tensor_shape {
        }
        float_val: 0.03125
      }
    }
  }
}
node {
  name: "parallel_read/input_producer/mul"
  op: "Mul"
  input: "parallel_read/input_producer/Cast"
  input: "parallel_read/input_producer/mul/y"
  attr {
    key: "T"
    value {
      type: DT_FLOAT
    }
  }
  attr {
    key: "_output_shapes"
    value {
      list {
        shape {
        }
      }
    }
  }
}
node {
  name: "parallel_read/input_producer/ScalarSummary/tags"
  op: "Const"
  attr {
    key: "_output_shapes"
    value {
      list {
        shape {
        }
      }
    }
  }
  attr {
    key: "dtype"
    value {
      type: DT_STRING
    }
  }
  attr {
    key: "value"
    value {
      tensor {
        dtype: DT_STRING
        tensor_shape {
        }
        string_val: "queue/parallel_read/input_producer/fraction_of_32_full"
      }
    }
  }
}
node {
  name: "parallel_read/input_producer/ScalarSummary"
  op: "ScalarSummary"
  input: "parallel_read/input_producer/ScalarSummary/tags"
  input: "parallel_read/input_producer/mul"
  attr {
    key: "T"
    value {
      type: DT_FLOAT
    }
  }
  attr {
    key: "_output_shapes"
    value {
      list {
        shape {
        }
      }
    }
  }
}
node {
  name: "parallel_read/random_shuffle_queue"
  op: "RandomShuffleQueue"
  attr {
    key: "_output_shapes"
    value {
      list {
        shape {
          dim {
            size: 2
          }
        }
      }
    }
  }
  attr {
    key: "capacity"
    value {
      i: 40
    }
  }
  attr {
    key: "component_types"
    value {
      list {
        type: DT_STRING
        type: DT_STRING
      }
    }
  }
  attr {
    key: "container"
    value {
      s: ""
    }
  }
  attr {
    key: "min_after_dequeue"
    value {
      i: 20
    }
  }
  attr {
    key: "seed"
    value {
      i: 0
    }
  }
  attr {
    key: "seed2"
    value {
      i: 0
    }
  }
  attr {
    key: "shapes"
    value {
      list {
      }
    }
  }
  attr {
    key: "shared_name"
    value {
      s: ""
    }
  }
}
node {
  name: "parallel_read/random_shuffle_queue_Size"
  op: "QueueSize"
  input: "parallel_read/random_shuffle_queue"
  attr {
    key: "_class"
    value {
      list {
        s: "loc:@parallel_read/random_shuffle_queue"
      }
    }
  }
  attr {
    key: "_output_shapes"
    value {
      list {
        shape {
        }
      }
    }
  }
}
node {
  name: "parallel_read/ToFloat"
  op: "Cast"
  input: "parallel_read/random_shuffle_queue_Size"
  attr {
    key: "DstT"
    value {
      type: DT_FLOAT
    }
  }
  attr {
    key: "SrcT"
    value {
      type: DT_INT32
    }
  }
  attr {
    key: "_output_shapes"
    value {
      list {
        shape {
        }
      }
    }
  }
}
node {
  name: "parallel_read/mul/y"
  op: "Const"
  attr {
    key: "_output_shapes"
    value {
      list {
        shape {
        }
      }
    }
  }
  attr {
    key: "dtype"
    value {
      type: DT_FLOAT
    }
  }
  attr {
    key: "value"
    value {
      tensor {
        dtype: DT_FLOAT
        tensor_shape {
        }
        float_val: 0.0250000003725
      }
    }
  }
}
node {
  name: "parallel_read/mul"
  op: "Mul"
  input: "parallel_read/ToFloat"
  input: "parallel_read/mul/y"
  attr {
    key: "T"
    value {
      type: DT_FLOAT
    }
  }
  attr {
    key: "_output_shapes"
    value {
      list {
        shape {
        }
      }
    }
  }
}
node {
  name: "parallel_read/ScalarSummary/tags"
  op: "Const"
  attr {
    key: "_output_shapes"
    value {
      list {
        shape {
        }
      }
    }
  }
  attr {
    key: "dtype"
    value {
      type: DT_STRING
    }
  }
  attr {
    key: "value"
    value {
      tensor {
        dtype: DT_STRING
        tensor_shape {
        }
        string_val: "queue/parallel_read/random_shuffle_queue/fraction_of_40_full"
      }
    }
  }
}
node {
  name: "parallel_read/ScalarSummary"
  op: "ScalarSummary"
  input: "parallel_read/ScalarSummary/tags"
  input: "parallel_read/mul"
  attr {
    key: "T"
    value {
      type: DT_FLOAT
    }
  }
  attr {
    key: "_output_shapes"
    value {
      list {
        shape {
        }
      }
    }
  }
}
node {
  name: "parallel_read/TFRecordReader"
  op: "TFRecordReader"
  attr {
    key: "_output_shapes"
    value {
      list {
        shape {
          dim {
            size: 2
          }
        }
      }
    }
  }
  attr {
    key: "compression_type"
    value {
      s: ""
    }
  }
  attr {
    key: "container"
    value {
      s: ""
    }
  }
  attr {
    key: "shared_name"
    value {
      s: ""
    }
  }
}
node {
  name: "parallel_read/ReaderRead"
  op: "ReaderRead"
  input: "parallel_read/TFRecordReader"
  input: "parallel_read/input_producer"
  attr {
    key: "_class"
    value {
      list {
        s: "loc:@parallel_read/TFRecordReader"
        s: "loc:@parallel_read/input_producer"
      }
    }
  }
  attr {
    key: "_output_shapes"
    value {
      list {
        shape {
        }
        shape {
        }
      }
    }
  }
}
node {
  name: "parallel_read/random_shuffle_queue_enqueue"
  op: "QueueEnqueue"
  input: "parallel_read/random_shuffle_queue"
  input: "parallel_read/ReaderRead"
  input: "parallel_read/ReaderRead:1"
  attr {
    key: "Tcomponents"
    value {
      list {
        type: DT_STRING
        type: DT_STRING
      }
    }
  }
  attr {
    key: "_class"
    value {
      list {
        s: "loc:@parallel_read/random_shuffle_queue"
      }
    }
  }
  attr {
    key: "timeout_ms"
    value {
      i: -1
    }
  }
}
node {
  name: "parallel_read/random_shuffle_queue_Close"
  op: "QueueClose"
  input: "parallel_read/random_shuffle_queue"
  attr {
    key: "_class"
    value {
      list {
        s: "loc:@parallel_read/random_shuffle_queue"
      }
    }
  }
  attr {
    key: "cancel_pending_enqueues"
    value {
      b: false
    }
  }
}
node {
  name: "parallel_read/random_shuffle_queue_Close_1"
  op: "QueueClose"
  input: "parallel_read/random_shuffle_queue"
  attr {
    key: "_class"
    value {
      list {
        s: "loc:@parallel_read/random_shuffle_queue"
      }
    }
  }
  attr {
    key: "cancel_pending_enqueues"
    value {
      b: true
    }
  }
}
node {
  name: "parallel_read/random_shuffle_queue_Dequeue"
  op: "QueueDequeue"
  input: "parallel_read/random_shuffle_queue"
  attr {
    key: "_class"
    value {
      list {
        s: "loc:@parallel_read/random_shuffle_queue"
      }
    }
  }
  attr {
    key: "_output_shapes"
    value {
      list {
        shape {
          unknown_rank: true
        }
        shape {
          unknown_rank: true
        }
      }
    }
  }
  attr {
    key: "component_types"
    value {
      list {
        type: DT_STRING
        type: DT_STRING
      }
    }
  }
  attr {
    key: "timeout_ms"
    value {
      i: -1
    }
  }
}
node {
  name: "ParseSingleExample/Rank"
  op: "Rank"
  input: "parallel_read/random_shuffle_queue_Dequeue:1"
  attr {
    key: "T"
    value {
      type: DT_STRING
    }
  }
  attr {
    key: "_output_shapes"
    value {
      list {
        shape {
        }
      }
    }
  }
}
node {
  name: "ParseSingleExample/Equal/y"
  op: "Const"
  attr {
    key: "_output_shapes"
    value {
      list {
        shape {
        }
      }
    }
  }
  attr {
    key: "dtype"
    value {
      type: DT_INT32
    }
  }
  attr {
    key: "value"
    value {
      tensor {
        dtype: DT_INT32
        tensor_shape {
        }
        int_val: 0
      }
    }
  }
}
node {
  name: "ParseSingleExample/Equal"
  op: "Equal"
  input: "ParseSingleExample/Rank"
  input: "ParseSingleExample/Equal/y"
  attr {
    key: "T"
    value {
      type: DT_INT32
    }
  }
  attr {
    key: "_output_shapes"
    value {
      list {
        shape {
        }
      }
    }
  }
}
node {
  name: "ParseSingleExample/SerializedIsScalar/AssertGuard/Switch"
  op: "Switch"
  input: "ParseSingleExample/Equal"
  input: "ParseSingleExample/Equal"
  attr {
    key: "T"
    value {
      type: DT_BOOL
    }
  }
  attr {
    key: "_output_shapes"
    value {
      list {
        shape {
        }
        shape {
        }
      }
    }
  }
}
node {
  name: "ParseSingleExample/SerializedIsScalar/AssertGuard/switch_t"
  op: "Identity"
  input: "ParseSingleExample/SerializedIsScalar/AssertGuard/Switch:1"
  attr {
    key: "T"
    value {
      type: DT_BOOL
    }
  }
  attr {
    key: "_output_shapes"
    value {
      list {
        shape {
        }
      }
    }
  }
}
node {
  name: "ParseSingleExample/SerializedIsScalar/AssertGuard/switch_f"
  op: "Identity"
  input: "ParseSingleExample/SerializedIsScalar/AssertGuard/Switch"
  attr {
    key: "T"
    value {
      type: DT_BOOL
    }
  }
  attr {
    key: "_output_shapes"
    value {
      list {
        shape {
        }
      }
    }
  }
}
node {
  name: "ParseSingleExample/SerializedIsScalar/AssertGuard/pred_id"
  op: "Identity"
  input: "ParseSingleExample/Equal"
  attr {
    key: "T"
    value {
      type: DT_BOOL
    }
  }
  attr {
    key: "_output_shapes"
    value {
      list {
        shape {
        }
      }
    }
  }
}
node {
  name: "ParseSingleExample/SerializedIsScalar/AssertGuard/NoOp"
  op: "NoOp"
  input: "^ParseSingleExample/SerializedIsScalar/AssertGuard/switch_t"
}
node {
  name: "ParseSingleExample/SerializedIsScalar/AssertGuard/control_dependency"
  op: "Identity"
  input: "ParseSingleExample/SerializedIsScalar/AssertGuard/switch_t"
  input: "^ParseSingleExample/SerializedIsScalar/AssertGuard/NoOp"
  attr {
    key: "T"
    value {
      type: DT_BOOL
    }
  }
  attr {
    key: "_class"
    value {
      list {
        s: "loc:@ParseSingleExample/SerializedIsScalar/AssertGuard/switch_t"
      }
    }
  }
  attr {
    key: "_output_shapes"
    value {
      list {
        shape {
        }
      }
    }
  }
}
node {
  name: "ParseSingleExample/SerializedIsScalar/AssertGuard/Assert/data_0"
  op: "Const"
  input: "^ParseSingleExample/SerializedIsScalar/AssertGuard/switch_f"
  attr {
    key: "_output_shapes"
    value {
      list {
        shape {
        }
      }
    }
  }
  attr {
    key: "dtype"
    value {
      type: DT_STRING
    }
  }
  attr {
    key: "value"
    value {
      tensor {
        dtype: DT_STRING
        tensor_shape {
        }
        string_val: "Input serialized must be a scalar"
      }
    }
  }
}
node {
  name: "ParseSingleExample/SerializedIsScalar/AssertGuard/Assert/Switch"
  op: "Switch"
  input: "ParseSingleExample/Equal"
  input: "ParseSingleExample/SerializedIsScalar/AssertGuard/pred_id"
  attr {
    key: "T"
    value {
      type: DT_BOOL
    }
  }
  attr {
    key: "_class"
    value {
      list {
        s: "loc:@ParseSingleExample/Equal"
      }
    }
  }
  attr {
    key: "_output_shapes"
    value {
      list {
        shape {
        }
        shape {
        }
      }
    }
  }
}
node {
  name: "ParseSingleExample/SerializedIsScalar/AssertGuard/Assert"
  op: "Assert"
  input: "ParseSingleExample/SerializedIsScalar/AssertGuard/Assert/Switch"
  input: "ParseSingleExample/SerializedIsScalar/AssertGuard/Assert/data_0"
  attr {
    key: "T"
    value {
      list {
        type: DT_STRING
      }
    }
  }
  attr {
    key: "summarize"
    value {
      i: 3
    }
  }
}
node {
  name: "ParseSingleExample/SerializedIsScalar/AssertGuard/control_dependency_1"
  op: "Identity"
  input: "ParseSingleExample/SerializedIsScalar/AssertGuard/switch_f"
  input: "^ParseSingleExample/SerializedIsScalar/AssertGuard/Assert"
  attr {
    key: "T"
    value {
      type: DT_BOOL
    }
  }
  attr {
    key: "_class"
    value {
      list {
        s: "loc:@ParseSingleExample/SerializedIsScalar/AssertGuard/switch_f"
      }
    }
  }
  attr {
    key: "_output_shapes"
    value {
      list {
        shape {
        }
      }
    }
  }
}
node {
  name: "ParseSingleExample/SerializedIsScalar/AssertGuard/Merge"
  op: "Merge"
  input: "ParseSingleExample/SerializedIsScalar/AssertGuard/control_dependency_1"
  input: "ParseSingleExample/SerializedIsScalar/AssertGuard/control_dependency"
  attr {
    key: "N"
    value {
      i: 2
    }
  }
  attr {
    key: "T"
    value {
      type: DT_BOOL
    }
  }
  attr {
    key: "_output_shapes"
    value {
      list {
        shape {
        }
        shape {
        }
      }
    }
  }
}
node {
  name: "ParseSingleExample/SerializedDependencies"
  op: "Identity"
  input: "parallel_read/random_shuffle_queue_Dequeue:1"
  input: "^ParseSingleExample/SerializedIsScalar/AssertGuard/Merge"
  attr {
    key: "T"
    value {
      type: DT_STRING
    }
  }
  attr {
    key: "_class"
    value {
      list {
        s: "loc:@parallel_read/random_shuffle_queue"
      }
    }
  }
  attr {
    key: "_output_shapes"
    value {
      list {
        shape {
          unknown_rank: true
        }
      }
    }
  }
}
node {
  name: "ParseSingleExample/ExpandDims/dim"
  op: "Const"
  attr {
    key: "_output_shapes"
    value {
      list {
        shape {
        }
      }
    }
  }
  attr {
    key: "dtype"
    value {
      type: DT_INT32
    }
  }
  attr {
    key: "value"
    value {
      tensor {
        dtype: DT_INT32
        tensor_shape {
        }
        int_val: 0
      }
    }
  }
}
node {
  name: "ParseSingleExample/ExpandDims"
  op: "ExpandDims"
  input: "ParseSingleExample/SerializedDependencies"
  input: "ParseSingleExample/ExpandDims/dim"
  attr {
    key: "T"
    value {
      type: DT_STRING
    }
  }
  attr {
    key: "Tdim"
    value {
      type: DT_INT32
    }
  }
  attr {
    key: "_output_shapes"
    value {
      list {
        shape {
          unknown_rank: true
        }
      }
    }
  }
}
node {
  name: "ParseSingleExample/ParseExample/Const"
  op: "Const"
  attr {
    key: "_output_shapes"
    value {
      list {
        shape {
          dim {
          }
        }
      }
    }
  }
  attr {
    key: "dtype"
    value {
      type: DT_FLOAT
    }
  }
  attr {
    key: "value"
    value {
      tensor {
        dtype: DT_FLOAT
        tensor_shape {
          dim {
          }
        }
      }
    }
  }
}
node {
  name: "ParseSingleExample/ParseExample/Const_1"
  op: "Const"
  attr {
    key: "_output_shapes"
    value {
      list {
        shape {
          dim {
          }
        }
      }
    }
  }
  attr {
    key: "dtype"
    value {
      type: DT_STRING
    }
  }
  attr {
    key: "value"
    value {
      tensor {
        dtype: DT_STRING
        tensor_shape {
          dim {
          }
        }
      }
    }
  }
}
node {
  name: "ParseSingleExample/ParseExample/Const_2"
  op: "Const"
  attr {
    key: "_output_shapes"
    value {
      list {
        shape {
          dim {
          }
        }
      }
    }
  }
  attr {
    key: "dtype"
    value {
      type: DT_INT64
    }
  }
  attr {
    key: "value"
    value {
      tensor {
        dtype: DT_INT64
        tensor_shape {
          dim {
          }
        }
      }
    }
  }
}
node {
  name: "ParseSingleExample/ParseExample/ParseExample/names"
  op: "Const"
  attr {
    key: "_output_shapes"
    value {
      list {
        shape {
          dim {
          }
        }
      }
    }
  }
  attr {
    key: "dtype"
    value {
      type: DT_STRING
    }
  }
  attr {
    key: "value"
    value {
      tensor {
        dtype: DT_STRING
        tensor_shape {
          dim {
          }
        }
      }
    }
  }
}
node {
  name: "ParseSingleExample/ParseExample/ParseExample/dense_keys_0"
  op: "Const"
  attr {
    key: "_output_shapes"
    value {
      list {
        shape {
        }
      }
    }
  }
  attr {
    key: "dtype"
    value {
      type: DT_STRING
    }
  }
  attr {
    key: "value"
    value {
      tensor {
        dtype: DT_STRING
        tensor_shape {
        }
        string_val: "data"
      }
    }
  }
}
node {
  name: "ParseSingleExample/ParseExample/ParseExample/dense_keys_1"
  op: "Const"
  attr {
    key: "_output_shapes"
    value {
      list {
        shape {
        }
      }
    }
  }
  attr {
    key: "dtype"
    value {
      type: DT_STRING
    }
  }
  attr {
    key: "value"
    value {
      tensor {
        dtype: DT_STRING
        tensor_shape {
        }
        string_val: "filename"
      }
    }
  }
}
node {
  name: "ParseSingleExample/ParseExample/ParseExample/dense_keys_2"
  op: "Const"
  attr {
    key: "_output_shapes"
    value {
      list {
        shape {
        }
      }
    }
  }
  attr {
    key: "dtype"
    value {
      type: DT_STRING
    }
  }
  attr {
    key: "value"
    value {
      tensor {
        dtype: DT_STRING
        tensor_shape {
        }
        string_val: "label"
      }
    }
  }
}
node {
  name: "ParseSingleExample/ParseExample/ParseExample"
  op: "ParseExample"
  input: "ParseSingleExample/ExpandDims"
  input: "ParseSingleExample/ParseExample/ParseExample/names"
  input: "ParseSingleExample/ParseExample/ParseExample/dense_keys_0"
  input: "ParseSingleExample/ParseExample/ParseExample/dense_keys_1"
  input: "ParseSingleExample/ParseExample/ParseExample/dense_keys_2"
  input: "ParseSingleExample/ParseExample/Const"
  input: "ParseSingleExample/ParseExample/Const_1"
  input: "ParseSingleExample/ParseExample/Const_2"
  attr {
    key: "Ndense"
    value {
      i: 3
    }
  }
  attr {
    key: "Nsparse"
    value {
      i: 0
    }
  }
  attr {
    key: "Tdense"
    value {
      list {
        type: DT_FLOAT
        type: DT_STRING
        type: DT_INT64
      }
    }
  }
  attr {
    key: "_output_shapes"
    value {
      list {
        shape {
          dim {
            size: -1
          }
          dim {
            size: 3840000
          }
        }
        shape {
          dim {
            size: -1
          }
        }
        shape {
          dim {
            size: -1
          }
        }
      }
    }
  }
  attr {
    key: "dense_shapes"
    value {
      list {
        shape {
          dim {
            size: 3840000
          }
        }
        shape {
        }
        shape {
        }
      }
    }
  }
  attr {
    key: "sparse_types"
    value {
      list {
      }
    }
  }
}
node {
  name: "ParseSingleExample/Squeeze_data"
  op: "Squeeze"
  input: "ParseSingleExample/ParseExample/ParseExample"
  attr {
    key: "T"
    value {
      type: DT_FLOAT
    }
  }
  attr {
    key: "_output_shapes"
    value {
      list {
        shape {
          dim {
            size: 3840000
          }
        }
      }
    }
  }
  attr {
    key: "squeeze_dims"
    value {
      list {
        i: 0
      }
    }
  }
}
node {
  name: "ParseSingleExample/Squeeze_filename"
  op: "Squeeze"
  input: "ParseSingleExample/ParseExample/ParseExample:1"
  attr {
    key: "T"
    value {
      type: DT_STRING
    }
  }
  attr {
    key: "_output_shapes"
    value {
      list {
        shape {
        }
      }
    }
  }
  attr {
    key: "squeeze_dims"
    value {
      list {
        i: 0
      }
    }
  }
}
node {
  name: "ParseSingleExample/Squeeze_label"
  op: "Squeeze"
  input: "ParseSingleExample/ParseExample/ParseExample:2"
  attr {
    key: "T"
    value {
      type: DT_INT64
    }
  }
  attr {
    key: "_output_shapes"
    value {
      list {
        shape {
        }
      }
    }
  }
  attr {
    key: "squeeze_dims"
    value {
      list {
        i: 0
      }
    }
  }
}
node {
  name: "Reshape/shape"
  op: "Const"
  attr {
    key: "_output_shapes"
    value {
      list {
        shape {
          dim {
          }
        }
      }
    }
  }
  attr {
    key: "dtype"
    value {
      type: DT_INT32
    }
  }
  attr {
    key: "value"
    value {
      tensor {
        dtype: DT_INT32
        tensor_shape {
          dim {
          }
        }
      }
    }
  }
}
node {
  name: "Reshape"
  op: "Reshape"
  input: "ParseSingleExample/Squeeze_filename"
  input: "Reshape/shape"
  attr {
    key: "T"
    value {
      type: DT_STRING
    }
  }
  attr {
    key: "Tshape"
    value {
      type: DT_INT32
    }
  }
  attr {
    key: "_output_shapes"
    value {
      list {
        shape {
        }
      }
    }
  }
}
node {
  name: "Reshape_1/shape"
  op: "Const"
  attr {
    key: "_output_shapes"
    value {
      list {
        shape {
          dim {
            size: 1
          }
        }
      }
    }
  }
  attr {
    key: "dtype"
    value {
      type: DT_INT32
    }
  }
  attr {
    key: "value"
    value {
      tensor {
        dtype: DT_INT32
        tensor_shape {
          dim {
            size: 1
          }
        }
        int_val: 3840000
      }
    }
  }
}
node {
  name: "Reshape_1"
  op: "Reshape"
  input: "ParseSingleExample/Squeeze_data"
  input: "Reshape_1/shape"
  attr {
    key: "T"
    value {
      type: DT_FLOAT
    }
  }
  attr {
    key: "Tshape"
    value {
      type: DT_INT32
    }
  }
  attr {
    key: "_output_shapes"
    value {
      list {
        shape {
          dim {
            size: 3840000
          }
        }
      }
    }
  }
}
node {
  name: "Reshape_2/shape"
  op: "Const"
  attr {
    key: "_output_shapes"
    value {
      list {
        shape {
          dim {
          }
        }
      }
    }
  }
  attr {
    key: "dtype"
    value {
      type: DT_INT32
    }
  }
  attr {
    key: "value"
    value {
      tensor {
        dtype: DT_INT32
        tensor_shape {
          dim {
          }
        }
      }
    }
  }
}
node {
  name: "Reshape_2"
  op: "Reshape"
  input: "ParseSingleExample/Squeeze_label"
  input: "Reshape_2/shape"
  attr {
    key: "T"
    value {
      type: DT_INT64
    }
  }
  attr {
    key: "Tshape"
    value {
      type: DT_INT32
    }
  }
  attr {
    key: "_output_shapes"
    value {
      list {
        shape {
        }
      }
    }
  }
}
node {
  name: "Reshape_3/shape"
  op: "Const"
  attr {
    key: "_output_shapes"
    value {
      list {
        shape {
          dim {
            size: 2
          }
        }
      }
    }
  }
  attr {
    key: "dtype"
    value {
      type: DT_INT32
    }
  }
  attr {
    key: "value"
    value {
      tensor {
        dtype: DT_INT32
        tensor_shape {
          dim {
            size: 2
          }
        }
        tensor_content: "\200\251\003\000\020\000\000\000"
      }
    }
  }
}
node {
  name: "Reshape_3"
  op: "Reshape"
  input: "Reshape_1"
  input: "Reshape_3/shape"
  attr {
    key: "T"
    value {
      type: DT_FLOAT
    }
  }
  attr {
    key: "Tshape"
    value {
      type: DT_INT32
    }
  }
  attr {
    key: "_output_shapes"
    value {
      list {
        shape {
          dim {
            size: 240000
          }
          dim {
            size: 16
          }
        }
      }
    }
  }
}
node {
  name: "split/split_dim"
  op: "Const"
  attr {
    key: "_output_shapes"
    value {
      list {
        shape {
        }
      }
    }
  }
  attr {
    key: "dtype"
    value {
      type: DT_INT32
    }
  }
  attr {
    key: "value"
    value {
      tensor {
        dtype: DT_INT32
        tensor_shape {
        }
        int_val: 0
      }
    }
  }
}
node {
  name: "split"
  op: "Split"
  input: "split/split_dim"
  input: "Reshape_3"
  attr {
    key: "T"
    value {
      type: DT_FLOAT
    }
  }
  attr {
    key: "_output_shapes"
    value {
      list {
        shape {
          dim {
            size: 4800
          }
          dim {
            size: 16
          }
        }
        shape {
          dim {
            size: 4800
          }
          dim {
            size: 16
          }
        }
        shape {
          dim {
            size: 4800
          }
          dim {
            size: 16
          }
        }
        shape {
          dim {
            size: 4800
          }
          dim {
            size: 16
          }
        }
        shape {
          dim {
            size: 4800
          }
          dim {
            size: 16
          }
        }
        shape {
          dim {
            size: 4800
          }
          dim {
            size: 16
          }
        }
        shape {
          dim {
            size: 4800
          }
          dim {
            size: 16
          }
        }
        shape {
          dim {
            size: 4800
          }
          dim {
            size: 16
          }
        }
        shape {
          dim {
            size: 4800
          }
          dim {
            size: 16
          }
        }
        shape {
          dim {
            size: 4800
          }
          dim {
            size: 16
          }
        }
        shape {
          dim {
            size: 4800
          }
          dim {
            size: 16
          }
        }
        shape {
          dim {
            size: 4800
          }
          dim {
            size: 16
          }
        }
        shape {
          dim {
            size: 4800
          }
          dim {
            size: 16
          }
        }
        shape {
          dim {
            size: 4800
          }
          dim {
            size: 16
          }
        }
        shape {
          dim {
            size: 4800
          }
          dim {
            size: 16
          }
        }
        shape {
          dim {
            size: 4800
          }
          dim {
            size: 16
          }
        }
        shape {
          dim {
            size: 4800
          }
          dim {
            size: 16
          }
        }
        shape {
          dim {
            size: 4800
          }
          dim {
            size: 16
          }
        }
        shape {
          dim {
            size: 4800
          }
          dim {
            size: 16
          }
        }
        shape {
          dim {
            size: 4800
          }
          dim {
            size: 16
          }
        }
        shape {
          dim {
            size: 4800
          }
          dim {
            size: 16
          }
        }
        shape {
          dim {
            size: 4800
          }
          dim {
            size: 16
          }
        }
        shape {
          dim {
            size: 4800
          }
          dim {
            size: 16
          }
        }
        shape {
          dim {
            size: 4800
          }
          dim {
            size: 16
          }
        }
        shape {
          dim {
            size: 4800
          }
          dim {
            size: 16
          }
        }
        shape {
          dim {
            size: 4800
          }
          dim {
            size: 16
          }
        }
        shape {
          dim {
            size: 4800
          }
          dim {
            size: 16
          }
        }
        shape {
          dim {
            size: 4800
          }
          dim {
            size: 16
          }
        }
        shape {
          dim {
            size: 4800
          }
          dim {
            size: 16
          }
        }
        shape {
          dim {
            size: 4800
          }
          dim {
            size: 16
          }
        }
        shape {
          dim {
            size: 4800
          }
          dim {
            size: 16
          }
        }
        shape {
          dim {
            size: 4800
          }
          dim {
            size: 16
          }
        }
        shape {
          dim {
            size: 4800
          }
          dim {
            size: 16
          }
        }
        shape {
          dim {
            size: 4800
          }
          dim {
            size: 16
          }
        }
        shape {
          dim {
            size: 4800
          }
          dim {
            size: 16
          }
        }
        shape {
          dim {
            size: 4800
          }
          dim {
            size: 16
          }
        }
        shape {
          dim {
            size: 4800
          }
          dim {
            size: 16
          }
        }
        shape {
          dim {
            size: 4800
          }
          dim {
            size: 16
          }
        }
        shape {
          dim {
            size: 4800
          }
          dim {
            size: 16
          }
        }
        shape {
          dim {
            size: 4800
          }
          dim {
            size: 16
          }
        }
        shape {
          dim {
            size: 4800
          }
          dim {
            size: 16
          }
        }
        shape {
          dim {
            size: 4800
          }
          dim {
            size: 16
          }
        }
        shape {
          dim {
            size: 4800
          }
          dim {
            size: 16
          }
        }
        shape {
          dim {
            size: 4800
          }
          dim {
            size: 16
          }
        }
        shape {
          dim {
            size: 4800
          }
          dim {
            size: 16
          }
        }
        shape {
          dim {
            size: 4800
          }
          dim {
            size: 16
          }
        }
        shape {
          dim {
            size: 4800
          }
          dim {
            size: 16
          }
        }
        shape {
          dim {
            size: 4800
          }
          dim {
            size: 16
          }
        }
        shape {
          dim {
            size: 4800
          }
          dim {
            size: 16
          }
        }
        shape {
          dim {
            size: 4800
          }
          dim {
            size: 16
          }
        }
      }
    }
  }
  attr {
    key: "num_split"
    value {
      i: 50
    }
  }
}
node {
  name: "pack"
  op: "Pack"
  input: "split"
  input: "split:1"
  input: "split:2"
  input: "split:3"
  input: "split:4"
  input: "split:5"
  input: "split:6"
  input: "split:7"
  input: "split:8"
  input: "split:9"
  input: "split:10"
  input: "split:11"
  input: "split:12"
  input: "split:13"
  input: "split:14"
  input: "split:15"
  input: "split:16"
  input: "split:17"
  input: "split:18"
  input: "split:19"
  input: "split:20"
  input: "split:21"
  input: "split:22"
  input: "split:23"
  input: "split:24"
  input: "split:25"
  input: "split:26"
  input: "split:27"
  input: "split:28"
  input: "split:29"
  input: "split:30"
  input: "split:31"
  input: "split:32"
  input: "split:33"
  input: "split:34"
  input: "split:35"
  input: "split:36"
  input: "split:37"
  input: "split:38"
  input: "split:39"
  input: "split:40"
  input: "split:41"
  input: "split:42"
  input: "split:43"
  input: "split:44"
  input: "split:45"
  input: "split:46"
  input: "split:47"
  input: "split:48"
  input: "split:49"
  attr {
    key: "N"
    value {
      i: 50
    }
  }
  attr {
    key: "T"
    value {
      type: DT_FLOAT
    }
  }
  attr {
    key: "_output_shapes"
    value {
      list {
        shape {
          dim {
            size: 50
          }
          dim {
            size: 4800
          }
          dim {
            size: 16
          }
        }
      }
    }
  }
  attr {
    key: "axis"
    value {
      i: 0
    }
  }
}
node {
  name: "moments/sufficient_statistics/Const"
  op: "Const"
  attr {
    key: "_output_shapes"
    value {
      list {
        shape {
        }
      }
    }
  }
  attr {
    key: "dtype"
    value {
      type: DT_FLOAT
    }
  }
  attr {
    key: "value"
    value {
      tensor {
        dtype: DT_FLOAT
        tensor_shape {
        }
        float_val: 76800.0
      }
    }
  }
}
node {
  name: "moments/sufficient_statistics/Square"
  op: "Square"
  input: "pack"
  attr {
    key: "T"
    value {
      type: DT_FLOAT
    }
  }
  attr {
    key: "_output_shapes"
    value {
      list {
        shape {
          dim {
            size: 50
          }
          dim {
            size: 4800
          }
          dim {
            size: 16
          }
        }
      }
    }
  }
}
node {
  name: "moments/sufficient_statistics/mean_ss/reduction_indices"
  op: "Const"
  attr {
    key: "_output_shapes"
    value {
      list {
        shape {
          dim {
            size: 2
          }
        }
      }
    }
  }
  attr {
    key: "dtype"
    value {
      type: DT_INT32
    }
  }
  attr {
    key: "value"
    value {
      tensor {
        dtype: DT_INT32
        tensor_shape {
          dim {
            size: 2
          }
        }
        tensor_content: "\001\000\000\000\002\000\000\000"
      }
    }
  }
}
node {
  name: "moments/sufficient_statistics/mean_ss"
  op: "Sum"
  input: "pack"
  input: "moments/sufficient_statistics/mean_ss/reduction_indices"
  attr {
    key: "T"
    value {
      type: DT_FLOAT
    }
  }
  attr {
    key: "Tidx"
    value {
      type: DT_INT32
    }
  }
  attr {
    key: "_output_shapes"
    value {
      list {
        shape {
          dim {
            size: 50
          }
        }
      }
    }
  }
  attr {
    key: "keep_dims"
    value {
      b: false
    }
  }
}
node {
  name: "moments/sufficient_statistics/var_ss/reduction_indices"
  op: "Const"
  attr {
    key: "_output_shapes"
    value {
      list {
        shape {
          dim {
            size: 2
          }
        }
      }
    }
  }
  attr {
    key: "dtype"
    value {
      type: DT_INT32
    }
  }
  attr {
    key: "value"
    value {
      tensor {
        dtype: DT_INT32
        tensor_shape {
          dim {
            size: 2
          }
        }
        tensor_content: "\001\000\000\000\002\000\000\000"
      }
    }
  }
}
node {
  name: "moments/sufficient_statistics/var_ss"
  op: "Sum"
  input: "moments/sufficient_statistics/Square"
  input: "moments/sufficient_statistics/var_ss/reduction_indices"
  attr {
    key: "T"
    value {
      type: DT_FLOAT
    }
  }
  attr {
    key: "Tidx"
    value {
      type: DT_INT32
    }
  }
  attr {
    key: "_output_shapes"
    value {
      list {
        shape {
          dim {
            size: 50
          }
        }
      }
    }
  }
  attr {
    key: "keep_dims"
    value {
      b: false
    }
  }
}
node {
  name: "moments/normalize/divisor"
  op: "Inv"
  input: "moments/sufficient_statistics/Const"
  input: "^moments/sufficient_statistics/mean_ss"
  input: "^moments/sufficient_statistics/var_ss"
  attr {
    key: "T"
    value {
      type: DT_FLOAT
    }
  }
  attr {
    key: "_output_shapes"
    value {
      list {
        shape {
        }
      }
    }
  }
}
node {
  name: "moments/normalize/mean"
  op: "Mul"
  input: "moments/sufficient_statistics/mean_ss"
  input: "moments/normalize/divisor"
  attr {
    key: "T"
    value {
      type: DT_FLOAT
    }
  }
  attr {
    key: "_output_shapes"
    value {
      list {
        shape {
          dim {
            size: 50
          }
        }
      }
    }
  }
}
node {
  name: "moments/normalize/Mul"
  op: "Mul"
  input: "moments/sufficient_statistics/var_ss"
  input: "moments/normalize/divisor"
  attr {
    key: "T"
    value {
      type: DT_FLOAT
    }
  }
  attr {
    key: "_output_shapes"
    value {
      list {
        shape {
          dim {
            size: 50
          }
        }
      }
    }
  }
}
node {
  name: "moments/normalize/Square"
  op: "Square"
  input: "moments/normalize/mean"
  attr {
    key: "T"
    value {
      type: DT_FLOAT
    }
  }
  attr {
    key: "_output_shapes"
    value {
      list {
        shape {
          dim {
            size: 50
          }
        }
      }
    }
  }
}
node {
  name: "moments/normalize/variance"
  op: "Sub"
  input: "moments/normalize/Mul"
  input: "moments/normalize/Square"
  attr {
    key: "T"
    value {
      type: DT_FLOAT
    }
  }
  attr {
    key: "_output_shapes"
    value {
      list {
        shape {
          dim {
            size: 50
          }
        }
      }
    }
  }
}
node {
  name: "Greater/y"
  op: "Const"
  attr {
    key: "_output_shapes"
    value {
      list {
        shape {
        }
      }
    }
  }
  attr {
    key: "dtype"
    value {
      type: DT_FLOAT
    }
  }
  attr {
    key: "value"
    value {
      tensor {
        dtype: DT_FLOAT
        tensor_shape {
        }
        float_val: 0.5
      }
    }
  }
}
node {
  name: "Greater"
  op: "Greater"
  input: "moments/normalize/variance"
  input: "Greater/y"
  attr {
    key: "T"
    value {
      type: DT_FLOAT
    }
  }
  attr {
    key: "_output_shapes"
    value {
      list {
        shape {
          dim {
            size: 50
          }
        }
      }
    }
  }
}
node {
  name: "Where"
  op: "Where"
  input: "Greater"
  attr {
    key: "_output_shapes"
    value {
      list {
        shape {
          dim {
            size: -1
          }
          dim {
            size: 1
          }
        }
      }
    }
  }
}
node {
  name: "Reshape_4/shape"
  op: "Const"
  attr {
    key: "_output_shapes"
    value {
      list {
        shape {
          dim {
            size: 1
          }
        }
      }
    }
  }
  attr {
    key: "dtype"
    value {
      type: DT_INT32
    }
  }
  attr {
    key: "value"
    value {
      tensor {
        dtype: DT_INT32
        tensor_shape {
          dim {
            size: 1
          }
        }
        int_val: -1
      }
    }
  }
}
node {
  name: "Reshape_4"
  op: "Reshape"
  input: "Where"
  input: "Reshape_4/shape"
  attr {
    key: "T"
    value {
      type: DT_INT64
    }
  }
  attr {
    key: "Tshape"
    value {
      type: DT_INT32
    }
  }
  attr {
    key: "_output_shapes"
    value {
      list {
        shape {
          dim {
            size: -1
          }
        }
      }
    }
  }
}
node {
  name: "Gather"
  op: "Gather"
  input: "pack"
  input: "Reshape_4"
  attr {
    key: "Tindices"
    value {
      type: DT_INT64
    }
  }
  attr {
    key: "Tparams"
    value {
      type: DT_FLOAT
    }
  }
  attr {
    key: "_output_shapes"
    value {
      list {
        shape {
          dim {
            size: -1
          }
          dim {
            size: 4800
          }
          dim {
            size: 16
          }
        }
      }
    }
  }
  attr {
    key: "validate_indices"
    value {
      b: true
    }
  }
}
node {
  name: "one_hot/on_value"
  op: "Const"
  attr {
    key: "_output_shapes"
    value {
      list {
        shape {
        }
      }
    }
  }
  attr {
    key: "dtype"
    value {
      type: DT_INT32
    }
  }
  attr {
    key: "value"
    value {
      tensor {
        dtype: DT_INT32
        tensor_shape {
        }
        int_val: 1
      }
    }
  }
}
node {
  name: "one_hot/off_value"
  op: "Const"
  attr {
    key: "_output_shapes"
    value {
      list {
        shape {
        }
      }
    }
  }
  attr {
    key: "dtype"
    value {
      type: DT_INT32
    }
  }
  attr {
    key: "value"
    value {
      tensor {
        dtype: DT_INT32
        tensor_shape {
        }
        int_val: 0
      }
    }
  }
}
node {
  name: "one_hot/depth"
  op: "Const"
  attr {
    key: "_output_shapes"
    value {
      list {
        shape {
        }
      }
    }
  }
  attr {
    key: "dtype"
    value {
      type: DT_INT32
    }
  }
  attr {
    key: "value"
    value {
      tensor {
        dtype: DT_INT32
        tensor_shape {
        }
        int_val: 2
      }
    }
  }
}
node {
  name: "one_hot"
  op: "OneHot"
  input: "Reshape_2"
  input: "one_hot/depth"
  input: "one_hot/on_value"
  input: "one_hot/off_value"
  attr {
    key: "T"
    value {
      type: DT_INT32
    }
  }
  attr {
    key: "TI"
    value {
      type: DT_INT64
    }
  }
  attr {
    key: "_output_shapes"
    value {
      list {
        shape {
          dim {
            size: 2
          }
        }
      }
    }
  }
  attr {
    key: "axis"
    value {
      i: -1
    }
  }
}
node {
  name: "Shape"
  op: "Shape"
  input: "Gather"
  attr {
    key: "T"
    value {
      type: DT_FLOAT
    }
  }
  attr {
    key: "_output_shapes"
    value {
      list {
        shape {
          dim {
            size: 3
          }
        }
      }
    }
  }
  attr {
    key: "out_type"
    value {
      type: DT_INT32
    }
  }
}
node {
  name: "strided_slice/pack"
  op: "Const"
  attr {
    key: "_output_shapes"
    value {
      list {
        shape {
          dim {
            size: 1
          }
        }
      }
    }
  }
  attr {
    key: "dtype"
    value {
      type: DT_INT32
    }
  }
  attr {
    key: "value"
    value {
      tensor {
        dtype: DT_INT32
        tensor_shape {
          dim {
            size: 1
          }
        }
        int_val: 0
      }
    }
  }
}
node {
  name: "strided_slice/pack_1"
  op: "Const"
  attr {
    key: "_output_shapes"
    value {
      list {
        shape {
          dim {
            size: 1
          }
        }
      }
    }
  }
  attr {
    key: "dtype"
    value {
      type: DT_INT32
    }
  }
  attr {
    key: "value"
    value {
      tensor {
        dtype: DT_INT32
        tensor_shape {
          dim {
            size: 1
          }
        }
        int_val: 1
      }
    }
  }
}
node {
  name: "strided_slice/pack_2"
  op: "Const"
  attr {
    key: "_output_shapes"
    value {
      list {
        shape {
          dim {
            size: 1
          }
        }
      }
    }
  }
  attr {
    key: "dtype"
    value {
      type: DT_INT32
    }
  }
  attr {
    key: "value"
    value {
      tensor {
        dtype: DT_INT32
        tensor_shape {
          dim {
            size: 1
          }
        }
        int_val: 1
      }
    }
  }
}
node {
  name: "strided_slice"
  op: "StridedSlice"
  input: "Shape"
  input: "strided_slice/pack"
  input: "strided_slice/pack_1"
  input: "strided_slice/pack_2"
  attr {
    key: "Index"
    value {
      type: DT_INT32
    }
  }
  attr {
    key: "T"
    value {
      type: DT_INT32
    }
  }
  attr {
    key: "_output_shapes"
    value {
      list {
        shape {
        }
      }
    }
  }
  attr {
    key: "begin_mask"
    value {
      i: 0
    }
  }
  attr {
    key: "ellipsis_mask"
    value {
      i: 0
    }
  }
  attr {
    key: "end_mask"
    value {
      i: 0
    }
  }
  attr {
    key: "new_axis_mask"
    value {
      i: 0
    }
  }
  attr {
    key: "shrink_axis_mask"
    value {
      i: 1
    }
  }
}
node {
  name: "Tile/multiples"
  op: "Pack"
  input: "strided_slice"
  attr {
    key: "N"
    value {
      i: 1
    }
  }
  attr {
    key: "T"
    value {
      type: DT_INT32
    }
  }
  attr {
    key: "_output_shapes"
    value {
      list {
        shape {
          dim {
            size: 1
          }
        }
      }
    }
  }
  attr {
    key: "axis"
    value {
      i: 0
    }
  }
}
node {
  name: "Tile"
  op: "Tile"
  input: "one_hot"
  input: "Tile/multiples"
  attr {
    key: "T"
    value {
      type: DT_INT32
    }
  }
  attr {
    key: "Tmultiples"
    value {
      type: DT_INT32
    }
  }
  attr {
    key: "_output_shapes"
    value {
      list {
        shape {
          dim {
            size: -1
          }
        }
      }
    }
  }
}
node {
  name: "Reshape_5/shape/1"
  op: "Const"
  attr {
    key: "_output_shapes"
    value {
      list {
        shape {
        }
      }
    }
  }
  attr {
    key: "dtype"
    value {
      type: DT_INT32
    }
  }
  attr {
    key: "value"
    value {
      tensor {
        dtype: DT_INT32
        tensor_shape {
        }
        int_val: 2
      }
    }
  }
}
node {
  name: "Reshape_5/shape"
  op: "Pack"
  input: "strided_slice"
  input: "Reshape_5/shape/1"
  attr {
    key: "N"
    value {
      i: 2
    }
  }
  attr {
    key: "T"
    value {
      type: DT_INT32
    }
  }
  attr {
    key: "_output_shapes"
    value {
      list {
        shape {
          dim {
            size: 2
          }
        }
      }
    }
  }
  attr {
    key: "axis"
    value {
      i: 0
    }
  }
}
node {
  name: "Reshape_5"
  op: "Reshape"
  input: "Tile"
  input: "Reshape_5/shape"
  attr {
    key: "T"
    value {
      type: DT_INT32
    }
  }
  attr {
    key: "Tshape"
    value {
      type: DT_INT32
    }
  }
  attr {
    key: "_output_shapes"
    value {
      list {
        shape {
          dim {
            size: -1
          }
          dim {
            size: 2
          }
        }
      }
    }
  }
}
node {
  name: "Mean/reduction_indices"
  op: "Const"
  attr {
    key: "_output_shapes"
    value {
      list {
        shape {
          dim {
            size: 1
          }
        }
      }
    }
  }
  attr {
    key: "dtype"
    value {
      type: DT_INT32
    }
  }
  attr {
    key: "value"
    value {
      tensor {
        dtype: DT_INT32
        tensor_shape {
          dim {
            size: 1
          }
        }
        int_val: 1
      }
    }
  }
}
node {
  name: "Mean"
  op: "Mean"
  input: "Gather"
  input: "Mean/reduction_indices"
  attr {
    key: "T"
    value {
      type: DT_FLOAT
    }
  }
  attr {
    key: "Tidx"
    value {
      type: DT_INT32
    }
  }
  attr {
    key: "_output_shapes"
    value {
      list {
        shape {
          dim {
            size: -1
          }
          dim {
            size: 16
          }
        }
      }
    }
  }
  attr {
    key: "keep_dims"
    value {
      b: false
    }
  }
}
node {
  name: "ExpandDims/dim"
  op: "Const"
  attr {
    key: "_output_shapes"
    value {
      list {
        shape {
        }
      }
    }
  }
  attr {
    key: "dtype"
    value {
      type: DT_INT32
    }
  }
  attr {
    key: "value"
    value {
      tensor {
        dtype: DT_INT32
        tensor_shape {
        }
        int_val: 1
      }
    }
  }
}
node {
  name: "ExpandDims"
  op: "ExpandDims"
  input: "Mean"
  input: "ExpandDims/dim"
  attr {
    key: "T"
    value {
      type: DT_FLOAT
    }
  }
  attr {
    key: "Tdim"
    value {
      type: DT_INT32
    }
  }
  attr {
    key: "_output_shapes"
    value {
      list {
        shape {
          dim {
            size: -1
          }
          dim {
            size: 1
          }
          dim {
            size: 16
          }
        }
      }
    }
  }
}
node {
  name: "Sub"
  op: "Sub"
  input: "Gather"
  input: "ExpandDims"
  attr {
    key: "T"
    value {
      type: DT_FLOAT
    }
  }
  attr {
    key: "_output_shapes"
    value {
      list {
        shape {
          dim {
            size: -1
          }
          dim {
            size: 4800
          }
          dim {
            size: 16
          }
        }
      }
    }
  }
}
node {
  name: "Abs"
  op: "Abs"
  input: "Sub"
  attr {
    key: "T"
    value {
      type: DT_FLOAT
    }
  }
  attr {
    key: "_output_shapes"
    value {
      list {
        shape {
          dim {
            size: -1
          }
          dim {
            size: 4800
          }
          dim {
            size: 16
          }
        }
      }
    }
  }
}
node {
  name: "Max/reduction_indices"
  op: "Const"
  attr {
    key: "_output_shapes"
    value {
      list {
        shape {
          dim {
            size: 1
          }
        }
      }
    }
  }
  attr {
    key: "dtype"
    value {
      type: DT_INT32
    }
  }
  attr {
    key: "value"
    value {
      tensor {
        dtype: DT_INT32
        tensor_shape {
          dim {
            size: 1
          }
        }
        int_val: 1
      }
    }
  }
}
node {
  name: "Max"
  op: "Max"
  input: "Abs"
  input: "Max/reduction_indices"
  attr {
    key: "T"
    value {
      type: DT_FLOAT
    }
  }
  attr {
    key: "Tidx"
    value {
      type: DT_INT32
    }
  }
  attr {
    key: "_output_shapes"
    value {
      list {
        shape {
          dim {
            size: -1
          }
          dim {
            size: 16
          }
        }
      }
    }
  }
  attr {
    key: "keep_dims"
    value {
      b: false
    }
  }
}
node {
  name: "ExpandDims_1/dim"
  op: "Const"
  attr {
    key: "_output_shapes"
    value {
      list {
        shape {
        }
      }
    }
  }
  attr {
    key: "dtype"
    value {
      type: DT_INT32
    }
  }
  attr {
    key: "value"
    value {
      tensor {
        dtype: DT_INT32
        tensor_shape {
        }
        int_val: 1
      }
    }
  }
}
node {
  name: "ExpandDims_1"
  op: "ExpandDims"
  input: "Max"
  input: "ExpandDims_1/dim"
  attr {
    key: "T"
    value {
      type: DT_FLOAT
    }
  }
  attr {
    key: "Tdim"
    value {
      type: DT_INT32
    }
  }
  attr {
    key: "_output_shapes"
    value {
      list {
        shape {
          dim {
            size: -1
          }
          dim {
            size: 1
          }
          dim {
            size: 16
          }
        }
      }
    }
  }
}
node {
  name: "Mul/x"
  op: "Const"
  attr {
    key: "_output_shapes"
    value {
      list {
        shape {
        }
      }
    }
  }
  attr {
    key: "dtype"
    value {
      type: DT_FLOAT
    }
  }
  attr {
    key: "value"
    value {
      tensor {
        dtype: DT_FLOAT
        tensor_shape {
        }
        float_val: 2.0
      }
    }
  }
}
node {
  name: "Mul"
  op: "Mul"
  input: "Mul/x"
  input: "ExpandDims_1"
  attr {
    key: "T"
    value {
      type: DT_FLOAT
    }
  }
  attr {
    key: "_output_shapes"
    value {
      list {
        shape {
          dim {
            size: -1
          }
          dim {
            size: 1
          }
          dim {
            size: 16
          }
        }
      }
    }
  }
}
node {
  name: "Div"
  op: "Div"
  input: "Sub"
  input: "Mul"
  attr {
    key: "T"
    value {
      type: DT_FLOAT
    }
  }
  attr {
    key: "_output_shapes"
    value {
      list {
        shape {
          dim {
            size: -1
          }
          dim {
            size: 4800
          }
          dim {
            size: 16
          }
        }
      }
    }
  }
}
node {
  name: "ExpandDims_2/dim"
  op: "Const"
  attr {
    key: "_output_shapes"
    value {
      list {
        shape {
        }
      }
    }
  }
  attr {
    key: "dtype"
    value {
      type: DT_INT32
    }
  }
  attr {
    key: "value"
    value {
      tensor {
        dtype: DT_INT32
        tensor_shape {
        }
        int_val: 1
      }
    }
  }
}
node {
  name: "ExpandDims_2"
  op: "ExpandDims"
  input: "Div"
  input: "ExpandDims_2/dim"
  attr {
    key: "T"
    value {
      type: DT_FLOAT
    }
  }
  attr {
    key: "Tdim"
    value {
      type: DT_INT32
    }
  }
  attr {
    key: "_output_shapes"
    value {
      list {
        shape {
          dim {
            size: -1
          }
          dim {
            size: 1
          }
          dim {
            size: 4800
          }
          dim {
            size: 16
          }
        }
      }
    }
  }
}
node {
  name: "shuffle_batch/random_shuffle_queue"
  op: "RandomShuffleQueue"
  attr {
    key: "_output_shapes"
    value {
      list {
        shape {
          dim {
            size: 2
          }
        }
      }
    }
  }
  attr {
    key: "capacity"
    value {
      i: 3200
    }
  }
  attr {
    key: "component_types"
    value {
      list {
        type: DT_FLOAT
        type: DT_INT32
      }
    }
  }
  attr {
    key: "container"
    value {
      s: ""
    }
  }
  attr {
    key: "min_after_dequeue"
    value {
      i: 2400
    }
  }
  attr {
    key: "seed"
    value {
      i: 0
    }
  }
  attr {
    key: "seed2"
    value {
      i: 0
    }
  }
  attr {
    key: "shapes"
    value {
      list {
        shape {
          dim {
            size: 1
          }
          dim {
            size: 4800
          }
          dim {
            size: 16
          }
        }
        shape {
          dim {
            size: 2
          }
        }
      }
    }
  }
  attr {
    key: "shared_name"
    value {
      s: ""
    }
  }
}
node {
  name: "shuffle_batch/random_shuffle_queue_EnqueueMany"
  op: "QueueEnqueueMany"
  input: "shuffle_batch/random_shuffle_queue"
  input: "ExpandDims_2"
  input: "Reshape_5"
  attr {
    key: "Tcomponents"
    value {
      list {
        type: DT_FLOAT
        type: DT_INT32
      }
    }
  }
  attr {
    key: "_class"
    value {
      list {
        s: "loc:@shuffle_batch/random_shuffle_queue"
      }
    }
  }
  attr {
    key: "timeout_ms"
    value {
      i: -1
    }
  }
}
node {
  name: "shuffle_batch/random_shuffle_queue_Close"
  op: "QueueClose"
  input: "shuffle_batch/random_shuffle_queue"
  attr {
    key: "_class"
    value {
      list {
        s: "loc:@shuffle_batch/random_shuffle_queue"
      }
    }
  }
  attr {
    key: "cancel_pending_enqueues"
    value {
      b: false
    }
  }
}
node {
  name: "shuffle_batch/random_shuffle_queue_Close_1"
  op: "QueueClose"
  input: "shuffle_batch/random_shuffle_queue"
  attr {
    key: "_class"
    value {
      list {
        s: "loc:@shuffle_batch/random_shuffle_queue"
      }
    }
  }
  attr {
    key: "cancel_pending_enqueues"
    value {
      b: true
    }
  }
}
node {
  name: "shuffle_batch/random_shuffle_queue_Size"
  op: "QueueSize"
  input: "shuffle_batch/random_shuffle_queue"
  attr {
    key: "_class"
    value {
      list {
        s: "loc:@shuffle_batch/random_shuffle_queue"
      }
    }
  }
  attr {
    key: "_output_shapes"
    value {
      list {
        shape {
        }
      }
    }
  }
}
node {
  name: "shuffle_batch/sub/y"
  op: "Const"
  attr {
    key: "_output_shapes"
    value {
      list {
        shape {
        }
      }
    }
  }
  attr {
    key: "dtype"
    value {
      type: DT_INT32
    }
  }
  attr {
    key: "value"
    value {
      tensor {
        dtype: DT_INT32
        tensor_shape {
        }
        int_val: 2400
      }
    }
  }
}
node {
  name: "shuffle_batch/sub"
  op: "Sub"
  input: "shuffle_batch/random_shuffle_queue_Size"
  input: "shuffle_batch/sub/y"
  attr {
    key: "T"
    value {
      type: DT_INT32
    }
  }
  attr {
    key: "_output_shapes"
    value {
      list {
        shape {
        }
      }
    }
  }
}
node {
  name: "shuffle_batch/Maximum/x"
  op: "Const"
  attr {
    key: "_output_shapes"
    value {
      list {
        shape {
        }
      }
    }
  }
  attr {
    key: "dtype"
    value {
      type: DT_INT32
    }
  }
  attr {
    key: "value"
    value {
      tensor {
        dtype: DT_INT32
        tensor_shape {
        }
        int_val: 0
      }
    }
  }
}
node {
  name: "shuffle_batch/Maximum"
  op: "Maximum"
  input: "shuffle_batch/Maximum/x"
  input: "shuffle_batch/sub"
  attr {
    key: "T"
    value {
      type: DT_INT32
    }
  }
  attr {
    key: "_output_shapes"
    value {
      list {
        shape {
        }
      }
    }
  }
}
node {
  name: "shuffle_batch/Cast"
  op: "Cast"
  input: "shuffle_batch/Maximum"
  attr {
    key: "DstT"
    value {
      type: DT_FLOAT
    }
  }
  attr {
    key: "SrcT"
    value {
      type: DT_INT32
    }
  }
  attr {
    key: "_output_shapes"
    value {
      list {
        shape {
        }
      }
    }
  }
}
node {
  name: "shuffle_batch/mul/y"
  op: "Const"
  attr {
    key: "_output_shapes"
    value {
      list {
        shape {
        }
      }
    }
  }
  attr {
    key: "dtype"
    value {
      type: DT_FLOAT
    }
  }
  attr {
    key: "value"
    value {
      tensor {
        dtype: DT_FLOAT
        tensor_shape {
        }
        float_val: 0.00124999997206
      }
    }
  }
}
node {
  name: "shuffle_batch/mul"
  op: "Mul"
  input: "shuffle_batch/Cast"
  input: "shuffle_batch/mul/y"
  attr {
    key: "T"
    value {
      type: DT_FLOAT
    }
  }
  attr {
    key: "_output_shapes"
    value {
      list {
        shape {
        }
      }
    }
  }
}
node {
  name: "shuffle_batch/ScalarSummary/tags"
  op: "Const"
  attr {
    key: "_output_shapes"
    value {
      list {
        shape {
        }
      }
    }
  }
  attr {
    key: "dtype"
    value {
      type: DT_STRING
    }
  }
  attr {
    key: "value"
    value {
      tensor {
        dtype: DT_STRING
        tensor_shape {
        }
        string_val: "queue/shuffle_batch/fraction_over_2400_of_800_full"
      }
    }
  }
}
node {
  name: "shuffle_batch/ScalarSummary"
  op: "ScalarSummary"
  input: "shuffle_batch/ScalarSummary/tags"
  input: "shuffle_batch/mul"
  attr {
    key: "T"
    value {
      type: DT_FLOAT
    }
  }
  attr {
    key: "_output_shapes"
    value {
      list {
        shape {
        }
      }
    }
  }
}
node {
  name: "shuffle_batch/n"
  op: "Const"
  attr {
    key: "_output_shapes"
    value {
      list {
        shape {
        }
      }
    }
  }
  attr {
    key: "dtype"
    value {
      type: DT_INT32
    }
  }
  attr {
    key: "value"
    value {
      tensor {
        dtype: DT_INT32
        tensor_shape {
        }
        int_val: 16
      }
    }
  }
}
node {
  name: "shuffle_batch"
  op: "QueueDequeueMany"
  input: "shuffle_batch/random_shuffle_queue"
  input: "shuffle_batch/n"
  attr {
    key: "_class"
    value {
      list {
        s: "loc:@shuffle_batch/random_shuffle_queue"
      }
    }
  }
  attr {
    key: "_output_shapes"
    value {
      list {
        shape {
          dim {
            size: 16
          }
          dim {
            size: 1
          }
          dim {
            size: 4800
          }
          dim {
            size: 16
          }
        }
        shape {
          dim {
            size: 16
          }
          dim {
            size: 2
          }
        }
      }
    }
  }
  attr {
    key: "component_types"
    value {
      list {
        type: DT_FLOAT
        type: DT_INT32
      }
    }
  }
  attr {
    key: "timeout_ms"
    value {
      i: -1
    }
  }
}
node {
  name: "eegnet_v1/input_layer/conv1/weights"
  op: "Variable"
  attr {
    key: "_output_shapes"
    value {
      list {
        shape {
          dim {
            size: 1
          }
          dim {
            size: 3
          }
          dim {
            size: 16
          }
          dim {
            size: 48
          }
        }
      }
    }
  }
  attr {
    key: "container"
    value {
      s: ""
    }
  }
  attr {
    key: "dtype"
    value {
      type: DT_FLOAT
    }
  }
  attr {
    key: "shape"
    value {
      shape {
        dim {
          size: 1
        }
        dim {
          size: 3
        }
        dim {
          size: 16
        }
        dim {
          size: 48
        }
      }
    }
  }
  attr {
    key: "shared_name"
    value {
      s: ""
    }
  }
}
node {
  name: "eegnet_v1/input_layer/conv1/weights/Initializer/random_uniform/shape"
  op: "Const"
  attr {
    key: "_class"
    value {
      list {
        s: "loc:@eegnet_v1/input_layer/conv1/weights"
      }
    }
  }
  attr {
    key: "_output_shapes"
    value {
      list {
        shape {
          dim {
            size: 4
          }
        }
      }
    }
  }
  attr {
    key: "dtype"
    value {
      type: DT_INT32
    }
  }
  attr {
    key: "value"
    value {
      tensor {
        dtype: DT_INT32
        tensor_shape {
          dim {
            size: 4
          }
        }
        tensor_content: "\001\000\000\000\003\000\000\000\020\000\000\0000\000\000\000"
      }
    }
  }
}
node {
  name: "eegnet_v1/input_layer/conv1/weights/Initializer/random_uniform/min"
  op: "Const"
  attr {
    key: "_class"
    value {
      list {
        s: "loc:@eegnet_v1/input_layer/conv1/weights"
      }
    }
  }
  attr {
    key: "_output_shapes"
    value {
      list {
        shape {
        }
      }
    }
  }
  attr {
    key: "dtype"
    value {
      type: DT_FLOAT
    }
  }
  attr {
    key: "value"
    value {
      tensor {
        dtype: DT_FLOAT
        tensor_shape {
        }
        float_val: -0.176776692271
      }
    }
  }
}
node {
  name: "eegnet_v1/input_layer/conv1/weights/Initializer/random_uniform/max"
  op: "Const"
  attr {
    key: "_class"
    value {
      list {
        s: "loc:@eegnet_v1/input_layer/conv1/weights"
      }
    }
  }
  attr {
    key: "_output_shapes"
    value {
      list {
        shape {
        }
      }
    }
  }
  attr {
    key: "dtype"
    value {
      type: DT_FLOAT
    }
  }
  attr {
    key: "value"
    value {
      tensor {
        dtype: DT_FLOAT
        tensor_shape {
        }
        float_val: 0.176776692271
      }
    }
  }
}
node {
  name: "eegnet_v1/input_layer/conv1/weights/Initializer/random_uniform/RandomUniform"
  op: "RandomUniform"
  input: "eegnet_v1/input_layer/conv1/weights/Initializer/random_uniform/shape"
  attr {
    key: "T"
    value {
      type: DT_INT32
    }
  }
  attr {
    key: "_class"
    value {
      list {
        s: "loc:@eegnet_v1/input_layer/conv1/weights"
      }
    }
  }
  attr {
    key: "_output_shapes"
    value {
      list {
        shape {
          dim {
            size: 1
          }
          dim {
            size: 3
          }
          dim {
            size: 16
          }
          dim {
            size: 48
          }
        }
      }
    }
  }
  attr {
    key: "dtype"
    value {
      type: DT_FLOAT
    }
  }
  attr {
    key: "seed"
    value {
      i: 0
    }
  }
  attr {
    key: "seed2"
    value {
      i: 0
    }
  }
}
node {
  name: "eegnet_v1/input_layer/conv1/weights/Initializer/random_uniform/sub"
  op: "Sub"
  input: "eegnet_v1/input_layer/conv1/weights/Initializer/random_uniform/max"
  input: "eegnet_v1/input_layer/conv1/weights/Initializer/random_uniform/min"
  attr {
    key: "T"
    value {
      type: DT_FLOAT
    }
  }
  attr {
    key: "_class"
    value {
      list {
        s: "loc:@eegnet_v1/input_layer/conv1/weights"
      }
    }
  }
  attr {
    key: "_output_shapes"
    value {
      list {
        shape {
        }
      }
    }
  }
}
node {
  name: "eegnet_v1/input_layer/conv1/weights/Initializer/random_uniform/mul"
  op: "Mul"
  input: "eegnet_v1/input_layer/conv1/weights/Initializer/random_uniform/RandomUniform"
  input: "eegnet_v1/input_layer/conv1/weights/Initializer/random_uniform/sub"
  attr {
    key: "T"
    value {
      type: DT_FLOAT
    }
  }
  attr {
    key: "_class"
    value {
      list {
        s: "loc:@eegnet_v1/input_layer/conv1/weights"
      }
    }
  }
  attr {
    key: "_output_shapes"
    value {
      list {
        shape {
          dim {
            size: 1
          }
          dim {
            size: 3
          }
          dim {
            size: 16
          }
          dim {
            size: 48
          }
        }
      }
    }
  }
}
node {
  name: "eegnet_v1/input_layer/conv1/weights/Initializer/random_uniform"
  op: "Add"
  input: "eegnet_v1/input_layer/conv1/weights/Initializer/random_uniform/mul"
  input: "eegnet_v1/input_layer/conv1/weights/Initializer/random_uniform/min"
  attr {
    key: "T"
    value {
      type: DT_FLOAT
    }
  }
  attr {
    key: "_class"
    value {
      list {
        s: "loc:@eegnet_v1/input_layer/conv1/weights"
      }
    }
  }
  attr {
    key: "_output_shapes"
    value {
      list {
        shape {
          dim {
            size: 1
          }
          dim {
            size: 3
          }
          dim {
            size: 16
          }
          dim {
            size: 48
          }
        }
      }
    }
  }
}
node {
  name: "eegnet_v1/input_layer/conv1/weights/Assign"
  op: "Assign"
  input: "eegnet_v1/input_layer/conv1/weights"
  input: "eegnet_v1/input_layer/conv1/weights/Initializer/random_uniform"
  attr {
    key: "T"
    value {
      type: DT_FLOAT
    }
  }
  attr {
    key: "_class"
    value {
      list {
        s: "loc:@eegnet_v1/input_layer/conv1/weights"
      }
    }
  }
  attr {
    key: "_output_shapes"
    value {
      list {
        shape {
          dim {
            size: 1
          }
          dim {
            size: 3
          }
          dim {
            size: 16
          }
          dim {
            size: 48
          }
        }
      }
    }
  }
  attr {
    key: "use_locking"
    value {
      b: true
    }
  }
  attr {
    key: "validate_shape"
    value {
      b: true
    }
  }
}
node {
  name: "eegnet_v1/input_layer/conv1/weights/read"
  op: "Identity"
  input: "eegnet_v1/input_layer/conv1/weights"
  attr {
    key: "T"
    value {
      type: DT_FLOAT
    }
  }
  attr {
    key: "_class"
    value {
      list {
        s: "loc:@eegnet_v1/input_layer/conv1/weights"
      }
    }
  }
  attr {
    key: "_output_shapes"
    value {
      list {
        shape {
          dim {
            size: 1
          }
          dim {
            size: 3
          }
          dim {
            size: 16
          }
          dim {
            size: 48
          }
        }
      }
    }
  }
}
node {
  name: "eegnet_v1/input_layer/conv1/weights/Regularizer/l2_regularizer/scale"
  op: "Const"
  attr {
    key: "_class"
    value {
      list {
        s: "loc:@eegnet_v1/input_layer/conv1/weights"
      }
    }
  }
  attr {
    key: "_output_shapes"
    value {
      list {
        shape {
        }
      }
    }
  }
  attr {
    key: "dtype"
    value {
      type: DT_FLOAT
    }
  }
  attr {
    key: "value"
    value {
      tensor {
        dtype: DT_FLOAT
        tensor_shape {
        }
        float_val: 3.99999989895e-05
      }
    }
  }
}
node {
  name: "eegnet_v1/input_layer/conv1/weights/Regularizer/l2_regularizer/L2Loss"
  op: "L2Loss"
  input: "eegnet_v1/input_layer/conv1/weights/read"
  attr {
    key: "T"
    value {
      type: DT_FLOAT
    }
  }
  attr {
    key: "_class"
    value {
      list {
        s: "loc:@eegnet_v1/input_layer/conv1/weights"
      }
    }
  }
  attr {
    key: "_output_shapes"
    value {
      list {
        shape {
        }
      }
    }
  }
}
node {
  name: "eegnet_v1/input_layer/conv1/weights/Regularizer/l2_regularizer"
  op: "Mul"
  input: "eegnet_v1/input_layer/conv1/weights/Regularizer/l2_regularizer/scale"
  input: "eegnet_v1/input_layer/conv1/weights/Regularizer/l2_regularizer/L2Loss"
  attr {
    key: "T"
    value {
      type: DT_FLOAT
    }
  }
  attr {
    key: "_class"
    value {
      list {
        s: "loc:@eegnet_v1/input_layer/conv1/weights"
      }
    }
  }
  attr {
    key: "_output_shapes"
    value {
      list {
        shape {
        }
      }
    }
  }
}
node {
  name: "eegnet_v1/input_layer/conv1/Conv2D"
  op: "Conv2D"
  input: "shuffle_batch"
  input: "eegnet_v1/input_layer/conv1/weights/read"
  attr {
    key: "T"
    value {
      type: DT_FLOAT
    }
  }
  attr {
    key: "_output_shapes"
    value {
      list {
        shape {
          dim {
            size: 16
          }
          dim {
            size: 1
          }
          dim {
            size: 4800
          }
          dim {
            size: 48
          }
        }
      }
    }
  }
  attr {
    key: "data_format"
    value {
      s: "NHWC"
    }
  }
  attr {
    key: "padding"
    value {
      s: "SAME"
    }
  }
  attr {
    key: "strides"
    value {
      list {
        i: 1
        i: 1
        i: 1
        i: 1
      }
    }
  }
  attr {
    key: "use_cudnn_on_gpu"
    value {
      b: true
    }
  }
}
node {
  name: "eegnet_v1/input_layer/conv1/BatchNorm/beta"
  op: "Variable"
  attr {
    key: "_output_shapes"
    value {
      list {
        shape {
          dim {
            size: 48
          }
        }
      }
    }
  }
  attr {
    key: "container"
    value {
      s: ""
    }
  }
  attr {
    key: "dtype"
    value {
      type: DT_FLOAT
    }
  }
  attr {
    key: "shape"
    value {
      shape {
        dim {
          size: 48
        }
      }
    }
  }
  attr {
    key: "shared_name"
    value {
      s: ""
    }
  }
}
node {
  name: "eegnet_v1/input_layer/conv1/BatchNorm/beta/Initializer/zeros"
  op: "Const"
  attr {
    key: "_class"
    value {
      list {
        s: "loc:@eegnet_v1/input_layer/conv1/BatchNorm/beta"
      }
    }
  }
  attr {
    key: "_output_shapes"
    value {
      list {
        shape {
          dim {
            size: 48
          }
        }
      }
    }
  }
  attr {
    key: "dtype"
    value {
      type: DT_FLOAT
    }
  }
  attr {
    key: "value"
    value {
      tensor {
        dtype: DT_FLOAT
        tensor_shape {
          dim {
            size: 48
          }
        }
        float_val: 0.0
      }
    }
  }
}
node {
  name: "eegnet_v1/input_layer/conv1/BatchNorm/beta/Assign"
  op: "Assign"
  input: "eegnet_v1/input_layer/conv1/BatchNorm/beta"
  input: "eegnet_v1/input_layer/conv1/BatchNorm/beta/Initializer/zeros"
  attr {
    key: "T"
    value {
      type: DT_FLOAT
    }
  }
  attr {
    key: "_class"
    value {
      list {
        s: "loc:@eegnet_v1/input_layer/conv1/BatchNorm/beta"
      }
    }
  }
  attr {
    key: "_output_shapes"
    value {
      list {
        shape {
          dim {
            size: 48
          }
        }
      }
    }
  }
  attr {
    key: "use_locking"
    value {
      b: true
    }
  }
  attr {
    key: "validate_shape"
    value {
      b: true
    }
  }
}
node {
  name: "eegnet_v1/input_layer/conv1/BatchNorm/beta/read"
  op: "Identity"
  input: "eegnet_v1/input_layer/conv1/BatchNorm/beta"
  attr {
    key: "T"
    value {
      type: DT_FLOAT
    }
  }
  attr {
    key: "_class"
    value {
      list {
        s: "loc:@eegnet_v1/input_layer/conv1/BatchNorm/beta"
      }
    }
  }
  attr {
    key: "_output_shapes"
    value {
      list {
        shape {
          dim {
            size: 48
          }
        }
      }
    }
  }
}
node {
  name: "eegnet_v1/input_layer/conv1/BatchNorm/moving_mean"
  op: "Variable"
  attr {
    key: "_output_shapes"
    value {
      list {
        shape {
          dim {
            size: 48
          }
        }
      }
    }
  }
  attr {
    key: "container"
    value {
      s: ""
    }
  }
  attr {
    key: "dtype"
    value {
      type: DT_FLOAT
    }
  }
  attr {
    key: "shape"
    value {
      shape {
        dim {
          size: 48
        }
      }
    }
  }
  attr {
    key: "shared_name"
    value {
      s: ""
    }
  }
}
node {
  name: "eegnet_v1/input_layer/conv1/BatchNorm/moving_mean/Initializer/zeros"
  op: "Const"
  attr {
    key: "_class"
    value {
      list {
        s: "loc:@eegnet_v1/input_layer/conv1/BatchNorm/moving_mean"
      }
    }
  }
  attr {
    key: "_output_shapes"
    value {
      list {
        shape {
          dim {
            size: 48
          }
        }
      }
    }
  }
  attr {
    key: "dtype"
    value {
      type: DT_FLOAT
    }
  }
  attr {
    key: "value"
    value {
      tensor {
        dtype: DT_FLOAT
        tensor_shape {
          dim {
            size: 48
          }
        }
        float_val: 0.0
      }
    }
  }
}
node {
  name: "eegnet_v1/input_layer/conv1/BatchNorm/moving_mean/Assign"
  op: "Assign"
  input: "eegnet_v1/input_layer/conv1/BatchNorm/moving_mean"
  input: "eegnet_v1/input_layer/conv1/BatchNorm/moving_mean/Initializer/zeros"
  attr {
    key: "T"
    value {
      type: DT_FLOAT
    }
  }
  attr {
    key: "_class"
    value {
      list {
        s: "loc:@eegnet_v1/input_layer/conv1/BatchNorm/moving_mean"
      }
    }
  }
  attr {
    key: "_output_shapes"
    value {
      list {
        shape {
          dim {
            size: 48
          }
        }
      }
    }
  }
  attr {
    key: "use_locking"
    value {
      b: true
    }
  }
  attr {
    key: "validate_shape"
    value {
      b: true
    }
  }
}
node {
  name: "eegnet_v1/input_layer/conv1/BatchNorm/moving_mean/read"
  op: "Identity"
  input: "eegnet_v1/input_layer/conv1/BatchNorm/moving_mean"
  attr {
    key: "T"
    value {
      type: DT_FLOAT
    }
  }
  attr {
    key: "_class"
    value {
      list {
        s: "loc:@eegnet_v1/input_layer/conv1/BatchNorm/moving_mean"
      }
    }
  }
  attr {
    key: "_output_shapes"
    value {
      list {
        shape {
          dim {
            size: 48
          }
        }
      }
    }
  }
}
node {
  name: "eegnet_v1/input_layer/conv1/BatchNorm/moving_variance"
  op: "Variable"
  attr {
    key: "_output_shapes"
    value {
      list {
        shape {
          dim {
            size: 48
          }
        }
      }
    }
  }
  attr {
    key: "container"
    value {
      s: ""
    }
  }
  attr {
    key: "dtype"
    value {
      type: DT_FLOAT
    }
  }
  attr {
    key: "shape"
    value {
      shape {
        dim {
          size: 48
        }
      }
    }
  }
  attr {
    key: "shared_name"
    value {
      s: ""
    }
  }
}
node {
  name: "eegnet_v1/input_layer/conv1/BatchNorm/moving_variance/Initializer/ones"
  op: "Const"
  attr {
    key: "_class"
    value {
      list {
        s: "loc:@eegnet_v1/input_layer/conv1/BatchNorm/moving_variance"
      }
    }
  }
  attr {
    key: "_output_shapes"
    value {
      list {
        shape {
          dim {
            size: 48
          }
        }
      }
    }
  }
  attr {
    key: "dtype"
    value {
      type: DT_FLOAT
    }
  }
  attr {
    key: "value"
    value {
      tensor {
        dtype: DT_FLOAT
        tensor_shape {
          dim {
            size: 48
          }
        }
        float_val: 1.0
      }
    }
  }
}
node {
  name: "eegnet_v1/input_layer/conv1/BatchNorm/moving_variance/Assign"
  op: "Assign"
  input: "eegnet_v1/input_layer/conv1/BatchNorm/moving_variance"
  input: "eegnet_v1/input_layer/conv1/BatchNorm/moving_variance/Initializer/ones"
  attr {
    key: "T"
    value {
      type: DT_FLOAT
    }
  }
  attr {
    key: "_class"
    value {
      list {
        s: "loc:@eegnet_v1/input_layer/conv1/BatchNorm/moving_variance"
      }
    }
  }
  attr {
    key: "_output_shapes"
    value {
      list {
        shape {
          dim {
            size: 48
          }
        }
      }
    }
  }
  attr {
    key: "use_locking"
    value {
      b: true
    }
  }
  attr {
    key: "validate_shape"
    value {
      b: true
    }
  }
}
node {
  name: "eegnet_v1/input_layer/conv1/BatchNorm/moving_variance/read"
  op: "Identity"
  input: "eegnet_v1/input_layer/conv1/BatchNorm/moving_variance"
  attr {
    key: "T"
    value {
      type: DT_FLOAT
    }
  }
  attr {
    key: "_class"
    value {
      list {
        s: "loc:@eegnet_v1/input_layer/conv1/BatchNorm/moving_variance"
      }
    }
  }
  attr {
    key: "_output_shapes"
    value {
      list {
        shape {
          dim {
            size: 48
          }
        }
      }
    }
  }
}
node {
  name: "eegnet_v1/input_layer/conv1/BatchNorm/Add/y"
  op: "Const"
  attr {
    key: "_output_shapes"
    value {
      list {
        shape {
        }
      }
    }
  }
  attr {
    key: "dtype"
    value {
      type: DT_FLOAT
    }
  }
  attr {
    key: "value"
    value {
      tensor {
        dtype: DT_FLOAT
        tensor_shape {
        }
        float_val: 0.0
      }
    }
  }
}
node {
  name: "eegnet_v1/input_layer/conv1/BatchNorm/Add"
  op: "Add"
  input: "eegnet_v1/input_layer/conv1/BatchNorm/moving_mean/read"
  input: "eegnet_v1/input_layer/conv1/BatchNorm/Add/y"
  attr {
    key: "T"
    value {
      type: DT_FLOAT
    }
  }
  attr {
    key: "_output_shapes"
    value {
      list {
        shape {
          dim {
            size: 48
          }
        }
      }
    }
  }
}
node {
  name: "eegnet_v1/input_layer/conv1/BatchNorm/moments/sufficient_statistics/Const"
  op: "Const"
  attr {
    key: "_output_shapes"
    value {
      list {
        shape {
        }
      }
    }
  }
  attr {
    key: "dtype"
    value {
      type: DT_FLOAT
    }
  }
  attr {
    key: "value"
    value {
      tensor {
        dtype: DT_FLOAT
        tensor_shape {
        }
        float_val: 76800.0
      }
    }
  }
}
node {
  name: "eegnet_v1/input_layer/conv1/BatchNorm/moments/sufficient_statistics/Sub"
  op: "Sub"
  input: "eegnet_v1/input_layer/conv1/Conv2D"
  input: "eegnet_v1/input_layer/conv1/BatchNorm/Add"
  attr {
    key: "T"
    value {
      type: DT_FLOAT
    }
  }
  attr {
    key: "_output_shapes"
    value {
      list {
        shape {
          dim {
            size: 16
          }
          dim {
            size: 1
          }
          dim {
            size: 4800
          }
          dim {
            size: 48
          }
        }
      }
    }
  }
}
node {
  name: "eegnet_v1/input_layer/conv1/BatchNorm/moments/sufficient_statistics/SquaredDifference"
  op: "SquaredDifference"
  input: "eegnet_v1/input_layer/conv1/Conv2D"
  input: "eegnet_v1/input_layer/conv1/BatchNorm/Add"
  attr {
    key: "T"
    value {
      type: DT_FLOAT
    }
  }
  attr {
    key: "_output_shapes"
    value {
      list {
        shape {
          dim {
            size: 16
          }
          dim {
            size: 1
          }
          dim {
            size: 4800
          }
          dim {
            size: 48
          }
        }
      }
    }
  }
}
node {
  name: "eegnet_v1/input_layer/conv1/BatchNorm/moments/sufficient_statistics/mean_ss/reduction_indices"
  op: "Const"
  attr {
    key: "_output_shapes"
    value {
      list {
        shape {
          dim {
            size: 3
          }
        }
      }
    }
  }
  attr {
    key: "dtype"
    value {
      type: DT_INT32
    }
  }
  attr {
    key: "value"
    value {
      tensor {
        dtype: DT_INT32
        tensor_shape {
          dim {
            size: 3
          }
        }
        tensor_content: "\000\000\000\000\001\000\000\000\002\000\000\000"
      }
    }
  }
}
node {
  name: "eegnet_v1/input_layer/conv1/BatchNorm/moments/sufficient_statistics/mean_ss"
  op: "Sum"
  input: "eegnet_v1/input_layer/conv1/BatchNorm/moments/sufficient_statistics/Sub"
  input: "eegnet_v1/input_layer/conv1/BatchNorm/moments/sufficient_statistics/mean_ss/reduction_indices"
  attr {
    key: "T"
    value {
      type: DT_FLOAT
    }
  }
  attr {
    key: "Tidx"
    value {
      type: DT_INT32
    }
  }
  attr {
    key: "_output_shapes"
    value {
      list {
        shape {
          dim {
            size: 48
          }
        }
      }
    }
  }
  attr {
    key: "keep_dims"
    value {
      b: false
    }
  }
}
node {
  name: "eegnet_v1/input_layer/conv1/BatchNorm/moments/sufficient_statistics/var_ss/reduction_indices"
  op: "Const"
  attr {
    key: "_output_shapes"
    value {
      list {
        shape {
          dim {
            size: 3
          }
        }
      }
    }
  }
  attr {
    key: "dtype"
    value {
      type: DT_INT32
    }
  }
  attr {
    key: "value"
    value {
      tensor {
        dtype: DT_INT32
        tensor_shape {
          dim {
            size: 3
          }
        }
        tensor_content: "\000\000\000\000\001\000\000\000\002\000\000\000"
      }
    }
  }
}
node {
  name: "eegnet_v1/input_layer/conv1/BatchNorm/moments/sufficient_statistics/var_ss"
  op: "Sum"
  input: "eegnet_v1/input_layer/conv1/BatchNorm/moments/sufficient_statistics/SquaredDifference"
  input: "eegnet_v1/input_layer/conv1/BatchNorm/moments/sufficient_statistics/var_ss/reduction_indices"
  attr {
    key: "T"
    value {
      type: DT_FLOAT
    }
  }
  attr {
    key: "Tidx"
    value {
      type: DT_INT32
    }
  }
  attr {
    key: "_output_shapes"
    value {
      list {
        shape {
          dim {
            size: 48
          }
        }
      }
    }
  }
  attr {
    key: "keep_dims"
    value {
      b: false
    }
  }
}
node {
  name: "eegnet_v1/input_layer/conv1/BatchNorm/moments/normalize/divisor"
  op: "Inv"
  input: "eegnet_v1/input_layer/conv1/BatchNorm/moments/sufficient_statistics/Const"
  input: "^eegnet_v1/input_layer/conv1/BatchNorm/moments/sufficient_statistics/mean_ss"
  input: "^eegnet_v1/input_layer/conv1/BatchNorm/moments/sufficient_statistics/var_ss"
  attr {
    key: "T"
    value {
      type: DT_FLOAT
    }
  }
  attr {
    key: "_output_shapes"
    value {
      list {
        shape {
        }
      }
    }
  }
}
node {
  name: "eegnet_v1/input_layer/conv1/BatchNorm/moments/normalize/shifted_mean"
  op: "Mul"
  input: "eegnet_v1/input_layer/conv1/BatchNorm/moments/sufficient_statistics/mean_ss"
  input: "eegnet_v1/input_layer/conv1/BatchNorm/moments/normalize/divisor"
  attr {
    key: "T"
    value {
      type: DT_FLOAT
    }
  }
  attr {
    key: "_output_shapes"
    value {
      list {
        shape {
          dim {
            size: 48
          }
        }
      }
    }
  }
}
node {
  name: "eegnet_v1/input_layer/conv1/BatchNorm/moments/normalize/mean"
  op: "Add"
  input: "eegnet_v1/input_layer/conv1/BatchNorm/moments/normalize/shifted_mean"
  input: "eegnet_v1/input_layer/conv1/BatchNorm/Add"
  attr {
    key: "T"
    value {
      type: DT_FLOAT
    }
  }
  attr {
    key: "_output_shapes"
    value {
      list {
        shape {
          dim {
            size: 48
          }
        }
      }
    }
  }
}
node {
  name: "eegnet_v1/input_layer/conv1/BatchNorm/moments/normalize/Mul"
  op: "Mul"
  input: "eegnet_v1/input_layer/conv1/BatchNorm/moments/sufficient_statistics/var_ss"
  input: "eegnet_v1/input_layer/conv1/BatchNorm/moments/normalize/divisor"
  attr {
    key: "T"
    value {
      type: DT_FLOAT
    }
  }
  attr {
    key: "_output_shapes"
    value {
      list {
        shape {
          dim {
            size: 48
          }
        }
      }
    }
  }
}
node {
  name: "eegnet_v1/input_layer/conv1/BatchNorm/moments/normalize/Square"
  op: "Square"
  input: "eegnet_v1/input_layer/conv1/BatchNorm/moments/normalize/shifted_mean"
  attr {
    key: "T"
    value {
      type: DT_FLOAT
    }
  }
  attr {
    key: "_output_shapes"
    value {
      list {
        shape {
          dim {
            size: 48
          }
        }
      }
    }
  }
}
node {
  name: "eegnet_v1/input_layer/conv1/BatchNorm/moments/normalize/variance"
  op: "Sub"
  input: "eegnet_v1/input_layer/conv1/BatchNorm/moments/normalize/Mul"
  input: "eegnet_v1/input_layer/conv1/BatchNorm/moments/normalize/Square"
  attr {
    key: "T"
    value {
      type: DT_FLOAT
    }
  }
  attr {
    key: "_output_shapes"
    value {
      list {
        shape {
          dim {
            size: 48
          }
        }
      }
    }
  }
}
node {
  name: "eegnet_v1/input_layer/conv1/BatchNorm/AssignMovingAvg/decay"
  op: "Const"
  attr {
    key: "_class"
    value {
      list {
        s: "loc:@eegnet_v1/input_layer/conv1/BatchNorm/moving_mean"
      }
    }
  }
  attr {
    key: "_output_shapes"
    value {
      list {
        shape {
        }
      }
    }
  }
  attr {
    key: "dtype"
    value {
      type: DT_FLOAT
    }
  }
  attr {
    key: "value"
    value {
      tensor {
        dtype: DT_FLOAT
        tensor_shape {
        }
        float_val: 0.0010000000475
      }
    }
  }
}
node {
  name: "eegnet_v1/input_layer/conv1/BatchNorm/AssignMovingAvg/sub"
  op: "Sub"
  input: "eegnet_v1/input_layer/conv1/BatchNorm/moving_mean/read"
  input: "eegnet_v1/input_layer/conv1/BatchNorm/moments/normalize/mean"
  attr {
    key: "T"
    value {
      type: DT_FLOAT
    }
  }
  attr {
    key: "_class"
    value {
      list {
        s: "loc:@eegnet_v1/input_layer/conv1/BatchNorm/moving_mean"
      }
    }
  }
  attr {
    key: "_output_shapes"
    value {
      list {
        shape {
          dim {
            size: 48
          }
        }
      }
    }
  }
}
node {
  name: "eegnet_v1/input_layer/conv1/BatchNorm/AssignMovingAvg/mul"
  op: "Mul"
  input: "eegnet_v1/input_layer/conv1/BatchNorm/AssignMovingAvg/sub"
  input: "eegnet_v1/input_layer/conv1/BatchNorm/AssignMovingAvg/decay"
  attr {
    key: "T"
    value {
      type: DT_FLOAT
    }
  }
  attr {
    key: "_class"
    value {
      list {
        s: "loc:@eegnet_v1/input_layer/conv1/BatchNorm/moving_mean"
      }
    }
  }
  attr {
    key: "_output_shapes"
    value {
      list {
        shape {
          dim {
            size: 48
          }
        }
      }
    }
  }
}
node {
  name: "eegnet_v1/input_layer/conv1/BatchNorm/AssignMovingAvg"
  op: "AssignSub"
  input: "eegnet_v1/input_layer/conv1/BatchNorm/moving_mean"
  input: "eegnet_v1/input_layer/conv1/BatchNorm/AssignMovingAvg/mul"
  attr {
    key: "T"
    value {
      type: DT_FLOAT
    }
  }
  attr {
    key: "_class"
    value {
      list {
        s: "loc:@eegnet_v1/input_layer/conv1/BatchNorm/moving_mean"
      }
    }
  }
  attr {
    key: "_output_shapes"
    value {
      list {
        shape {
          dim {
            size: 48
          }
        }
      }
    }
  }
  attr {
    key: "use_locking"
    value {
      b: false
    }
  }
}
node {
  name: "eegnet_v1/input_layer/conv1/BatchNorm/AssignMovingAvg_1/decay"
  op: "Const"
  attr {
    key: "_class"
    value {
      list {
        s: "loc:@eegnet_v1/input_layer/conv1/BatchNorm/moving_variance"
      }
    }
  }
  attr {
    key: "_output_shapes"
    value {
      list {
        shape {
        }
      }
    }
  }
  attr {
    key: "dtype"
    value {
      type: DT_FLOAT
    }
  }
  attr {
    key: "value"
    value {
      tensor {
        dtype: DT_FLOAT
        tensor_shape {
        }
        float_val: 0.0010000000475
      }
    }
  }
}
node {
  name: "eegnet_v1/input_layer/conv1/BatchNorm/AssignMovingAvg_1/sub"
  op: "Sub"
  input: "eegnet_v1/input_layer/conv1/BatchNorm/moving_variance/read"
  input: "eegnet_v1/input_layer/conv1/BatchNorm/moments/normalize/variance"
  attr {
    key: "T"
    value {
      type: DT_FLOAT
    }
  }
  attr {
    key: "_class"
    value {
      list {
        s: "loc:@eegnet_v1/input_layer/conv1/BatchNorm/moving_variance"
      }
    }
  }
  attr {
    key: "_output_shapes"
    value {
      list {
        shape {
          dim {
            size: 48
          }
        }
      }
    }
  }
}
node {
  name: "eegnet_v1/input_layer/conv1/BatchNorm/AssignMovingAvg_1/mul"
  op: "Mul"
  input: "eegnet_v1/input_layer/conv1/BatchNorm/AssignMovingAvg_1/sub"
  input: "eegnet_v1/input_layer/conv1/BatchNorm/AssignMovingAvg_1/decay"
  attr {
    key: "T"
    value {
      type: DT_FLOAT
    }
  }
  attr {
    key: "_class"
    value {
      list {
        s: "loc:@eegnet_v1/input_layer/conv1/BatchNorm/moving_variance"
      }
    }
  }
  attr {
    key: "_output_shapes"
    value {
      list {
        shape {
          dim {
            size: 48
          }
        }
      }
    }
  }
}
node {
  name: "eegnet_v1/input_layer/conv1/BatchNorm/AssignMovingAvg_1"
  op: "AssignSub"
  input: "eegnet_v1/input_layer/conv1/BatchNorm/moving_variance"
  input: "eegnet_v1/input_layer/conv1/BatchNorm/AssignMovingAvg_1/mul"
  attr {
    key: "T"
    value {
      type: DT_FLOAT
    }
  }
  attr {
    key: "_class"
    value {
      list {
        s: "loc:@eegnet_v1/input_layer/conv1/BatchNorm/moving_variance"
      }
    }
  }
  attr {
    key: "_output_shapes"
    value {
      list {
        shape {
          dim {
            size: 48
          }
        }
      }
    }
  }
  attr {
    key: "use_locking"
    value {
      b: false
    }
  }
}
node {
  name: "eegnet_v1/input_layer/conv1/BatchNorm/batchnorm/add/y"
  op: "Const"
  attr {
    key: "_output_shapes"
    value {
      list {
        shape {
        }
      }
    }
  }
  attr {
    key: "dtype"
    value {
      type: DT_FLOAT
    }
  }
  attr {
    key: "value"
    value {
      tensor {
        dtype: DT_FLOAT
        tensor_shape {
        }
        float_val: 0.0010000000475
      }
    }
  }
}
node {
  name: "eegnet_v1/input_layer/conv1/BatchNorm/batchnorm/add"
  op: "Add"
  input: "eegnet_v1/input_layer/conv1/BatchNorm/moments/normalize/variance"
  input: "eegnet_v1/input_layer/conv1/BatchNorm/batchnorm/add/y"
  attr {
    key: "T"
    value {
      type: DT_FLOAT
    }
  }
  attr {
    key: "_output_shapes"
    value {
      list {
        shape {
          dim {
            size: 48
          }
        }
      }
    }
  }
}
node {
  name: "eegnet_v1/input_layer/conv1/BatchNorm/batchnorm/Rsqrt"
  op: "Rsqrt"
  input: "eegnet_v1/input_layer/conv1/BatchNorm/batchnorm/add"
  attr {
    key: "T"
    value {
      type: DT_FLOAT
    }
  }
  attr {
    key: "_output_shapes"
    value {
      list {
        shape {
          dim {
            size: 48
          }
        }
      }
    }
  }
}
node {
  name: "eegnet_v1/input_layer/conv1/BatchNorm/batchnorm/mul"
  op: "Mul"
  input: "eegnet_v1/input_layer/conv1/Conv2D"
  input: "eegnet_v1/input_layer/conv1/BatchNorm/batchnorm/Rsqrt"
  attr {
    key: "T"
    value {
      type: DT_FLOAT
    }
  }
  attr {
    key: "_output_shapes"
    value {
      list {
        shape {
          dim {
            size: 16
          }
          dim {
            size: 1
          }
          dim {
            size: 4800
          }
          dim {
            size: 48
          }
        }
      }
    }
  }
}
node {
  name: "eegnet_v1/input_layer/conv1/BatchNorm/batchnorm/mul_1"
  op: "Mul"
  input: "eegnet_v1/input_layer/conv1/BatchNorm/moments/normalize/mean"
  input: "eegnet_v1/input_layer/conv1/BatchNorm/batchnorm/Rsqrt"
  attr {
    key: "T"
    value {
      type: DT_FLOAT
    }
  }
  attr {
    key: "_output_shapes"
    value {
      list {
        shape {
          dim {
            size: 48
          }
        }
      }
    }
  }
}
node {
  name: "eegnet_v1/input_layer/conv1/BatchNorm/batchnorm/sub"
  op: "Sub"
  input: "eegnet_v1/input_layer/conv1/BatchNorm/beta/read"
  input: "eegnet_v1/input_layer/conv1/BatchNorm/batchnorm/mul_1"
  attr {
    key: "T"
    value {
      type: DT_FLOAT
    }
  }
  attr {
    key: "_output_shapes"
    value {
      list {
        shape {
          dim {
            size: 48
          }
        }
      }
    }
  }
}
node {
  name: "eegnet_v1/input_layer/conv1/BatchNorm/batchnorm/add_1"
  op: "Add"
  input: "eegnet_v1/input_layer/conv1/BatchNorm/batchnorm/mul"
  input: "eegnet_v1/input_layer/conv1/BatchNorm/batchnorm/sub"
  attr {
    key: "T"
    value {
      type: DT_FLOAT
    }
  }
  attr {
    key: "_output_shapes"
    value {
      list {
        shape {
          dim {
            size: 16
          }
          dim {
            size: 1
          }
          dim {
            size: 4800
          }
          dim {
            size: 48
          }
        }
      }
    }
  }
}
node {
  name: "eegnet_v1/input_layer/conv1/Relu"
  op: "Relu"
  input: "eegnet_v1/input_layer/conv1/BatchNorm/batchnorm/add_1"
  attr {
    key: "T"
    value {
      type: DT_FLOAT
    }
  }
  attr {
    key: "_output_shapes"
    value {
      list {
        shape {
          dim {
            size: 16
          }
          dim {
            size: 1
          }
          dim {
            size: 4800
          }
          dim {
            size: 48
          }
        }
      }
    }
  }
}
node {
  name: "eegnet_v1/hidden/layer1/1x1compress/weights"
  op: "Variable"
  attr {
    key: "_output_shapes"
    value {
      list {
        shape {
          dim {
            size: 1
          }
          dim {
            size: 1
          }
          dim {
            size: 48
          }
          dim {
            size: 16
          }
        }
      }
    }
  }
  attr {
    key: "container"
    value {
      s: ""
    }
  }
  attr {
    key: "dtype"
    value {
      type: DT_FLOAT
    }
  }
  attr {
    key: "shape"
    value {
      shape {
        dim {
          size: 1
        }
        dim {
          size: 1
        }
        dim {
          size: 48
        }
        dim {
          size: 16
        }
      }
    }
  }
  attr {
    key: "shared_name"
    value {
      s: ""
    }
  }
}
node {
  name: "eegnet_v1/hidden/layer1/1x1compress/weights/Initializer/random_uniform/shape"
  op: "Const"
  attr {
    key: "_class"
    value {
      list {
        s: "loc:@eegnet_v1/hidden/layer1/1x1compress/weights"
      }
    }
  }
  attr {
    key: "_output_shapes"
    value {
      list {
        shape {
          dim {
            size: 4
          }
        }
      }
    }
  }
  attr {
    key: "dtype"
    value {
      type: DT_INT32
    }
  }
  attr {
    key: "value"
    value {
      tensor {
        dtype: DT_INT32
        tensor_shape {
          dim {
            size: 4
          }
        }
        tensor_content: "\001\000\000\000\001\000\000\0000\000\000\000\020\000\000\000"
      }
    }
  }
}
node {
  name: "eegnet_v1/hidden/layer1/1x1compress/weights/Initializer/random_uniform/min"
  op: "Const"
  attr {
    key: "_class"
    value {
      list {
        s: "loc:@eegnet_v1/hidden/layer1/1x1compress/weights"
      }
    }
  }
  attr {
    key: "_output_shapes"
    value {
      list {
        shape {
        }
      }
    }
  }
  attr {
    key: "dtype"
    value {
      type: DT_FLOAT
    }
  }
  attr {
    key: "value"
    value {
      tensor {
        dtype: DT_FLOAT
        tensor_shape {
        }
        float_val: -0.306186228991
      }
    }
  }
}
node {
  name: "eegnet_v1/hidden/layer1/1x1compress/weights/Initializer/random_uniform/max"
  op: "Const"
  attr {
    key: "_class"
    value {
      list {
        s: "loc:@eegnet_v1/hidden/layer1/1x1compress/weights"
      }
    }
  }
  attr {
    key: "_output_shapes"
    value {
      list {
        shape {
        }
      }
    }
  }
  attr {
    key: "dtype"
    value {
      type: DT_FLOAT
    }
  }
  attr {
    key: "value"
    value {
      tensor {
        dtype: DT_FLOAT
        tensor_shape {
        }
        float_val: 0.306186228991
      }
    }
  }
}
node {
  name: "eegnet_v1/hidden/layer1/1x1compress/weights/Initializer/random_uniform/RandomUniform"
  op: "RandomUniform"
  input: "eegnet_v1/hidden/layer1/1x1compress/weights/Initializer/random_uniform/shape"
  attr {
    key: "T"
    value {
      type: DT_INT32
    }
  }
  attr {
    key: "_class"
    value {
      list {
        s: "loc:@eegnet_v1/hidden/layer1/1x1compress/weights"
      }
    }
  }
  attr {
    key: "_output_shapes"
    value {
      list {
        shape {
          dim {
            size: 1
          }
          dim {
            size: 1
          }
          dim {
            size: 48
          }
          dim {
            size: 16
          }
        }
      }
    }
  }
  attr {
    key: "dtype"
    value {
      type: DT_FLOAT
    }
  }
  attr {
    key: "seed"
    value {
      i: 0
    }
  }
  attr {
    key: "seed2"
    value {
      i: 0
    }
  }
}
node {
  name: "eegnet_v1/hidden/layer1/1x1compress/weights/Initializer/random_uniform/sub"
  op: "Sub"
  input: "eegnet_v1/hidden/layer1/1x1compress/weights/Initializer/random_uniform/max"
  input: "eegnet_v1/hidden/layer1/1x1compress/weights/Initializer/random_uniform/min"
  attr {
    key: "T"
    value {
      type: DT_FLOAT
    }
  }
  attr {
    key: "_class"
    value {
      list {
        s: "loc:@eegnet_v1/hidden/layer1/1x1compress/weights"
      }
    }
  }
  attr {
    key: "_output_shapes"
    value {
      list {
        shape {
        }
      }
    }
  }
}
node {
  name: "eegnet_v1/hidden/layer1/1x1compress/weights/Initializer/random_uniform/mul"
  op: "Mul"
  input: "eegnet_v1/hidden/layer1/1x1compress/weights/Initializer/random_uniform/RandomUniform"
  input: "eegnet_v1/hidden/layer1/1x1compress/weights/Initializer/random_uniform/sub"
  attr {
    key: "T"
    value {
      type: DT_FLOAT
    }
  }
  attr {
    key: "_class"
    value {
      list {
        s: "loc:@eegnet_v1/hidden/layer1/1x1compress/weights"
      }
    }
  }
  attr {
    key: "_output_shapes"
    value {
      list {
        shape {
          dim {
            size: 1
          }
          dim {
            size: 1
          }
          dim {
            size: 48
          }
          dim {
            size: 16
          }
        }
      }
    }
  }
}
node {
  name: "eegnet_v1/hidden/layer1/1x1compress/weights/Initializer/random_uniform"
  op: "Add"
  input: "eegnet_v1/hidden/layer1/1x1compress/weights/Initializer/random_uniform/mul"
  input: "eegnet_v1/hidden/layer1/1x1compress/weights/Initializer/random_uniform/min"
  attr {
    key: "T"
    value {
      type: DT_FLOAT
    }
  }
  attr {
    key: "_class"
    value {
      list {
        s: "loc:@eegnet_v1/hidden/layer1/1x1compress/weights"
      }
    }
  }
  attr {
    key: "_output_shapes"
    value {
      list {
        shape {
          dim {
            size: 1
          }
          dim {
            size: 1
          }
          dim {
            size: 48
          }
          dim {
            size: 16
          }
        }
      }
    }
  }
}
node {
  name: "eegnet_v1/hidden/layer1/1x1compress/weights/Assign"
  op: "Assign"
  input: "eegnet_v1/hidden/layer1/1x1compress/weights"
  input: "eegnet_v1/hidden/layer1/1x1compress/weights/Initializer/random_uniform"
  attr {
    key: "T"
    value {
      type: DT_FLOAT
    }
  }
  attr {
    key: "_class"
    value {
      list {
        s: "loc:@eegnet_v1/hidden/layer1/1x1compress/weights"
      }
    }
  }
  attr {
    key: "_output_shapes"
    value {
      list {
        shape {
          dim {
            size: 1
          }
          dim {
            size: 1
          }
          dim {
            size: 48
          }
          dim {
            size: 16
          }
        }
      }
    }
  }
  attr {
    key: "use_locking"
    value {
      b: true
    }
  }
  attr {
    key: "validate_shape"
    value {
      b: true
    }
  }
}
node {
  name: "eegnet_v1/hidden/layer1/1x1compress/weights/read"
  op: "Identity"
  input: "eegnet_v1/hidden/layer1/1x1compress/weights"
  attr {
    key: "T"
    value {
      type: DT_FLOAT
    }
  }
  attr {
    key: "_class"
    value {
      list {
        s: "loc:@eegnet_v1/hidden/layer1/1x1compress/weights"
      }
    }
  }
  attr {
    key: "_output_shapes"
    value {
      list {
        shape {
          dim {
            size: 1
          }
          dim {
            size: 1
          }
          dim {
            size: 48
          }
          dim {
            size: 16
          }
        }
      }
    }
  }
}
node {
  name: "eegnet_v1/hidden/layer1/1x1compress/weights/Regularizer/l2_regularizer/scale"
  op: "Const"
  attr {
    key: "_class"
    value {
      list {
        s: "loc:@eegnet_v1/hidden/layer1/1x1compress/weights"
      }
    }
  }
  attr {
    key: "_output_shapes"
    value {
      list {
        shape {
        }
      }
    }
  }
  attr {
    key: "dtype"
    value {
      type: DT_FLOAT
    }
  }
  attr {
    key: "value"
    value {
      tensor {
        dtype: DT_FLOAT
        tensor_shape {
        }
        float_val: 3.99999989895e-05
      }
    }
  }
}
node {
  name: "eegnet_v1/hidden/layer1/1x1compress/weights/Regularizer/l2_regularizer/L2Loss"
  op: "L2Loss"
  input: "eegnet_v1/hidden/layer1/1x1compress/weights/read"
  attr {
    key: "T"
    value {
      type: DT_FLOAT
    }
  }
  attr {
    key: "_class"
    value {
      list {
        s: "loc:@eegnet_v1/hidden/layer1/1x1compress/weights"
      }
    }
  }
  attr {
    key: "_output_shapes"
    value {
      list {
        shape {
        }
      }
    }
  }
}
node {
  name: "eegnet_v1/hidden/layer1/1x1compress/weights/Regularizer/l2_regularizer"
  op: "Mul"
  input: "eegnet_v1/hidden/layer1/1x1compress/weights/Regularizer/l2_regularizer/scale"
  input: "eegnet_v1/hidden/layer1/1x1compress/weights/Regularizer/l2_regularizer/L2Loss"
  attr {
    key: "T"
    value {
      type: DT_FLOAT
    }
  }
  attr {
    key: "_class"
    value {
      list {
        s: "loc:@eegnet_v1/hidden/layer1/1x1compress/weights"
      }
    }
  }
  attr {
    key: "_output_shapes"
    value {
      list {
        shape {
        }
      }
    }
  }
}
node {
  name: "eegnet_v1/hidden/layer1/1x1compress/Conv2D"
  op: "Conv2D"
  input: "eegnet_v1/input_layer/conv1/Relu"
  input: "eegnet_v1/hidden/layer1/1x1compress/weights/read"
  attr {
    key: "T"
    value {
      type: DT_FLOAT
    }
  }
  attr {
    key: "_output_shapes"
    value {
      list {
        shape {
          dim {
            size: 16
          }
          dim {
            size: 1
          }
          dim {
            size: 4800
          }
          dim {
            size: 16
          }
        }
      }
    }
  }
  attr {
    key: "data_format"
    value {
      s: "NHWC"
    }
  }
  attr {
    key: "padding"
    value {
      s: "SAME"
    }
  }
  attr {
    key: "strides"
    value {
      list {
        i: 1
        i: 1
        i: 1
        i: 1
      }
    }
  }
  attr {
    key: "use_cudnn_on_gpu"
    value {
      b: true
    }
  }
}
node {
  name: "eegnet_v1/hidden/layer1/1x1compress/BatchNorm/beta"
  op: "Variable"
  attr {
    key: "_output_shapes"
    value {
      list {
        shape {
          dim {
            size: 16
          }
        }
      }
    }
  }
  attr {
    key: "container"
    value {
      s: ""
    }
  }
  attr {
    key: "dtype"
    value {
      type: DT_FLOAT
    }
  }
  attr {
    key: "shape"
    value {
      shape {
        dim {
          size: 16
        }
      }
    }
  }
  attr {
    key: "shared_name"
    value {
      s: ""
    }
  }
}
node {
  name: "eegnet_v1/hidden/layer1/1x1compress/BatchNorm/beta/Initializer/zeros"
  op: "Const"
  attr {
    key: "_class"
    value {
      list {
        s: "loc:@eegnet_v1/hidden/layer1/1x1compress/BatchNorm/beta"
      }
    }
  }
  attr {
    key: "_output_shapes"
    value {
      list {
        shape {
          dim {
            size: 16
          }
        }
      }
    }
  }
  attr {
    key: "dtype"
    value {
      type: DT_FLOAT
    }
  }
  attr {
    key: "value"
    value {
      tensor {
        dtype: DT_FLOAT
        tensor_shape {
          dim {
            size: 16
          }
        }
        float_val: 0.0
      }
    }
  }
}
node {
  name: "eegnet_v1/hidden/layer1/1x1compress/BatchNorm/beta/Assign"
  op: "Assign"
  input: "eegnet_v1/hidden/layer1/1x1compress/BatchNorm/beta"
  input: "eegnet_v1/hidden/layer1/1x1compress/BatchNorm/beta/Initializer/zeros"
  attr {
    key: "T"
    value {
      type: DT_FLOAT
    }
  }
  attr {
    key: "_class"
    value {
      list {
        s: "loc:@eegnet_v1/hidden/layer1/1x1compress/BatchNorm/beta"
      }
    }
  }
  attr {
    key: "_output_shapes"
    value {
      list {
        shape {
          dim {
            size: 16
          }
        }
      }
    }
  }
  attr {
    key: "use_locking"
    value {
      b: true
    }
  }
  attr {
    key: "validate_shape"
    value {
      b: true
    }
  }
}
node {
  name: "eegnet_v1/hidden/layer1/1x1compress/BatchNorm/beta/read"
  op: "Identity"
  input: "eegnet_v1/hidden/layer1/1x1compress/BatchNorm/beta"
  attr {
    key: "T"
    value {
      type: DT_FLOAT
    }
  }
  attr {
    key: "_class"
    value {
      list {
        s: "loc:@eegnet_v1/hidden/layer1/1x1compress/BatchNorm/beta"
      }
    }
  }
  attr {
    key: "_output_shapes"
    value {
      list {
        shape {
          dim {
            size: 16
          }
        }
      }
    }
  }
}
node {
  name: "eegnet_v1/hidden/layer1/1x1compress/BatchNorm/moving_mean"
  op: "Variable"
  attr {
    key: "_output_shapes"
    value {
      list {
        shape {
          dim {
            size: 16
          }
        }
      }
    }
  }
  attr {
    key: "container"
    value {
      s: ""
    }
  }
  attr {
    key: "dtype"
    value {
      type: DT_FLOAT
    }
  }
  attr {
    key: "shape"
    value {
      shape {
        dim {
          size: 16
        }
      }
    }
  }
  attr {
    key: "shared_name"
    value {
      s: ""
    }
  }
}
node {
  name: "eegnet_v1/hidden/layer1/1x1compress/BatchNorm/moving_mean/Initializer/zeros"
  op: "Const"
  attr {
    key: "_class"
    value {
      list {
        s: "loc:@eegnet_v1/hidden/layer1/1x1compress/BatchNorm/moving_mean"
      }
    }
  }
  attr {
    key: "_output_shapes"
    value {
      list {
        shape {
          dim {
            size: 16
          }
        }
      }
    }
  }
  attr {
    key: "dtype"
    value {
      type: DT_FLOAT
    }
  }
  attr {
    key: "value"
    value {
      tensor {
        dtype: DT_FLOAT
        tensor_shape {
          dim {
            size: 16
          }
        }
        float_val: 0.0
      }
    }
  }
}
node {
  name: "eegnet_v1/hidden/layer1/1x1compress/BatchNorm/moving_mean/Assign"
  op: "Assign"
  input: "eegnet_v1/hidden/layer1/1x1compress/BatchNorm/moving_mean"
  input: "eegnet_v1/hidden/layer1/1x1compress/BatchNorm/moving_mean/Initializer/zeros"
  attr {
    key: "T"
    value {
      type: DT_FLOAT
    }
  }
  attr {
    key: "_class"
    value {
      list {
        s: "loc:@eegnet_v1/hidden/layer1/1x1compress/BatchNorm/moving_mean"
      }
    }
  }
  attr {
    key: "_output_shapes"
    value {
      list {
        shape {
          dim {
            size: 16
          }
        }
      }
    }
  }
  attr {
    key: "use_locking"
    value {
      b: true
    }
  }
  attr {
    key: "validate_shape"
    value {
      b: true
    }
  }
}
node {
  name: "eegnet_v1/hidden/layer1/1x1compress/BatchNorm/moving_mean/read"
  op: "Identity"
  input: "eegnet_v1/hidden/layer1/1x1compress/BatchNorm/moving_mean"
  attr {
    key: "T"
    value {
      type: DT_FLOAT
    }
  }
  attr {
    key: "_class"
    value {
      list {
        s: "loc:@eegnet_v1/hidden/layer1/1x1compress/BatchNorm/moving_mean"
      }
    }
  }
  attr {
    key: "_output_shapes"
    value {
      list {
        shape {
          dim {
            size: 16
          }
        }
      }
    }
  }
}
node {
  name: "eegnet_v1/hidden/layer1/1x1compress/BatchNorm/moving_variance"
  op: "Variable"
  attr {
    key: "_output_shapes"
    value {
      list {
        shape {
          dim {
            size: 16
          }
        }
      }
    }
  }
  attr {
    key: "container"
    value {
      s: ""
    }
  }
  attr {
    key: "dtype"
    value {
      type: DT_FLOAT
    }
  }
  attr {
    key: "shape"
    value {
      shape {
        dim {
          size: 16
        }
      }
    }
  }
  attr {
    key: "shared_name"
    value {
      s: ""
    }
  }
}
node {
  name: "eegnet_v1/hidden/layer1/1x1compress/BatchNorm/moving_variance/Initializer/ones"
  op: "Const"
  attr {
    key: "_class"
    value {
      list {
        s: "loc:@eegnet_v1/hidden/layer1/1x1compress/BatchNorm/moving_variance"
      }
    }
  }
  attr {
    key: "_output_shapes"
    value {
      list {
        shape {
          dim {
            size: 16
          }
        }
      }
    }
  }
  attr {
    key: "dtype"
    value {
      type: DT_FLOAT
    }
  }
  attr {
    key: "value"
    value {
      tensor {
        dtype: DT_FLOAT
        tensor_shape {
          dim {
            size: 16
          }
        }
        float_val: 1.0
      }
    }
  }
}
node {
  name: "eegnet_v1/hidden/layer1/1x1compress/BatchNorm/moving_variance/Assign"
  op: "Assign"
  input: "eegnet_v1/hidden/layer1/1x1compress/BatchNorm/moving_variance"
  input: "eegnet_v1/hidden/layer1/1x1compress/BatchNorm/moving_variance/Initializer/ones"
  attr {
    key: "T"
    value {
      type: DT_FLOAT
    }
  }
  attr {
    key: "_class"
    value {
      list {
        s: "loc:@eegnet_v1/hidden/layer1/1x1compress/BatchNorm/moving_variance"
      }
    }
  }
  attr {
    key: "_output_shapes"
    value {
      list {
        shape {
          dim {
            size: 16
          }
        }
      }
    }
  }
  attr {
    key: "use_locking"
    value {
      b: true
    }
  }
  attr {
    key: "validate_shape"
    value {
      b: true
    }
  }
}
node {
  name: "eegnet_v1/hidden/layer1/1x1compress/BatchNorm/moving_variance/read"
  op: "Identity"
  input: "eegnet_v1/hidden/layer1/1x1compress/BatchNorm/moving_variance"
  attr {
    key: "T"
    value {
      type: DT_FLOAT
    }
  }
  attr {
    key: "_class"
    value {
      list {
        s: "loc:@eegnet_v1/hidden/layer1/1x1compress/BatchNorm/moving_variance"
      }
    }
  }
  attr {
    key: "_output_shapes"
    value {
      list {
        shape {
          dim {
            size: 16
          }
        }
      }
    }
  }
}
node {
  name: "eegnet_v1/hidden/layer1/1x1compress/BatchNorm/Add/y"
  op: "Const"
  attr {
    key: "_output_shapes"
    value {
      list {
        shape {
        }
      }
    }
  }
  attr {
    key: "dtype"
    value {
      type: DT_FLOAT
    }
  }
  attr {
    key: "value"
    value {
      tensor {
        dtype: DT_FLOAT
        tensor_shape {
        }
        float_val: 0.0
      }
    }
  }
}
node {
  name: "eegnet_v1/hidden/layer1/1x1compress/BatchNorm/Add"
  op: "Add"
  input: "eegnet_v1/hidden/layer1/1x1compress/BatchNorm/moving_mean/read"
  input: "eegnet_v1/hidden/layer1/1x1compress/BatchNorm/Add/y"
  attr {
    key: "T"
    value {
      type: DT_FLOAT
    }
  }
  attr {
    key: "_output_shapes"
    value {
      list {
        shape {
          dim {
            size: 16
          }
        }
      }
    }
  }
}
node {
  name: "eegnet_v1/hidden/layer1/1x1compress/BatchNorm/moments/sufficient_statistics/Const"
  op: "Const"
  attr {
    key: "_output_shapes"
    value {
      list {
        shape {
        }
      }
    }
  }
  attr {
    key: "dtype"
    value {
      type: DT_FLOAT
    }
  }
  attr {
    key: "value"
    value {
      tensor {
        dtype: DT_FLOAT
        tensor_shape {
        }
        float_val: 76800.0
      }
    }
  }
}
node {
  name: "eegnet_v1/hidden/layer1/1x1compress/BatchNorm/moments/sufficient_statistics/Sub"
  op: "Sub"
  input: "eegnet_v1/hidden/layer1/1x1compress/Conv2D"
  input: "eegnet_v1/hidden/layer1/1x1compress/BatchNorm/Add"
  attr {
    key: "T"
    value {
      type: DT_FLOAT
    }
  }
  attr {
    key: "_output_shapes"
    value {
      list {
        shape {
          dim {
            size: 16
          }
          dim {
            size: 1
          }
          dim {
            size: 4800
          }
          dim {
            size: 16
          }
        }
      }
    }
  }
}
node {
  name: "eegnet_v1/hidden/layer1/1x1compress/BatchNorm/moments/sufficient_statistics/SquaredDifference"
  op: "SquaredDifference"
  input: "eegnet_v1/hidden/layer1/1x1compress/Conv2D"
  input: "eegnet_v1/hidden/layer1/1x1compress/BatchNorm/Add"
  attr {
    key: "T"
    value {
      type: DT_FLOAT
    }
  }
  attr {
    key: "_output_shapes"
    value {
      list {
        shape {
          dim {
            size: 16
          }
          dim {
            size: 1
          }
          dim {
            size: 4800
          }
          dim {
            size: 16
          }
        }
      }
    }
  }
}
node {
  name: "eegnet_v1/hidden/layer1/1x1compress/BatchNorm/moments/sufficient_statistics/mean_ss/reduction_indices"
  op: "Const"
  attr {
    key: "_output_shapes"
    value {
      list {
        shape {
          dim {
            size: 3
          }
        }
      }
    }
  }
  attr {
    key: "dtype"
    value {
      type: DT_INT32
    }
  }
  attr {
    key: "value"
    value {
      tensor {
        dtype: DT_INT32
        tensor_shape {
          dim {
            size: 3
          }
        }
        tensor_content: "\000\000\000\000\001\000\000\000\002\000\000\000"
      }
    }
  }
}
node {
  name: "eegnet_v1/hidden/layer1/1x1compress/BatchNorm/moments/sufficient_statistics/mean_ss"
  op: "Sum"
  input: "eegnet_v1/hidden/layer1/1x1compress/BatchNorm/moments/sufficient_statistics/Sub"
  input: "eegnet_v1/hidden/layer1/1x1compress/BatchNorm/moments/sufficient_statistics/mean_ss/reduction_indices"
  attr {
    key: "T"
    value {
      type: DT_FLOAT
    }
  }
  attr {
    key: "Tidx"
    value {
      type: DT_INT32
    }
  }
  attr {
    key: "_output_shapes"
    value {
      list {
        shape {
          dim {
            size: 16
          }
        }
      }
    }
  }
  attr {
    key: "keep_dims"
    value {
      b: false
    }
  }
}
node {
  name: "eegnet_v1/hidden/layer1/1x1compress/BatchNorm/moments/sufficient_statistics/var_ss/reduction_indices"
  op: "Const"
  attr {
    key: "_output_shapes"
    value {
      list {
        shape {
          dim {
            size: 3
          }
        }
      }
    }
  }
  attr {
    key: "dtype"
    value {
      type: DT_INT32
    }
  }
  attr {
    key: "value"
    value {
      tensor {
        dtype: DT_INT32
        tensor_shape {
          dim {
            size: 3
          }
        }
        tensor_content: "\000\000\000\000\001\000\000\000\002\000\000\000"
      }
    }
  }
}
node {
  name: "eegnet_v1/hidden/layer1/1x1compress/BatchNorm/moments/sufficient_statistics/var_ss"
  op: "Sum"
  input: "eegnet_v1/hidden/layer1/1x1compress/BatchNorm/moments/sufficient_statistics/SquaredDifference"
  input: "eegnet_v1/hidden/layer1/1x1compress/BatchNorm/moments/sufficient_statistics/var_ss/reduction_indices"
  attr {
    key: "T"
    value {
      type: DT_FLOAT
    }
  }
  attr {
    key: "Tidx"
    value {
      type: DT_INT32
    }
  }
  attr {
    key: "_output_shapes"
    value {
      list {
        shape {
          dim {
            size: 16
          }
        }
      }
    }
  }
  attr {
    key: "keep_dims"
    value {
      b: false
    }
  }
}
node {
  name: "eegnet_v1/hidden/layer1/1x1compress/BatchNorm/moments/normalize/divisor"
  op: "Inv"
  input: "eegnet_v1/hidden/layer1/1x1compress/BatchNorm/moments/sufficient_statistics/Const"
  input: "^eegnet_v1/hidden/layer1/1x1compress/BatchNorm/moments/sufficient_statistics/mean_ss"
  input: "^eegnet_v1/hidden/layer1/1x1compress/BatchNorm/moments/sufficient_statistics/var_ss"
  attr {
    key: "T"
    value {
      type: DT_FLOAT
    }
  }
  attr {
    key: "_output_shapes"
    value {
      list {
        shape {
        }
      }
    }
  }
}
node {
  name: "eegnet_v1/hidden/layer1/1x1compress/BatchNorm/moments/normalize/shifted_mean"
  op: "Mul"
  input: "eegnet_v1/hidden/layer1/1x1compress/BatchNorm/moments/sufficient_statistics/mean_ss"
  input: "eegnet_v1/hidden/layer1/1x1compress/BatchNorm/moments/normalize/divisor"
  attr {
    key: "T"
    value {
      type: DT_FLOAT
    }
  }
  attr {
    key: "_output_shapes"
    value {
      list {
        shape {
          dim {
            size: 16
          }
        }
      }
    }
  }
}
node {
  name: "eegnet_v1/hidden/layer1/1x1compress/BatchNorm/moments/normalize/mean"
  op: "Add"
  input: "eegnet_v1/hidden/layer1/1x1compress/BatchNorm/moments/normalize/shifted_mean"
  input: "eegnet_v1/hidden/layer1/1x1compress/BatchNorm/Add"
  attr {
    key: "T"
    value {
      type: DT_FLOAT
    }
  }
  attr {
    key: "_output_shapes"
    value {
      list {
        shape {
          dim {
            size: 16
          }
        }
      }
    }
  }
}
node {
  name: "eegnet_v1/hidden/layer1/1x1compress/BatchNorm/moments/normalize/Mul"
  op: "Mul"
  input: "eegnet_v1/hidden/layer1/1x1compress/BatchNorm/moments/sufficient_statistics/var_ss"
  input: "eegnet_v1/hidden/layer1/1x1compress/BatchNorm/moments/normalize/divisor"
  attr {
    key: "T"
    value {
      type: DT_FLOAT
    }
  }
  attr {
    key: "_output_shapes"
    value {
      list {
        shape {
          dim {
            size: 16
          }
        }
      }
    }
  }
}
node {
  name: "eegnet_v1/hidden/layer1/1x1compress/BatchNorm/moments/normalize/Square"
  op: "Square"
  input: "eegnet_v1/hidden/layer1/1x1compress/BatchNorm/moments/normalize/shifted_mean"
  attr {
    key: "T"
    value {
      type: DT_FLOAT
    }
  }
  attr {
    key: "_output_shapes"
    value {
      list {
        shape {
          dim {
            size: 16
          }
        }
      }
    }
  }
}
node {
  name: "eegnet_v1/hidden/layer1/1x1compress/BatchNorm/moments/normalize/variance"
  op: "Sub"
  input: "eegnet_v1/hidden/layer1/1x1compress/BatchNorm/moments/normalize/Mul"
  input: "eegnet_v1/hidden/layer1/1x1compress/BatchNorm/moments/normalize/Square"
  attr {
    key: "T"
    value {
      type: DT_FLOAT
    }
  }
  attr {
    key: "_output_shapes"
    value {
      list {
        shape {
          dim {
            size: 16
          }
        }
      }
    }
  }
}
node {
  name: "eegnet_v1/hidden/layer1/1x1compress/BatchNorm/AssignMovingAvg/decay"
  op: "Const"
  attr {
    key: "_class"
    value {
      list {
        s: "loc:@eegnet_v1/hidden/layer1/1x1compress/BatchNorm/moving_mean"
      }
    }
  }
  attr {
    key: "_output_shapes"
    value {
      list {
        shape {
        }
      }
    }
  }
  attr {
    key: "dtype"
    value {
      type: DT_FLOAT
    }
  }
  attr {
    key: "value"
    value {
      tensor {
        dtype: DT_FLOAT
        tensor_shape {
        }
        float_val: 0.0010000000475
      }
    }
  }
}
node {
  name: "eegnet_v1/hidden/layer1/1x1compress/BatchNorm/AssignMovingAvg/sub"
  op: "Sub"
  input: "eegnet_v1/hidden/layer1/1x1compress/BatchNorm/moving_mean/read"
  input: "eegnet_v1/hidden/layer1/1x1compress/BatchNorm/moments/normalize/mean"
  attr {
    key: "T"
    value {
      type: DT_FLOAT
    }
  }
  attr {
    key: "_class"
    value {
      list {
        s: "loc:@eegnet_v1/hidden/layer1/1x1compress/BatchNorm/moving_mean"
      }
    }
  }
  attr {
    key: "_output_shapes"
    value {
      list {
        shape {
          dim {
            size: 16
          }
        }
      }
    }
  }
}
node {
  name: "eegnet_v1/hidden/layer1/1x1compress/BatchNorm/AssignMovingAvg/mul"
  op: "Mul"
  input: "eegnet_v1/hidden/layer1/1x1compress/BatchNorm/AssignMovingAvg/sub"
  input: "eegnet_v1/hidden/layer1/1x1compress/BatchNorm/AssignMovingAvg/decay"
  attr {
    key: "T"
    value {
      type: DT_FLOAT
    }
  }
  attr {
    key: "_class"
    value {
      list {
        s: "loc:@eegnet_v1/hidden/layer1/1x1compress/BatchNorm/moving_mean"
      }
    }
  }
  attr {
    key: "_output_shapes"
    value {
      list {
        shape {
          dim {
            size: 16
          }
        }
      }
    }
  }
}
node {
  name: "eegnet_v1/hidden/layer1/1x1compress/BatchNorm/AssignMovingAvg"
  op: "AssignSub"
  input: "eegnet_v1/hidden/layer1/1x1compress/BatchNorm/moving_mean"
  input: "eegnet_v1/hidden/layer1/1x1compress/BatchNorm/AssignMovingAvg/mul"
  attr {
    key: "T"
    value {
      type: DT_FLOAT
    }
  }
  attr {
    key: "_class"
    value {
      list {
        s: "loc:@eegnet_v1/hidden/layer1/1x1compress/BatchNorm/moving_mean"
      }
    }
  }
  attr {
    key: "_output_shapes"
    value {
      list {
        shape {
          dim {
            size: 16
          }
        }
      }
    }
  }
  attr {
    key: "use_locking"
    value {
      b: false
    }
  }
}
node {
  name: "eegnet_v1/hidden/layer1/1x1compress/BatchNorm/AssignMovingAvg_1/decay"
  op: "Const"
  attr {
    key: "_class"
    value {
      list {
        s: "loc:@eegnet_v1/hidden/layer1/1x1compress/BatchNorm/moving_variance"
      }
    }
  }
  attr {
    key: "_output_shapes"
    value {
      list {
        shape {
        }
      }
    }
  }
  attr {
    key: "dtype"
    value {
      type: DT_FLOAT
    }
  }
  attr {
    key: "value"
    value {
      tensor {
        dtype: DT_FLOAT
        tensor_shape {
        }
        float_val: 0.0010000000475
      }
    }
  }
}
node {
  name: "eegnet_v1/hidden/layer1/1x1compress/BatchNorm/AssignMovingAvg_1/sub"
  op: "Sub"
  input: "eegnet_v1/hidden/layer1/1x1compress/BatchNorm/moving_variance/read"
  input: "eegnet_v1/hidden/layer1/1x1compress/BatchNorm/moments/normalize/variance"
  attr {
    key: "T"
    value {
      type: DT_FLOAT
    }
  }
  attr {
    key: "_class"
    value {
      list {
        s: "loc:@eegnet_v1/hidden/layer1/1x1compress/BatchNorm/moving_variance"
      }
    }
  }
  attr {
    key: "_output_shapes"
    value {
      list {
        shape {
          dim {
            size: 16
          }
        }
      }
    }
  }
}
node {
  name: "eegnet_v1/hidden/layer1/1x1compress/BatchNorm/AssignMovingAvg_1/mul"
  op: "Mul"
  input: "eegnet_v1/hidden/layer1/1x1compress/BatchNorm/AssignMovingAvg_1/sub"
  input: "eegnet_v1/hidden/layer1/1x1compress/BatchNorm/AssignMovingAvg_1/decay"
  attr {
    key: "T"
    value {
      type: DT_FLOAT
    }
  }
  attr {
    key: "_class"
    value {
      list {
        s: "loc:@eegnet_v1/hidden/layer1/1x1compress/BatchNorm/moving_variance"
      }
    }
  }
  attr {
    key: "_output_shapes"
    value {
      list {
        shape {
          dim {
            size: 16
          }
        }
      }
    }
  }
}
node {
  name: "eegnet_v1/hidden/layer1/1x1compress/BatchNorm/AssignMovingAvg_1"
  op: "AssignSub"
  input: "eegnet_v1/hidden/layer1/1x1compress/BatchNorm/moving_variance"
  input: "eegnet_v1/hidden/layer1/1x1compress/BatchNorm/AssignMovingAvg_1/mul"
  attr {
    key: "T"
    value {
      type: DT_FLOAT
    }
  }
  attr {
    key: "_class"
    value {
      list {
        s: "loc:@eegnet_v1/hidden/layer1/1x1compress/BatchNorm/moving_variance"
      }
    }
  }
  attr {
    key: "_output_shapes"
    value {
      list {
        shape {
          dim {
            size: 16
          }
        }
      }
    }
  }
  attr {
    key: "use_locking"
    value {
      b: false
    }
  }
}
node {
  name: "eegnet_v1/hidden/layer1/1x1compress/BatchNorm/batchnorm/add/y"
  op: "Const"
  attr {
    key: "_output_shapes"
    value {
      list {
        shape {
        }
      }
    }
  }
  attr {
    key: "dtype"
    value {
      type: DT_FLOAT
    }
  }
  attr {
    key: "value"
    value {
      tensor {
        dtype: DT_FLOAT
        tensor_shape {
        }
        float_val: 0.0010000000475
      }
    }
  }
}
node {
  name: "eegnet_v1/hidden/layer1/1x1compress/BatchNorm/batchnorm/add"
  op: "Add"
  input: "eegnet_v1/hidden/layer1/1x1compress/BatchNorm/moments/normalize/variance"
  input: "eegnet_v1/hidden/layer1/1x1compress/BatchNorm/batchnorm/add/y"
  attr {
    key: "T"
    value {
      type: DT_FLOAT
    }
  }
  attr {
    key: "_output_shapes"
    value {
      list {
        shape {
          dim {
            size: 16
          }
        }
      }
    }
  }
}
node {
  name: "eegnet_v1/hidden/layer1/1x1compress/BatchNorm/batchnorm/Rsqrt"
  op: "Rsqrt"
  input: "eegnet_v1/hidden/layer1/1x1compress/BatchNorm/batchnorm/add"
  attr {
    key: "T"
    value {
      type: DT_FLOAT
    }
  }
  attr {
    key: "_output_shapes"
    value {
      list {
        shape {
          dim {
            size: 16
          }
        }
      }
    }
  }
}
node {
  name: "eegnet_v1/hidden/layer1/1x1compress/BatchNorm/batchnorm/mul"
  op: "Mul"
  input: "eegnet_v1/hidden/layer1/1x1compress/Conv2D"
  input: "eegnet_v1/hidden/layer1/1x1compress/BatchNorm/batchnorm/Rsqrt"
  attr {
    key: "T"
    value {
      type: DT_FLOAT
    }
  }
  attr {
    key: "_output_shapes"
    value {
      list {
        shape {
          dim {
            size: 16
          }
          dim {
            size: 1
          }
          dim {
            size: 4800
          }
          dim {
            size: 16
          }
        }
      }
    }
  }
}
node {
  name: "eegnet_v1/hidden/layer1/1x1compress/BatchNorm/batchnorm/mul_1"
  op: "Mul"
  input: "eegnet_v1/hidden/layer1/1x1compress/BatchNorm/moments/normalize/mean"
  input: "eegnet_v1/hidden/layer1/1x1compress/BatchNorm/batchnorm/Rsqrt"
  attr {
    key: "T"
    value {
      type: DT_FLOAT
    }
  }
  attr {
    key: "_output_shapes"
    value {
      list {
        shape {
          dim {
            size: 16
          }
        }
      }
    }
  }
}
node {
  name: "eegnet_v1/hidden/layer1/1x1compress/BatchNorm/batchnorm/sub"
  op: "Sub"
  input: "eegnet_v1/hidden/layer1/1x1compress/BatchNorm/beta/read"
  input: "eegnet_v1/hidden/layer1/1x1compress/BatchNorm/batchnorm/mul_1"
  attr {
    key: "T"
    value {
      type: DT_FLOAT
    }
  }
  attr {
    key: "_output_shapes"
    value {
      list {
        shape {
          dim {
            size: 16
          }
        }
      }
    }
  }
}
node {
  name: "eegnet_v1/hidden/layer1/1x1compress/BatchNorm/batchnorm/add_1"
  op: "Add"
  input: "eegnet_v1/hidden/layer1/1x1compress/BatchNorm/batchnorm/mul"
  input: "eegnet_v1/hidden/layer1/1x1compress/BatchNorm/batchnorm/sub"
  attr {
    key: "T"
    value {
      type: DT_FLOAT
    }
  }
  attr {
    key: "_output_shapes"
    value {
      list {
        shape {
          dim {
            size: 16
          }
          dim {
            size: 1
          }
          dim {
            size: 4800
          }
          dim {
            size: 16
          }
        }
      }
    }
  }
}
node {
  name: "eegnet_v1/hidden/layer1/1x1compress/Relu"
  op: "Relu"
  input: "eegnet_v1/hidden/layer1/1x1compress/BatchNorm/batchnorm/add_1"
  attr {
    key: "T"
    value {
      type: DT_FLOAT
    }
  }
  attr {
    key: "_output_shapes"
    value {
      list {
        shape {
          dim {
            size: 16
          }
          dim {
            size: 1
          }
          dim {
            size: 4800
          }
          dim {
            size: 16
          }
        }
      }
    }
  }
}
node {
  name: "eegnet_v1/hidden/layer1/dilconv/weights"
  op: "Variable"
  attr {
    key: "_output_shapes"
    value {
      list {
        shape {
          dim {
            size: 1
          }
          dim {
            size: 3
          }
          dim {
            size: 16
          }
          dim {
            size: 8
          }
        }
      }
    }
  }
  attr {
    key: "container"
    value {
      s: ""
    }
  }
  attr {
    key: "dtype"
    value {
      type: DT_FLOAT
    }
  }
  attr {
    key: "shape"
    value {
      shape {
        dim {
          size: 1
        }
        dim {
          size: 3
        }
        dim {
          size: 16
        }
        dim {
          size: 8
        }
      }
    }
  }
  attr {
    key: "shared_name"
    value {
      s: ""
    }
  }
}
node {
  name: "eegnet_v1/hidden/layer1/dilconv/weights/Initializer/random_uniform/shape"
  op: "Const"
  attr {
    key: "_class"
    value {
      list {
        s: "loc:@eegnet_v1/hidden/layer1/dilconv/weights"
      }
    }
  }
  attr {
    key: "_output_shapes"
    value {
      list {
        shape {
          dim {
            size: 4
          }
        }
      }
    }
  }
  attr {
    key: "dtype"
    value {
      type: DT_INT32
    }
  }
  attr {
    key: "value"
    value {
      tensor {
        dtype: DT_INT32
        tensor_shape {
          dim {
            size: 4
          }
        }
        tensor_content: "\001\000\000\000\003\000\000\000\020\000\000\000\010\000\000\000"
      }
    }
  }
}
node {
  name: "eegnet_v1/hidden/layer1/dilconv/weights/Initializer/random_uniform/min"
  op: "Const"
  attr {
    key: "_class"
    value {
      list {
        s: "loc:@eegnet_v1/hidden/layer1/dilconv/weights"
      }
    }
  }
  attr {
    key: "_output_shapes"
    value {
      list {
        shape {
        }
      }
    }
  }
  attr {
    key: "dtype"
    value {
      type: DT_FLOAT
    }
  }
  attr {
    key: "value"
    value {
      tensor {
        dtype: DT_FLOAT
        tensor_shape {
        }
        float_val: -0.288675129414
      }
    }
  }
}
node {
  name: "eegnet_v1/hidden/layer1/dilconv/weights/Initializer/random_uniform/max"
  op: "Const"
  attr {
    key: "_class"
    value {
      list {
        s: "loc:@eegnet_v1/hidden/layer1/dilconv/weights"
      }
    }
  }
  attr {
    key: "_output_shapes"
    value {
      list {
…
        shape {
        }
      }
    }
  }
  attr {
    key: "dtype"
    value {
      type: DT_FLOAT
    }
  }
}
node {
  name: "init_ops/report_uninitialized_variables/IsVariableInitialized_174"
  op: "IsVariableInitialized"
  input: "eegnet_v1/hidden/layer6/1x1toRes/biases/Adam_1"
  attr {
    key: "_class"
    value {
      list {
        s: "loc:@eegnet_v1/hidden/layer6/1x1toRes/biases"
      }
    }
  }
  attr {
    key: "_output_shapes"
    value {
      list {
        shape {
        }
      }
    }
  }
  attr {
    key: "dtype"
    value {
      type: DT_FLOAT
    }
  }
}
node {
  name: "init_ops/report_uninitialized_variables/IsVariableInitialized_175"
  op: "IsVariableInitialized"
  input: "eegnet_v1/logits/1x1compress/weights/Adam"
  attr {
    key: "_class"
    value {
      list {
        s: "loc:@eegnet_v1/logits/1x1compress/weights"
      }
    }
  }
  attr {
    key: "_output_shapes"
    value {
      list {
        shape {
        }
      }
    }
  }
  attr {
    key: "dtype"
    value {
      type: DT_FLOAT
    }
  }
}
node {
  name: "init_ops/report_uninitialized_variables/IsVariableInitialized_176"
  op: "IsVariableInitialized"
  input: "eegnet_v1/logits/1x1compress/weights/Adam_1"
  attr {
    key: "_class"
    value {
      list {
        s: "loc:@eegnet_v1/logits/1x1compress/weights"
      }
    }
  }
  attr {
    key: "_output_shapes"
    value {
      list {
        shape {
        }
      }
    }
  }
  attr {
    key: "dtype"
    value {
      type: DT_FLOAT
    }
  }
}
node {
  name: "init_ops/report_uninitialized_variables/IsVariableInitialized_177"
  op: "IsVariableInitialized"
  input: "eegnet_v1/logits/1x1compress/BatchNorm/beta/Adam"
  attr {
    key: "_class"
    value {
      list {
        s: "loc:@eegnet_v1/logits/1x1compress/BatchNorm/beta"
      }
    }
  }
  attr {
    key: "_output_shapes"
    value {
      list {
        shape {
        }
      }
    }
  }
  attr {
    key: "dtype"
    value {
      type: DT_FLOAT
    }
  }
}
node {
  name: "init_ops/report_uninitialized_variables/IsVariableInitialized_178"
  op: "IsVariableInitialized"
  input: "eegnet_v1/logits/1x1compress/BatchNorm/beta/Adam_1"
  attr {
    key: "_class"
    value {
      list {
        s: "loc:@eegnet_v1/logits/1x1compress/BatchNorm/beta"
      }
    }
  }
  attr {
    key: "_output_shapes"
    value {
      list {
        shape {
        }
      }
    }
  }
  attr {
    key: "dtype"
    value {
      type: DT_FLOAT
    }
  }
}
node {
  name: "init_ops/report_uninitialized_variables/IsVariableInitialized_179"
  op: "IsVariableInitialized"
  input: "eegnet_v1/logits/1x3reduce1/weights/Adam"
  attr {
    key: "_class"
    value {
      list {
        s: "loc:@eegnet_v1/logits/1x3reduce1/weights"
      }
    }
  }
  attr {
    key: "_output_shapes"
    value {
      list {
        shape {
        }
      }
    }
  }
  attr {
    key: "dtype"
    value {
      type: DT_FLOAT
    }
  }
}
node {
  name: "init_ops/report_uninitialized_variables/IsVariableInitialized_180"
  op: "IsVariableInitialized"
  input: "eegnet_v1/logits/1x3reduce1/weights/Adam_1"
  attr {
    key: "_class"
    value {
      list {
        s: "loc:@eegnet_v1/logits/1x3reduce1/weights"
      }
    }
  }
  attr {
    key: "_output_shapes"
    value {
      list {
        shape {
        }
      }
    }
  }
  attr {
    key: "dtype"
    value {
      type: DT_FLOAT
    }
  }
}
node {
  name: "init_ops/report_uninitialized_variables/IsVariableInitialized_181"
  op: "IsVariableInitialized"
  input: "eegnet_v1/logits/1x3reduce1/BatchNorm/beta/Adam"
  attr {
    key: "_class"
    value {
      list {
        s: "loc:@eegnet_v1/logits/1x3reduce1/BatchNorm/beta"
      }
    }
  }
  attr {
    key: "_output_shapes"
    value {
      list {
        shape {
        }
      }
    }
  }
  attr {
    key: "dtype"
    value {
      type: DT_FLOAT
    }
  }
}
node {
  name: "init_ops/report_uninitialized_variables/IsVariableInitialized_182"
  op: "IsVariableInitialized"
  input: "eegnet_v1/logits/1x3reduce1/BatchNorm/beta/Adam_1"
  attr {
    key: "_class"
    value {
      list {
        s: "loc:@eegnet_v1/logits/1x3reduce1/BatchNorm/beta"
      }
    }
  }
  attr {
    key: "_output_shapes"
    value {
      list {
        shape {
        }
      }
    }
  }
  attr {
    key: "dtype"
    value {
      type: DT_FLOAT
    }
  }
}
node {
  name: "init_ops/report_uninitialized_variables/IsVariableInitialized_183"
  op: "IsVariableInitialized"
  input: "eegnet_v1/logits/1x3reduce2/weights/Adam"
  attr {
    key: "_class"
    value {
      list {
        s: "loc:@eegnet_v1/logits/1x3reduce2/weights"
      }
    }
  }
  attr {
    key: "_output_shapes"
    value {
      list {
        shape {
        }
      }
    }
  }
  attr {
    key: "dtype"
    value {
      type: DT_FLOAT
    }
  }
}
node {
  name: "init_ops/report_uninitialized_variables/IsVariableInitialized_184"
  op: "IsVariableInitialized"
  input: "eegnet_v1/logits/1x3reduce2/weights/Adam_1"
  attr {
    key: "_class"
    value {
      list {
        s: "loc:@eegnet_v1/logits/1x3reduce2/weights"
      }
    }
  }
  attr {
    key: "_output_shapes"
    value {
      list {
        shape {
        }
      }
    }
  }
  attr {
    key: "dtype"
    value {
      type: DT_FLOAT
    }
  }
}
node {
  name: "init_ops/report_uninitialized_variables/IsVariableInitialized_185"
  op: "IsVariableInitialized"
  input: "eegnet_v1/logits/1x3reduce2/BatchNorm/beta/Adam"
  attr {
    key: "_class"
    value {
      list {
        s: "loc:@eegnet_v1/logits/1x3reduce2/BatchNorm/beta"
      }
    }
  }
  attr {
    key: "_output_shapes"
    value {
      list {
        shape {
        }
      }
    }
  }
  attr {
    key: "dtype"
    value {
      type: DT_FLOAT
    }
  }
}
node {
  name: "init_ops/report_uninitialized_variables/IsVariableInitialized_186"
  op: "IsVariableInitialized"
  input: "eegnet_v1/logits/1x3reduce2/BatchNorm/beta/Adam_1"
  attr {
    key: "_class"
    value {
      list {
        s: "loc:@eegnet_v1/logits/1x3reduce2/BatchNorm/beta"
      }
    }
  }
  attr {
    key: "_output_shapes"
    value {
      list {
        shape {
        }
      }
    }
  }
  attr {
    key: "dtype"
    value {
      type: DT_FLOAT
    }
  }
}
node {
  name: "init_ops/report_uninitialized_variables/IsVariableInitialized_187"
  op: "IsVariableInitialized"
  input: "eegnet_v1/logits/logits/weights/Adam"
  attr {
    key: "_class"
    value {
      list {
        s: "loc:@eegnet_v1/logits/logits/weights"
      }
    }
  }
  attr {
    key: "_output_shapes"
    value {
      list {
        shape {
        }
      }
    }
  }
  attr {
    key: "dtype"
    value {
      type: DT_FLOAT
    }
  }
}
node {
  name: "init_ops/report_uninitialized_variables/IsVariableInitialized_188"
  op: "IsVariableInitialized"
  input: "eegnet_v1/logits/logits/weights/Adam_1"
  attr {
    key: "_class"
    value {
      list {
        s: "loc:@eegnet_v1/logits/logits/weights"
      }
    }
  }
  attr {
    key: "_output_shapes"
    value {
      list {
        shape {
        }
      }
    }
  }
  attr {
    key: "dtype"
    value {
      type: DT_FLOAT
    }
  }
}
node {
  name: "init_ops/report_uninitialized_variables/IsVariableInitialized_189"
  op: "IsVariableInitialized"
  input: "eegnet_v1/logits/logits/biases/Adam"
  attr {
    key: "_class"
    value {
      list {
        s: "loc:@eegnet_v1/logits/logits/biases"
      }
    }
  }
  attr {
    key: "_output_shapes"
    value {
      list {
        shape {
        }
      }
    }
  }
  attr {
    key: "dtype"
    value {
      type: DT_FLOAT
    }
  }
}
node {
  name: "init_ops/report_uninitialized_variables/IsVariableInitialized_190"
  op: "IsVariableInitialized"
  input: "eegnet_v1/logits/logits/biases/Adam_1"
  attr {
    key: "_class"
    value {
      list {
        s: "loc:@eegnet_v1/logits/logits/biases"
      }
    }
  }
  attr {
    key: "_output_shapes"
    value {
      list {
        shape {
        }
      }
    }
  }
  attr {
    key: "dtype"
    value {
      type: DT_FLOAT
    }
  }
}
node {
  name: "init_ops/report_uninitialized_variables/pack"
  op: "Pack"
  input: "init_ops/report_uninitialized_variables/IsVariableInitialized"
  input: "init_ops/report_uninitialized_variables/IsVariableInitialized_1"
  input: "init_ops/report_uninitialized_variables/IsVariableInitialized_2"
  input: "init_ops/report_uninitialized_variables/IsVariableInitialized_3"
  input: "init_ops/report_uninitialized_variables/IsVariableInitialized_4"
  input: "init_ops/report_uninitialized_variables/IsVariableInitialized_5"
  input: "init_ops/report_uninitialized_variables/IsVariableInitialized_6"
  input: "init_ops/report_uninitialized_variables/IsVariableInitialized_7"
  input: "init_ops/report_uninitialized_variables/IsVariableInitialized_8"
  input: "init_ops/report_uninitialized_variables/IsVariableInitialized_9"
  input: "init_ops/report_uninitialized_variables/IsVariableInitialized_10"
  input: "init_ops/report_uninitialized_variables/IsVariableInitialized_11"
  input: "init_ops/report_uninitialized_variables/IsVariableInitialized_12"
  input: "init_ops/report_uninitialized_variables/IsVariableInitialized_13"
  input: "init_ops/report_uninitialized_variables/IsVariableInitialized_14"
  input: "init_ops/report_uninitialized_variables/IsVariableInitialized_15"
  input: "init_ops/report_uninitialized_variables/IsVariableInitialized_16"
  input: "init_ops/report_uninitialized_variables/IsVariableInitialized_17"
  input: "init_ops/report_uninitialized_variables/IsVariableInitialized_18"
  input: "init_ops/report_uninitialized_variables/IsVariableInitialized_19"
  input: "init_ops/report_uninitialized_variables/IsVariableInitialized_20"
  input: "init_ops/report_uninitialized_variables/IsVariableInitialized_21"
  input: "init_ops/report_uninitialized_variables/IsVariableInitialized_22"
  input: "init_ops/report_uninitialized_variables/IsVariableInitialized_23"
  input: "init_ops/report_uninitialized_variables/IsVariableInitialized_24"
  input: "init_ops/report_uninitialized_variables/IsVariableInitialized_25"
  input: "init_ops/report_uninitialized_variables/IsVariableInitialized_26"
  input: "init_ops/report_uninitialized_variables/IsVariableInitialized_27"
  input: "init_ops/report_uninitialized_variables/IsVariableInitialized_28"
  input: "init_ops/report_uninitialized_variables/IsVariableInitialized_29"
  input: "init_ops/report_uninitialized_variables/IsVariableInitialized_30"
  input: "init_ops/report_uninitialized_variables/IsVariableInitialized_31"
  input: "init_ops/report_uninitialized_variables/IsVariableInitialized_32"
  input: "init_ops/report_uninitialized_variables/IsVariableInitialized_33"
  input: "init_ops/report_uninitialized_variables/IsVariableInitialized_34"
  input: "init_ops/report_uninitialized_variables/IsVariableInitialized_35"
  input: "init_ops/report_uninitialized_variables/IsVariableInitialized_36"
  input: "init_ops/report_uninitialized_variables/IsVariableInitialized_37"
  input: "init_ops/report_uninitialized_variables/IsVariableInitialized_38"
  input: "init_ops/report_uninitialized_variables/IsVariableInitialized_39"
  input: "init_ops/report_uninitialized_variables/IsVariableInitialized_40"
  input: "init_ops/report_uninitialized_variables/IsVariableInitialized_41"
  input: "init_ops/report_uninitialized_variables/IsVariableInitialized_42"
  input: "init_ops/report_uninitialized_variables/IsVariableInitialized_43"
  input: "init_ops/report_uninitialized_variables/IsVariableInitialized_44"
  input: "init_ops/report_uninitialized_variables/IsVariableInitialized_45"
  input: "init_ops/report_uninitialized_variables/IsVariableInitialized_46"
  input: "init_ops/report_uninitialized_variables/IsVariableInitialized_47"
  input: "init_ops/report_uninitialized_variables/IsVariableInitialized_48"
  input: "init_ops/report_uninitialized_variables/IsVariableInitialized_49"
  input: "init_ops/report_uninitialized_variables/IsVariableInitialized_50"
  input: "init_ops/report_uninitialized_variables/IsVariableInitialized_51"
  input: "init_ops/report_uninitialized_variables/IsVariableInitialized_52"
  input: "init_ops/report_uninitialized_variables/IsVariableInitialized_53"
  input: "init_ops/report_uninitialized_variables/IsVariableInitialized_54"
  input: "init_ops/report_uninitialized_variables/IsVariableInitialized_55"
  input: "init_ops/report_uninitialized_variables/IsVariableInitialized_56"
  input: "init_ops/report_uninitialized_variables/IsVariableInitialized_57"
  input: "init_ops/report_uninitialized_variables/IsVariableInitialized_58"
  input: "init_ops/report_uninitialized_variables/IsVariableInitialized_59"
  input: "init_ops/report_uninitialized_variables/IsVariableInitialized_60"
  input: "init_ops/report_uninitialized_variables/IsVariableInitialized_61"
  input: "init_ops/report_uninitialized_variables/IsVariableInitialized_62"
  input: "init_ops/report_uninitialized_variables/IsVariableInitialized_63"
  input: "init_ops/report_uninitialized_variables/IsVariableInitialized_64"
  input: "init_ops/report_uninitialized_variables/IsVariableInitialized_65"
  input: "init_ops/report_uninitialized_variables/IsVariableInitialized_66"
  input: "init_ops/report_uninitialized_variables/IsVariableInitialized_67"
  input: "init_ops/report_uninitialized_variables/IsVariableInitialized_68"
  input: "init_ops/report_uninitialized_variables/IsVariableInitialized_69"
  input: "init_ops/report_uninitialized_variables/IsVariableInitialized_70"
  input: "init_ops/report_uninitialized_variables/IsVariableInitialized_71"
  input: "init_ops/report_uninitialized_variables/IsVariableInitialized_72"
  input: "init_ops/report_uninitialized_variables/IsVariableInitialized_73"
  input: "init_ops/report_uninitialized_variables/IsVariableInitialized_74"
  input: "init_ops/report_uninitialized_variables/IsVariableInitialized_75"
  input: "init_ops/report_uninitialized_variables/IsVariableInitialized_76"
  input: "init_ops/report_uninitialized_variables/IsVariableInitialized_77"
  input: "init_ops/report_uninitialized_variables/IsVariableInitialized_78"
  input: "init_ops/report_uninitialized_variables/IsVariableInitialized_79"
  input: "init_ops/report_uninitialized_variables/IsVariableInitialized_80"
  input: "init_ops/report_uninitialized_variables/IsVariableInitialized_81"
  input: "init_ops/report_uninitialized_variables/IsVariableInitialized_82"
  input: "init_ops/report_uninitialized_variables/IsVariableInitialized_83"
  input: "init_ops/report_uninitialized_variables/IsVariableInitialized_84"
  input: "init_ops/report_uninitialized_variables/IsVariableInitialized_85"
  input: "init_ops/report_uninitialized_variables/IsVariableInitialized_86"
  input: "init_ops/report_uninitialized_variables/IsVariableInitialized_87"
  input: "init_ops/report_uninitialized_variables/IsVariableInitialized_88"
  input: "init_ops/report_uninitialized_variables/IsVariableInitialized_89"
  input: "init_ops/report_uninitialized_variables/IsVariableInitialized_90"
  input: "init_ops/report_uninitialized_variables/IsVariableInitialized_91"
  input: "init_ops/report_uninitialized_variables/IsVariableInitialized_92"
  input: "init_ops/report_uninitialized_variables/IsVariableInitialized_93"
  input: "init_ops/report_uninitialized_variables/IsVariableInitialized_94"
  input: "init_ops/report_uninitialized_variables/IsVariableInitialized_95"
  input: "init_ops/report_uninitialized_variables/IsVariableInitialized_96"
  input: "init_ops/report_uninitialized_variables/IsVariableInitialized_97"
  input: "init_ops/report_uninitialized_variables/IsVariableInitialized_98"
  input: "init_ops/report_uninitialized_variables/IsVariableInitialized_99"
  input: "init_ops/report_uninitialized_variables/IsVariableInitialized_100"
  input: "init_ops/report_uninitialized_variables/IsVariableInitialized_101"
  input: "init_ops/report_uninitialized_variables/IsVariableInitialized_102"
  input: "init_ops/report_uninitialized_variables/IsVariableInitialized_103"
  input: "init_ops/report_uninitialized_variables/IsVariableInitialized_104"
  input: "init_ops/report_uninitialized_variables/IsVariableInitialized_105"
  input: "init_ops/report_uninitialized_variables/IsVariableInitialized_106"
  input: "init_ops/report_uninitialized_variables/IsVariableInitialized_107"
  input: "init_ops/report_uninitialized_variables/IsVariableInitialized_108"
  input: "init_ops/report_uninitialized_variables/IsVariableInitialized_109"
  input: "init_ops/report_uninitialized_variables/IsVariableInitialized_110"
  input: "init_ops/report_uninitialized_variables/IsVariableInitialized_111"
  input: "init_ops/report_uninitialized_variables/IsVariableInitialized_112"
  input: "init_ops/report_uninitialized_variables/IsVariableInitialized_113"
  input: "init_ops/report_uninitialized_variables/IsVariableInitialized_114"
  input: "init_ops/report_uninitialized_variables/IsVariableInitialized_115"
  input: "init_ops/report_uninitialized_variables/IsVariableInitialized_116"
  input: "init_ops/report_uninitialized_variables/IsVariableInitialized_117"
  input: "init_ops/report_uninitialized_variables/IsVariableInitialized_118"
  input: "init_ops/report_uninitialized_variables/IsVariableInitialized_119"
  input: "init_ops/report_uninitialized_variables/IsVariableInitialized_120"
  input: "init_ops/report_uninitialized_variables/IsVariableInitialized_121"
  input: "init_ops/report_uninitialized_variables/IsVariableInitialized_122"
  input: "init_ops/report_uninitialized_variables/IsVariableInitialized_123"
  input: "init_ops/report_uninitialized_variables/IsVariableInitialized_124"
  input: "init_ops/report_uninitialized_variables/IsVariableInitialized_125"
  input: "init_ops/report_uninitialized_variables/IsVariableInitialized_126"
  input: "init_ops/report_uninitialized_variables/IsVariableInitialized_127"
  input: "init_ops/report_uninitialized_variables/IsVariableInitialized_128"
  input: "init_ops/report_uninitialized_variables/IsVariableInitialized_129"
  input: "init_ops/report_uninitialized_variables/IsVariableInitialized_130"
  input: "init_ops/report_uninitialized_variables/IsVariableInitialized_131"
  input: "init_ops/report_uninitialized_variables/IsVariableInitialized_132"
  input: "init_ops/report_uninitialized_variables/IsVariableInitialized_133"
  input: "init_ops/report_uninitialized_variables/IsVariableInitialized_134"
  input: "init_ops/report_uninitialized_variables/IsVariableInitialized_135"
  input: "init_ops/report_uninitialized_variables/IsVariableInitialized_136"
  input: "init_ops/report_uninitialized_variables/IsVariableInitialized_137"
  input: "init_ops/report_uninitialized_variables/IsVariableInitialized_138"
  input: "init_ops/report_uninitialized_variables/IsVariableInitialized_139"
  input: "init_ops/report_uninitialized_variables/IsVariableInitialized_140"
  input: "init_ops/report_uninitialized_variables/IsVariableInitialized_141"
  input: "init_ops/report_uninitialized_variables/IsVariableInitialized_142"
  input: "init_ops/report_uninitialized_variables/IsVariableInitialized_143"
  input: "init_ops/report_uninitialized_variables/IsVariableInitialized_144"
  input: "init_ops/report_uninitialized_variables/IsVariableInitialized_145"
  input: "init_ops/report_uninitialized_variables/IsVariableInitialized_146"
  input: "init_ops/report_uninitialized_variables/IsVariableInitialized_147"
  input: "init_ops/report_uninitialized_variables/IsVariableInitialized_148"
  input: "init_ops/report_uninitialized_variables/IsVariableInitialized_149"
  input: "init_ops/report_uninitialized_variables/IsVariableInitialized_150"
  input: "init_ops/report_uninitialized_variables/IsVariableInitialized_151"
  input: "init_ops/report_uninitialized_variables/IsVariableInitialized_152"
  input: "init_ops/report_uninitialized_variables/IsVariableInitialized_153"
  input: "init_ops/report_uninitialized_variables/IsVariableInitialized_154"
  input: "init_ops/report_uninitialized_variables/IsVariableInitialized_155"
  input: "init_ops/report_uninitialized_variables/IsVariableInitialized_156"
  input: "init_ops/report_uninitialized_variables/IsVariableInitialized_157"
  input: "init_ops/report_uninitialized_variables/IsVariableInitialized_158"
  input: "init_ops/report_uninitialized_variables/IsVariableInitialized_159"
  input: "init_ops/report_uninitialized_variables/IsVariableInitialized_160"
  input: "init_ops/report_uninitialized_variables/IsVariableInitialized_161"
  input: "init_ops/report_uninitialized_variables/IsVariableInitialized_162"
  input: "init_ops/report_uninitialized_variables/IsVariableInitialized_163"
  input: "init_ops/report_uninitialized_variables/IsVariableInitialized_164"
  input: "init_ops/report_uninitialized_variables/IsVariableInitialized_165"
  input: "init_ops/report_uninitialized_variables/IsVariableInitialized_166"
  input: "init_ops/report_uninitialized_variables/IsVariableInitialized_167"
  input: "init_ops/report_uninitialized_variables/IsVariableInitialized_168"
  input: "init_ops/report_uninitialized_variables/IsVariableInitialized_169"
  input: "init_ops/report_uninitialized_variables/IsVariableInitialized_170"
  input: "init_ops/report_uninitialized_variables/IsVariableInitialized_171"
  input: "init_ops/report_uninitialized_variables/IsVariableInitialized_172"
  input: "init_ops/report_uninitialized_variables/IsVariableInitialized_173"
  input: "init_ops/report_uninitialized_variables/IsVariableInitialized_174"
  input: "init_ops/report_uninitialized_variables/IsVariableInitialized_175"
  input: "init_ops/report_uninitialized_variables/IsVariableInitialized_176"
  input: "init_ops/report_uninitialized_variables/IsVariableInitialized_177"
  input: "init_ops/report_uninitialized_variables/IsVariableInitialized_178"
  input: "init_ops/report_uninitialized_variables/IsVariableInitialized_179"
  input: "init_ops/report_uninitialized_variables/IsVariableInitialized_180"
  input: "init_ops/report_uninitialized_variables/IsVariableInitialized_181"
  input: "init_ops/report_uninitialized_variables/IsVariableInitialized_182"
  input: "init_ops/report_uninitialized_variables/IsVariableInitialized_183"
  input: "init_ops/report_uninitialized_variables/IsVariableInitialized_184"
  input: "init_ops/report_uninitialized_variables/IsVariableInitialized_185"
  input: "init_ops/report_uninitialized_variables/IsVariableInitialized_186"
  input: "init_ops/report_uninitialized_variables/IsVariableInitialized_187"
  input: "init_ops/report_uninitialized_variables/IsVariableInitialized_188"
  input: "init_ops/report_uninitialized_variables/IsVariableInitialized_189"
  input: "init_ops/report_uninitialized_variables/IsVariableInitialized_190"
  attr {
    key: "N"
    value {
      i: 191
    }
  }
  attr {
    key: "T"
    value {
      type: DT_BOOL
    }
  }
  attr {
    key: "_output_shapes"
    value {
      list {
        shape {
          dim {
            size: 191
          }
        }
      }
    }
  }
  attr {
    key: "axis"
    value {
      i: 0
    }
  }
}
node {
  name: "init_ops/report_uninitialized_variables/LogicalNot"
  op: "LogicalNot"
  input: "init_ops/report_uninitialized_variables/pack"
  attr {
    key: "_output_shapes"
    value {
      list {
        shape {
          dim {
            size: 191
          }
        }
      }
    }
  }
}
node {
  name: "init_ops/report_uninitialized_variables/Const"
  op: "Const"
  attr {
    key: "_output_shapes"
    value {
      list {
        shape {
          dim {
            size: 191
          }
        }
      }
    }
  }
  attr {
    key: "dtype"
    value {
      type: DT_STRING
    }
  }
  attr {
    key: "value"
    value {
      tensor {
        dtype: DT_STRING
        tensor_shape {
          dim {
            size: 191
          }
        }
        string_val: "eegnet_v1/input_layer/conv1/weights"
        string_val: "eegnet_v1/input_layer/conv1/BatchNorm/beta"
        string_val: "eegnet_v1/input_layer/conv1/BatchNorm/moving_mean"
        string_val: "eegnet_v1/input_layer/conv1/BatchNorm/moving_variance"
        string_val: "eegnet_v1/hidden/layer1/1x1compress/weights"
        string_val: "eegnet_v1/hidden/layer1/1x1compress/BatchNorm/beta"
        string_val: "eegnet_v1/hidden/layer1/1x1compress/BatchNorm/moving_mean"
        string_val: "eegnet_v1/hidden/layer1/1x1compress/BatchNorm/moving_variance"
        string_val: "eegnet_v1/hidden/layer1/dilconv/weights"
        string_val: "eegnet_v1/hidden/layer1/dilconv/biases"
        string_val: "eegnet_v1/hidden/layer1/norm_filterXgate/beta"
        string_val: "eegnet_v1/hidden/layer1/norm_filterXgate/moving_mean"
        string_val: "eegnet_v1/hidden/layer1/norm_filterXgate/moving_variance"
        string_val: "eegnet_v1/hidden/layer1/1x1toRes/weights"
        string_val: "eegnet_v1/hidden/layer1/1x1toRes/biases"
        string_val: "eegnet_v1/hidden/layer2/1x1compress/weights"
        string_val: "eegnet_v1/hidden/layer2/1x1compress/BatchNorm/beta"
        string_val: "eegnet_v1/hidden/layer2/1x1compress/BatchNorm/moving_mean"
        string_val: "eegnet_v1/hidden/layer2/1x1compress/BatchNorm/moving_variance"
        string_val: "eegnet_v1/hidden/layer2/dilconv/weights"
        string_val: "eegnet_v1/hidden/layer2/dilconv/biases"
        string_val: "eegnet_v1/hidden/layer2/norm_filterXgate/beta"
        string_val: "eegnet_v1/hidden/layer2/norm_filterXgate/moving_mean"
        string_val: "eegnet_v1/hidden/layer2/norm_filterXgate/moving_variance"
        string_val: "eegnet_v1/hidden/layer2/1x1toRes/weights"
        string_val: "eegnet_v1/hidden/layer2/1x1toRes/biases"
        string_val: "eegnet_v1/hidden/layer3/1x1compress/weights"
        string_val: "eegnet_v1/hidden/layer3/1x1compress/BatchNorm/beta"
        string_val: "eegnet_v1/hidden/layer3/1x1compress/BatchNorm/moving_mean"
        string_val: "eegnet_v1/hidden/layer3/1x1compress/BatchNorm/moving_variance"
        string_val: "eegnet_v1/hidden/layer3/dilconv/weights"
        string_val: "eegnet_v1/hidden/layer3/dilconv/biases"
        string_val: "eegnet_v1/hidden/layer3/norm_filterXgate/beta"
        string_val: "eegnet_v1/hidden/layer3/norm_filterXgate/moving_mean"
        string_val: "eegnet_v1/hidden/layer3/norm_filterXgate/moving_variance"
        string_val: "eegnet_v1/hidden/layer3/1x1toRes/weights"
        string_val: "eegnet_v1/hidden/layer3/1x1toRes/biases"
        string_val: "eegnet_v1/hidden/layer4/1x1compress/weights"
        string_val: "eegnet_v1/hidden/layer4/1x1compress/BatchNorm/beta"
        string_val: "eegnet_v1/hidden/layer4/1x1compress/BatchNorm/moving_mean"
        string_val: "eegnet_v1/hidden/layer4/1x1compress/BatchNorm/moving_variance"
        string_val: "eegnet_v1/hidden/layer4/dilconv/weights"
        string_val: "eegnet_v1/hidden/layer4/dilconv/biases"
        string_val: "eegnet_v1/hidden/layer4/norm_filterXgate/beta"
        string_val: "eegnet_v1/hidden/layer4/norm_filterXgate/moving_mean"
        string_val: "eegnet_v1/hidden/layer4/norm_filterXgate/moving_variance"
        string_val: "eegnet_v1/hidden/layer4/1x1toRes/weights"
        string_val: "eegnet_v1/hidden/layer4/1x1toRes/biases"
        string_val: "eegnet_v1/hidden/layer5/1x1compress/weights"
        string_val: "eegnet_v1/hidden/layer5/1x1compress/BatchNorm/beta"
        string_val: "eegnet_v1/hidden/layer5/1x1compress/BatchNorm/moving_mean"
        string_val: "eegnet_v1/hidden/layer5/1x1compress/BatchNorm/moving_variance"
        string_val: "eegnet_v1/hidden/layer5/dilconv/weights"
        string_val: "eegnet_v1/hidden/layer5/dilconv/biases"
        string_val: "eegnet_v1/hidden/layer5/norm_filterXgate/beta"
        string_val: "eegnet_v1/hidden/layer5/norm_filterXgate/moving_mean"
        string_val: "eegnet_v1/hidden/layer5/norm_filterXgate/moving_variance"
        string_val: "eegnet_v1/hidden/layer5/1x1toRes/weights"
        string_val: "eegnet_v1/hidden/layer5/1x1toRes/biases"
        string_val: "eegnet_v1/hidden/layer6/1x1compress/weights"
        string_val: "eegnet_v1/hidden/layer6/1x1compress/BatchNorm/beta"
        string_val: "eegnet_v1/hidden/layer6/1x1compress/BatchNorm/moving_mean"
        string_val: "eegnet_v1/hidden/layer6/1x1compress/BatchNorm/moving_variance"
        string_val: "eegnet_v1/hidden/layer6/dilconv/weights"
        string_val: "eegnet_v1/hidden/layer6/dilconv/biases"
        string_val: "eegnet_v1/hidden/layer6/norm_filterXgate/beta"
        string_val: "eegnet_v1/hidden/layer6/norm_filterXgate/moving_mean"
        string_val: "eegnet_v1/hidden/layer6/norm_filterXgate/moving_variance"
        string_val: "eegnet_v1/hidden/layer6/1x1toRes/weights"
        string_val: "eegnet_v1/hidden/layer6/1x1toRes/biases"
        string_val: "eegnet_v1/logits/1x1compress/weights"
        string_val: "eegnet_v1/logits/1x1compress/BatchNorm/beta"
        string_val: "eegnet_v1/logits/1x1compress/BatchNorm/moving_mean"
        string_val: "eegnet_v1/logits/1x1compress/BatchNorm/moving_variance"
        string_val: "eegnet_v1/logits/1x3reduce1/weights"
        string_val: "eegnet_v1/logits/1x3reduce1/BatchNorm/beta"
        string_val: "eegnet_v1/logits/1x3reduce1/BatchNorm/moving_mean"
        string_val: "eegnet_v1/logits/1x3reduce1/BatchNorm/moving_variance"
        string_val: "eegnet_v1/logits/1x3reduce2/weights"
        string_val: "eegnet_v1/logits/1x3reduce2/BatchNorm/beta"
        string_val: "eegnet_v1/logits/1x3reduce2/BatchNorm/moving_mean"
        string_val: "eegnet_v1/logits/1x3reduce2/BatchNorm/moving_variance"
        string_val: "eegnet_v1/logits/logits/weights"
        string_val: "eegnet_v1/logits/logits/biases"
        string_val: "global_step"
        string_val: "beta1_power"
        string_val: "beta2_power"
        string_val: "eegnet_v1/input_layer/conv1/weights/Adam"
        string_val: "eegnet_v1/input_layer/conv1/weights/Adam_1"
        string_val: "eegnet_v1/input_layer/conv1/BatchNorm/beta/Adam"
        string_val: "eegnet_v1/input_layer/conv1/BatchNorm/beta/Adam_1"
        string_val: "eegnet_v1/hidden/layer1/1x1compress/weights/Adam"
        string_val: "eegnet_v1/hidden/layer1/1x1compress/weights/Adam_1"
        string_val: "eegnet_v1/hidden/layer1/1x1compress/BatchNorm/beta/Adam"
        string_val: "eegnet_v1/hidden/layer1/1x1compress/BatchNorm/beta/Adam_1"
        string_val: "eegnet_v1/hidden/layer1/dilconv/weights/Adam"
        string_val: "eegnet_v1/hidden/layer1/dilconv/weights/Adam_1"
        string_val: "eegnet_v1/hidden/layer1/dilconv/biases/Adam"
        string_val: "eegnet_v1/hidden/layer1/dilconv/biases/Adam_1"
        string_val: "eegnet_v1/hidden/layer1/norm_filterXgate/beta/Adam"
        string_val: "eegnet_v1/hidden/layer1/norm_filterXgate/beta/Adam_1"
        string_val: "eegnet_v1/hidden/layer1/1x1toRes/weights/Adam"
        string_val: "eegnet_v1/hidden/layer1/1x1toRes/weights/Adam_1"
        string_val: "eegnet_v1/hidden/layer1/1x1toRes/biases/Adam"
        string_val: "eegnet_v1/hidden/layer1/1x1toRes/biases/Adam_1"
        string_val: "eegnet_v1/hidden/layer2/1x1compress/weights/Adam"
        string_val: "eegnet_v1/hidden/layer2/1x1compress/weights/Adam_1"
        string_val: "eegnet_v1/hidden/layer2/1x1compress/BatchNorm/beta/Adam"
        string_val: "eegnet_v1/hidden/layer2/1x1compress/BatchNorm/beta/Adam_1"
        string_val: "eegnet_v1/hidden/layer2/dilconv/weights/Adam"
        string_val: "eegnet_v1/hidden/layer2/dilconv/weights/Adam_1"
        string_val: "eegnet_v1/hidden/layer2/dilconv/biases/Adam"
        string_val: "eegnet_v1/hidden/layer2/dilconv/biases/Adam_1"
        string_val: "eegnet_v1/hidden/layer2/norm_filterXgate/beta/Adam"
        string_val: "eegnet_v1/hidden/layer2/norm_filterXgate/beta/Adam_1"
        string_val: "eegnet_v1/hidden/layer2/1x1toRes/weights/Adam"
        string_val: "eegnet_v1/hidden/layer2/1x1toRes/weights/Adam_1"
        string_val: "eegnet_v1/hidden/layer2/1x1toRes/biases/Adam"
        string_val: "eegnet_v1/hidden/layer2/1x1toRes/biases/Adam_1"
        string_val: "eegnet_v1/hidden/layer3/1x1compress/weights/Adam"
        string_val: "eegnet_v1/hidden/layer3/1x1compress/weights/Adam_1"
        string_val: "eegnet_v1/hidden/layer3/1x1compress/BatchNorm/beta/Adam"
        string_val: "eegnet_v1/hidden/layer3/1x1compress/BatchNorm/beta/Adam_1"
        string_val: "eegnet_v1/hidden/layer3/dilconv/weights/Adam"
        string_val: "eegnet_v1/hidden/layer3/dilconv/weights/Adam_1"
        string_val: "eegnet_v1/hidden/layer3/dilconv/biases/Adam"
        string_val: "eegnet_v1/hidden/layer3/dilconv/biases/Adam_1"
        string_val: "eegnet_v1/hidden/layer3/norm_filterXgate/beta/Adam"
        string_val: "eegnet_v1/hidden/layer3/norm_filterXgate/beta/Adam_1"
        string_val: "eegnet_v1/hidden/layer3/1x1toRes/weights/Adam"
        string_val: "eegnet_v1/hidden/layer3/1x1toRes/weights/Adam_1"
        string_val: "eegnet_v1/hidden/layer3/1x1toRes/biases/Adam"
        string_val: "eegnet_v1/hidden/layer3/1x1toRes/biases/Adam_1"
        string_val: "eegnet_v1/hidden/layer4/1x1compress/weights/Adam"
        string_val: "eegnet_v1/hidden/layer4/1x1compress/weights/Adam_1"
        string_val: "eegnet_v1/hidden/layer4/1x1compress/BatchNorm/beta/Adam"
        string_val: "eegnet_v1/hidden/layer4/1x1compress/BatchNorm/beta/Adam_1"
        string_val: "eegnet_v1/hidden/layer4/dilconv/weights/Adam"
        string_val: "eegnet_v1/hidden/layer4/dilconv/weights/Adam_1"
        string_val: "eegnet_v1/hidden/layer4/dilconv/biases/Adam"
        string_val: "eegnet_v1/hidden/layer4/dilconv/biases/Adam_1"
        string_val: "eegnet_v1/hidden/layer4/norm_filterXgate/beta/Adam"
        string_val: "eegnet_v1/hidden/layer4/norm_filterXgate/beta/Adam_1"
        string_val: "eegnet_v1/hidden/layer4/1x1toRes/weights/Adam"
        string_val: "eegnet_v1/hidden/layer4/1x1toRes/weights/Adam_1"
        string_val: "eegnet_v1/hidden/layer4/1x1toRes/biases/Adam"
        string_val: "eegnet_v1/hidden/layer4/1x1toRes/biases/Adam_1"
        string_val: "eegnet_v1/hidden/layer5/1x1compress/weights/Adam"
        string_val: "eegnet_v1/hidden/layer5/1x1compress/weights/Adam_1"
        string_val: "eegnet_v1/hidden/layer5/1x1compress/BatchNorm/beta/Adam"
        string_val: "eegnet_v1/hidden/layer5/1x1compress/BatchNorm/beta/Adam_1"
        string_val: "eegnet_v1/hidden/layer5/dilconv/weights/Adam"
        string_val: "eegnet_v1/hidden/layer5/dilconv/weights/Adam_1"
        string_val: "eegnet_v1/hidden/layer5/dilconv/biases/Adam"
        string_val: "eegnet_v1/hidden/layer5/dilconv/biases/Adam_1"
        string_val: "eegnet_v1/hidden/layer5/norm_filterXgate/beta/Adam"
        string_val: "eegnet_v1/hidden/layer5/norm_filterXgate/beta/Adam_1"
        string_val: "eegnet_v1/hidden/layer5/1x1toRes/weights/Adam"
        string_val: "eegnet_v1/hidden/layer5/1x1toRes/weights/Adam_1"
        string_val: "eegnet_v1/hidden/layer5/1x1toRes/biases/Adam"
        string_val: "eegnet_v1/hidden/layer5/1x1toRes/biases/Adam_1"
        string_val: "eegnet_v1/hidden/layer6/1x1compress/weights/Adam"
        string_val: "eegnet_v1/hidden/layer6/1x1compress/weights/Adam_1"
        string_val: "eegnet_v1/hidden/layer6/1x1compress/BatchNorm/beta/Adam"
        string_val: "eegnet_v1/hidden/layer6/1x1compress/BatchNorm/beta/Adam_1"
        string_val: "eegnet_v1/hidden/layer6/dilconv/weights/Adam"
        string_val: "eegnet_v1/hidden/layer6/dilconv/weights/Adam_1"
        string_val: "eegnet_v1/hidden/layer6/dilconv/biases/Adam"
        string_val: "eegnet_v1/hidden/layer6/dilconv/biases/Adam_1"
        string_val: "eegnet_v1/hidden/layer6/norm_filterXgate/beta/Adam"
        string_val: "eegnet_v1/hidden/layer6/norm_filterXgate/beta/Adam_1"
        string_val: "eegnet_v1/hidden/layer6/1x1toRes/weights/Adam"
        string_val: "eegnet_v1/hidden/layer6/1x1toRes/weights/Adam_1"
        string_val: "eegnet_v1/hidden/layer6/1x1toRes/biases/Adam"
        string_val: "eegnet_v1/hidden/layer6/1x1toRes/biases/Adam_1"
        string_val: "eegnet_v1/logits/1x1compress/weights/Adam"
        string_val: "eegnet_v1/logits/1x1compress/weights/Adam_1"
        string_val: "eegnet_v1/logits/1x1compress/BatchNorm/beta/Adam"
        string_val: "eegnet_v1/logits/1x1compress/BatchNorm/beta/Adam_1"
        string_val: "eegnet_v1/logits/1x3reduce1/weights/Adam"
        string_val: "eegnet_v1/logits/1x3reduce1/weights/Adam_1"
        string_val: "eegnet_v1/logits/1x3reduce1/BatchNorm/beta/Adam"
        string_val: "eegnet_v1/logits/1x3reduce1/BatchNorm/beta/Adam_1"
        string_val: "eegnet_v1/logits/1x3reduce2/weights/Adam"
        string_val: "eegnet_v1/logits/1x3reduce2/weights/Adam_1"
        string_val: "eegnet_v1/logits/1x3reduce2/BatchNorm/beta/Adam"
        string_val: "eegnet_v1/logits/1x3reduce2/BatchNorm/beta/Adam_1"
        string_val: "eegnet_v1/logits/logits/weights/Adam"
        string_val: "eegnet_v1/logits/logits/weights/Adam_1"
        string_val: "eegnet_v1/logits/logits/biases/Adam"
        string_val: "eegnet_v1/logits/logits/biases/Adam_1"
      }
    }
  }
}
node {
  name: "init_ops/report_uninitialized_variables/boolean_mask/Shape"
  op: "Const"
  attr {
    key: "_output_shapes"
    value {
      list {
        shape {
          dim {
            size: 1
          }
        }
      }
    }
  }
  attr {
    key: "dtype"
    value {
      type: DT_INT32
    }
  }
  attr {
    key: "value"
    value {
      tensor {
        dtype: DT_INT32
        tensor_shape {
          dim {
            size: 1
          }
        }
        int_val: 191
      }
    }
  }
}
node {
  name: "init_ops/report_uninitialized_variables/boolean_mask/strided_slice/pack"
  op: "Const"
  attr {
    key: "_output_shapes"
    value {
      list {
        shape {
          dim {
            size: 1
          }
        }
      }
    }
  }
  attr {
    key: "dtype"
    value {
      type: DT_INT32
    }
  }
  attr {
    key: "value"
    value {
      tensor {
        dtype: DT_INT32
        tensor_shape {
          dim {
            size: 1
          }
        }
        int_val: 1
      }
    }
  }
}
node {
  name: "init_ops/report_uninitialized_variables/boolean_mask/strided_slice/pack_1"
  op: "Const"
  attr {
    key: "_output_shapes"
    value {
      list {
        shape {
          dim {
            size: 1
          }
        }
      }
    }
  }
  attr {
    key: "dtype"
    value {
      type: DT_INT32
    }
  }
  attr {
    key: "value"
    value {
      tensor {
        dtype: DT_INT32
        tensor_shape {
          dim {
            size: 1
          }
        }
        int_val: 0
      }
    }
  }
}
node {
  name: "init_ops/report_uninitialized_variables/boolean_mask/strided_slice/pack_2"
  op: "Const"
  attr {
    key: "_output_shapes"
    value {
      list {
        shape {
          dim {
            size: 1
          }
        }
      }
    }
  }
  attr {
    key: "dtype"
    value {
      type: DT_INT32
    }
  }
  attr {
    key: "value"
    value {
      tensor {
        dtype: DT_INT32
        tensor_shape {
          dim {
            size: 1
          }
        }
        int_val: 1
      }
    }
  }
}
node {
  name: "init_ops/report_uninitialized_variables/boolean_mask/strided_slice"
  op: "StridedSlice"
  input: "init_ops/report_uninitialized_variables/boolean_mask/Shape"
  input: "init_ops/report_uninitialized_variables/boolean_mask/strided_slice/pack"
  input: "init_ops/report_uninitialized_variables/boolean_mask/strided_slice/pack_1"
  input: "init_ops/report_uninitialized_variables/boolean_mask/strided_slice/pack_2"
  attr {
    key: "Index"
    value {
      type: DT_INT32
    }
  }
  attr {
    key: "T"
    value {
      type: DT_INT32
    }
  }
  attr {
    key: "_output_shapes"
    value {
      list {
        shape {
          dim {
          }
        }
      }
    }
  }
  attr {
    key: "begin_mask"
    value {
      i: 0
    }
  }
  attr {
    key: "ellipsis_mask"
    value {
      i: 0
    }
  }
  attr {
    key: "end_mask"
    value {
      i: 1
    }
  }
  attr {
    key: "new_axis_mask"
    value {
      i: 0
    }
  }
  attr {
    key: "shrink_axis_mask"
    value {
      i: 0
    }
  }
}
node {
  name: "init_ops/report_uninitialized_variables/boolean_mask/concat/concat_dim"
  op: "Const"
  attr {
    key: "_output_shapes"
    value {
      list {
        shape {
        }
      }
    }
  }
  attr {
    key: "dtype"
    value {
      type: DT_INT32
    }
  }
  attr {
    key: "value"
    value {
      tensor {
        dtype: DT_INT32
        tensor_shape {
        }
        int_val: 0
      }
    }
  }
}
node {
  name: "init_ops/report_uninitialized_variables/boolean_mask/concat/values_0"
  op: "Const"
  attr {
    key: "_output_shapes"
    value {
      list {
        shape {
          dim {
            size: 1
          }
        }
      }
    }
  }
  attr {
    key: "dtype"
    value {
      type: DT_INT32
    }
  }
  attr {
    key: "value"
    value {
      tensor {
        dtype: DT_INT32
        tensor_shape {
          dim {
            size: 1
          }
        }
        int_val: -1
      }
    }
  }
}
node {
  name: "init_ops/report_uninitialized_variables/boolean_mask/concat"
  op: "Concat"
  input: "init_ops/report_uninitialized_variables/boolean_mask/concat/concat_dim"
  input: "init_ops/report_uninitialized_variables/boolean_mask/concat/values_0"
  input: "init_ops/report_uninitialized_variables/boolean_mask/strided_slice"
  attr {
    key: "N"
    value {
      i: 2
    }
  }
  attr {
    key: "T"
    value {
      type: DT_INT32
    }
  }
  attr {
    key: "_output_shapes"
    value {
      list {
        shape {
          dim {
            size: 1
          }
        }
      }
    }
  }
}
node {
  name: "init_ops/report_uninitialized_variables/boolean_mask/Reshape"
  op: "Reshape"
  input: "init_ops/report_uninitialized_variables/Const"
  input: "init_ops/report_uninitialized_variables/boolean_mask/concat"
  attr {
    key: "T"
    value {
      type: DT_STRING
    }
  }
  attr {
    key: "Tshape"
    value {
      type: DT_INT32
    }
  }
  attr {
    key: "_output_shapes"
    value {
      list {
        shape {
          dim {
            size: 191
          }
        }
      }
    }
  }
}
node {
  name: "init_ops/report_uninitialized_variables/boolean_mask/Reshape_1/shape"
  op: "Const"
  attr {
    key: "_output_shapes"
    value {
      list {
        shape {
          dim {
            size: 1
          }
        }
      }
    }
  }
  attr {
    key: "dtype"
    value {
      type: DT_INT32
    }
  }
  attr {
    key: "value"
    value {
      tensor {
        dtype: DT_INT32
        tensor_shape {
          dim {
            size: 1
          }
        }
        int_val: -1
      }
    }
  }
}
node {
  name: "init_ops/report_uninitialized_variables/boolean_mask/Reshape_1"
  op: "Reshape"
  input: "init_ops/report_uninitialized_variables/LogicalNot"
  input: "init_ops/report_uninitialized_variables/boolean_mask/Reshape_1/shape"
  attr {
    key: "T"
    value {
      type: DT_BOOL
    }
  }
  attr {
    key: "Tshape"
    value {
      type: DT_INT32
    }
  }
  attr {
    key: "_output_shapes"
    value {
      list {
        shape {
          dim {
            size: 191
          }
        }
      }
    }
  }
}
node {
  name: "init_ops/report_uninitialized_variables/boolean_mask/Where"
  op: "Where"
  input: "init_ops/report_uninitialized_variables/boolean_mask/Reshape_1"
  attr {
    key: "_output_shapes"
    value {
      list {
        shape {
          dim {
            size: -1
          }
          dim {
            size: 1
          }
        }
      }
    }
  }
}
node {
  name: "init_ops/report_uninitialized_variables/boolean_mask/Squeeze"
  op: "Squeeze"
  input: "init_ops/report_uninitialized_variables/boolean_mask/Where"
  attr {
    key: "T"
    value {
      type: DT_INT64
    }
  }
  attr {
    key: "_output_shapes"
    value {
      list {
        shape {
          dim {
            size: -1
          }
        }
      }
    }
  }
  attr {
    key: "squeeze_dims"
    value {
      list {
        i: 1
      }
    }
  }
}
node {
  name: "init_ops/report_uninitialized_variables/boolean_mask/Gather"
  op: "Gather"
  input: "init_ops/report_uninitialized_variables/boolean_mask/Reshape"
  input: "init_ops/report_uninitialized_variables/boolean_mask/Squeeze"
  attr {
    key: "Tindices"
    value {
      type: DT_INT64
    }
  }
  attr {
    key: "Tparams"
    value {
      type: DT_STRING
    }
  }
  attr {
    key: "_output_shapes"
    value {
      list {
        shape {
          dim {
            size: -1
          }
        }
      }
    }
  }
  attr {
    key: "validate_indices"
    value {
      b: true
    }
  }
}
node {
  name: "init_ops/init_1"
  op: "NoOp"
}
node {
  name: "init_ops/init_all_tables"
  op: "NoOp"
}
node {
  name: "init_ops/group_deps"
  op: "NoOp"
  input: "^init_ops/init_1"
  input: "^init_ops/init_all_tables"
}
node {
  name: "MergeSummary/MergeSummary"
  op: "MergeSummary"
  input: "parallel_read/input_producer/ScalarSummary"
  input: "parallel_read/ScalarSummary"
  input: "shuffle_batch/ScalarSummary"
  input: "ScalarSummary"
  input: "HistogramSummary"
  input: "HistogramSummary_1"
  input: "HistogramSummary_2"
  input: "HistogramSummary_3"
  input: "HistogramSummary_4"
  input: "HistogramSummary_5"
  input: "HistogramSummary_6"
  input: "HistogramSummary_7"
  input: "HistogramSummary_8"
  input: "HistogramSummary_9"
  input: "HistogramSummary_10"
  input: "HistogramSummary_11"
  input: "HistogramSummary_12"
  input: "HistogramSummary_13"
  input: "HistogramSummary_14"
  input: "HistogramSummary_15"
  input: "HistogramSummary_16"
  input: "HistogramSummary_17"
  input: "HistogramSummary_18"
  input: "HistogramSummary_19"
  input: "HistogramSummary_20"
  input: "HistogramSummary_21"
  input: "HistogramSummary_22"
  input: "HistogramSummary_23"
  input: "HistogramSummary_24"
  input: "HistogramSummary_25"
  input: "HistogramSummary_26"
  input: "HistogramSummary_27"
  input: "HistogramSummary_28"
  input: "HistogramSummary_29"
  input: "HistogramSummary_30"
  input: "HistogramSummary_31"
  input: "HistogramSummary_32"
  input: "HistogramSummary_33"
  input: "HistogramSummary_34"
  input: "HistogramSummary_35"
  input: "HistogramSummary_36"
  input: "HistogramSummary_37"
  input: "HistogramSummary_38"
  input: "HistogramSummary_39"
  input: "HistogramSummary_40"
  input: "HistogramSummary_41"
  input: "HistogramSummary_42"
  input: "HistogramSummary_43"
  input: "HistogramSummary_44"
  input: "HistogramSummary_45"
  input: "HistogramSummary_46"
  input: "HistogramSummary_47"
  input: "HistogramSummary_48"
  input: "HistogramSummary_49"
  input: "HistogramSummary_50"
  input: "HistogramSummary_51"
  input: "HistogramSummary_52"
  input: "HistogramSummary_53"
  input: "HistogramSummary_54"
  input: "HistogramSummary_55"
  input: "HistogramSummary_56"
  input: "HistogramSummary_57"
  input: "HistogramSummary_58"
  input: "HistogramSummary_59"
  input: "HistogramSummary_60"
  input: "HistogramSummary_61"
  input: "HistogramSummary_62"
  input: "HistogramSummary_63"
  input: "HistogramSummary_64"
  input: "HistogramSummary_65"
  input: "HistogramSummary_66"
  input: "HistogramSummary_67"
  input: "HistogramSummary_68"
  input: "HistogramSummary_69"
  input: "HistogramSummary_70"
  input: "HistogramSummary_71"
  input: "HistogramSummary_72"
  input: "HistogramSummary_73"
  input: "HistogramSummary_74"
  input: "HistogramSummary_75"
  input: "HistogramSummary_76"
  input: "HistogramSummary_77"
  input: "HistogramSummary_78"
  input: "HistogramSummary_79"
  input: "HistogramSummary_80"
  input: "HistogramSummary_81"
  input: "HistogramSummary_82"
  input: "HistogramSummary_83"
  input: "ScalarSummary_1"
  input: "ScalarSummary_2"
  attr {
    key: "N"
    value {
      i: 90
    }
  }
  attr {
    key: "_output_shapes"
    value {
      list {
        shape {
        }
      }
    }
  }
}
node {
  name: "train_step/GreaterEqual/y"
  op: "Const"
  attr {
    key: "_output_shapes"
    value {
      list {
        shape {
        }
      }
    }
  }
  attr {
    key: "dtype"
    value {
      type: DT_INT64
    }
  }
  attr {
    key: "value"
    value {
      tensor {
        dtype: DT_INT64
        tensor_shape {
        }
        int64_val: 5000
      }
    }
  }
}
node {
  name: "train_step/GreaterEqual"
  op: "GreaterEqual"
  input: "global_step/read"
  input: "train_step/GreaterEqual/y"
  attr {
    key: "T"
    value {
      type: DT_INT64
    }
  }
  attr {
    key: "_output_shapes"
    value {
      list {
        shape {
        }
      }
    }
  }
}
node {
  name: "train_step/Mod/y"
  op: "Const"
  attr {
    key: "_output_shapes"
    value {
      list {
        shape {
        }
      }
    }
  }
  attr {
    key: "dtype"
    value {
      type: DT_INT64
    }
  }
  attr {
    key: "value"
    value {
      tensor {
        dtype: DT_INT64
        tensor_shape {
        }
        int64_val: 10
      }
    }
  }
}
node {
  name: "train_step/Mod"
  op: "Mod"
  input: "global_step/read"
  input: "train_step/Mod/y"
  attr {
    key: "T"
    value {
      type: DT_INT64
    }
  }
  attr {
    key: "_output_shapes"
    value {
      list {
        shape {
        }
      }
    }
  }
}
node {
  name: "train_step/Equal/y"
  op: "Const"
  attr {
    key: "_output_shapes"
    value {
      list {
        shape {
        }
      }
    }
  }
  attr {
    key: "dtype"
    value {
      type: DT_INT64
    }
  }
  attr {
    key: "value"
    value {
      tensor {
        dtype: DT_INT64
        tensor_shape {
        }
        int64_val: 0
      }
    }
  }
}
node {
  name: "train_step/Equal"
  op: "Equal"
  input: "train_step/Mod"
  input: "train_step/Equal/y"
  attr {
    key: "T"
    value {
      type: DT_INT64
    }
  }
  attr {
    key: "_output_shapes"
    value {
      list {
        shape {
        }
      }
    }
  }
}
versions {
  producer: 15
}
