node {
  name: "parallel_read/input_producer/Const"
  op: "Const"
  attr {
    key: "_output_shapes"
    value {
      list {
        shape {
          dim {
            size: 307
          }
        }
      }
    }
  }
  attr {
    key: "dtype"
    value {
      type: DT_STRING
    }
  }
  attr {
    key: "value"
    value {
      tensor {
        dtype: DT_STRING
        tensor_shape {
          dim {
            size: 307
          }
        }
        string_val: "../dataset/train/3_1743_0.tfr"
        string_val: "../dataset/train/3_20_1.tfr"
        string_val: "../dataset/train/3_123_1.tfr"
        string_val: "../dataset/train/3_199_0.tfr"
        string_val: "../dataset/train/3_98_1.tfr"
        string_val: "../dataset/train/3_1741_0.tfr"
        string_val: "../dataset/train/3_105_1.tfr"
        string_val: "../dataset/train/3_121_1.tfr"
        string_val: "../dataset/train/3_96_1.tfr"
        string_val: "../dataset/train/3_1229_0.tfr"
        string_val: "../dataset/train/3_4_0.tfr"
        string_val: "../dataset/train/3_1410_0.tfr"
        string_val: "../dataset/train/3_251_0.tfr"
        string_val: "../dataset/train/3_966_0.tfr"
        string_val: "../dataset/train/3_108_1.tfr"
        string_val: "../dataset/train/3_751_0.tfr"
        string_val: "../dataset/train/3_662_0.tfr"
        string_val: "../dataset/train/3_55_1.tfr"
        string_val: "../dataset/train/3_87_1.tfr"
        string_val: "../dataset/train/3_1312_0.tfr"
        string_val: "../dataset/train/3_44_0.tfr"
        string_val: "../dataset/train/3_1645_0.tfr"
        string_val: "../dataset/train/3_534_0.tfr"
        string_val: "../dataset/train/3_699_0.tfr"
        string_val: "../dataset/train/3_82_1.tfr"
        string_val: "../dataset/train/3_78_1.tfr"
        string_val: "../dataset/train/3_656_0.tfr"
        string_val: "../dataset/train/3_1712_0.tfr"
        string_val: "../dataset/train/3_102_1.tfr"
        string_val: "../dataset/train/3_80_1.tfr"
        string_val: "../dataset/train/3_149_1.tfr"
        string_val: "../dataset/train/3_152_0.tfr"
        string_val: "../dataset/train/3_659_0.tfr"
        string_val: "../dataset/train/3_132_1.tfr"
        string_val: "../dataset/train/3_1249_0.tfr"
        string_val: "../dataset/train/3_1932_0.tfr"
        string_val: "../dataset/train/3_579_0.tfr"
        string_val: "../dataset/train/3_22_1.tfr"
        string_val: "../dataset/train/3_90_1.tfr"
        string_val: "../dataset/train/3_2129_0.tfr"
        string_val: "../dataset/train/3_143_1.tfr"
        string_val: "../dataset/train/3_2158_0.tfr"
        string_val: "../dataset/train/3_834_0.tfr"
        string_val: "../dataset/train/3_46_1.tfr"
        string_val: "../dataset/train/3_2228_0.tfr"
        string_val: "../dataset/train/3_1164_0.tfr"
        string_val: "../dataset/train/3_1186_0.tfr"
        string_val: "../dataset/train/3_56_1.tfr"
        string_val: "../dataset/train/3_100_1.tfr"
        string_val: "../dataset/train/3_94_1.tfr"
        string_val: "../dataset/train/3_120_0.tfr"
        string_val: "../dataset/train/3_89_1.tfr"
        string_val: "../dataset/train/3_1109_0.tfr"
        string_val: "../dataset/train/3_84_1.tfr"
        string_val: "../dataset/train/3_4_1.tfr"
        string_val: "../dataset/train/3_184_0.tfr"
        string_val: "../dataset/train/3_1184_0.tfr"
        string_val: "../dataset/train/3_17_1.tfr"
        string_val: "../dataset/train/3_32_0.tfr"
        string_val: "../dataset/train/3_92_1.tfr"
        string_val: "../dataset/train/3_827_0.tfr"
        string_val: "../dataset/train/3_1931_0.tfr"
        string_val: "../dataset/train/3_2231_0.tfr"
        string_val: "../dataset/train/3_1797_0.tfr"
        string_val: "../dataset/train/3_1694_0.tfr"
        string_val: "../dataset/train/3_33_1.tfr"
        string_val: "../dataset/train/3_72_1.tfr"
        string_val: "../dataset/train/3_1946_0.tfr"
        string_val: "../dataset/train/3_2208_0.tfr"
        string_val: "../dataset/train/3_1579_0.tfr"
        string_val: "../dataset/train/3_113_1.tfr"
        string_val: "../dataset/train/3_958_0.tfr"
        string_val: "../dataset/train/3_68_1.tfr"
        string_val: "../dataset/train/3_10_1.tfr"
        string_val: "../dataset/train/3_418_0.tfr"
        string_val: "../dataset/train/3_125_1.tfr"
        string_val: "../dataset/train/3_116_1.tfr"
        string_val: "../dataset/train/3_97_1.tfr"
        string_val: "../dataset/train/3_37_1.tfr"
        string_val: "../dataset/train/3_539_0.tfr"
        string_val: "../dataset/train/3_7_1.tfr"
        string_val: "../dataset/train/3_47_1.tfr"
        string_val: "../dataset/train/3_1980_0.tfr"
        string_val: "../dataset/train/3_118_1.tfr"
        string_val: "../dataset/train/3_40_1.tfr"
        string_val: "../dataset/train/3_946_0.tfr"
        string_val: "../dataset/train/3_8_1.tfr"
        string_val: "../dataset/train/3_30_1.tfr"
        string_val: "../dataset/train/3_147_1.tfr"
        string_val: "../dataset/train/3_179_0.tfr"
        string_val: "../dataset/train/3_150_1.tfr"
        string_val: "../dataset/train/3_1711_0.tfr"
        string_val: "../dataset/train/3_146_1.tfr"
        string_val: "../dataset/train/3_850_0.tfr"
        string_val: "../dataset/train/3_1385_0.tfr"
        string_val: "../dataset/train/3_57_1.tfr"
        string_val: "../dataset/train/3_1022_0.tfr"
        string_val: "../dataset/train/3_77_1.tfr"
        string_val: "../dataset/train/3_15_1.tfr"
        string_val: "../dataset/train/3_83_1.tfr"
        string_val: "../dataset/train/3_110_1.tfr"
        string_val: "../dataset/train/3_1728_0.tfr"
        string_val: "../dataset/train/3_42_1.tfr"
        string_val: "../dataset/train/3_488_0.tfr"
        string_val: "../dataset/train/3_61_1.tfr"
        string_val: "../dataset/train/3_2104_0.tfr"
        string_val: "../dataset/train/3_122_1.tfr"
        string_val: "../dataset/train/3_581_0.tfr"
        string_val: "../dataset/train/3_38_1.tfr"
        string_val: "../dataset/train/3_131_1.tfr"
        string_val: "../dataset/train/3_49_1.tfr"
        string_val: "../dataset/train/3_142_1.tfr"
        string_val: "../dataset/train/3_2_1.tfr"
        string_val: "../dataset/train/3_133_1.tfr"
        string_val: "../dataset/train/3_59_1.tfr"
        string_val: "../dataset/train/3_640_0.tfr"
        string_val: "../dataset/train/3_18_1.tfr"
        string_val: "../dataset/train/3_39_1.tfr"
        string_val: "../dataset/train/3_21_1.tfr"
        string_val: "../dataset/train/3_54_1.tfr"
        string_val: "../dataset/train/3_395_0.tfr"
        string_val: "../dataset/train/3_472_0.tfr"
        string_val: "../dataset/train/3_119_1.tfr"
        string_val: "../dataset/train/3_1023_0.tfr"
        string_val: "../dataset/train/3_69_1.tfr"
        string_val: "../dataset/train/3_60_1.tfr"
        string_val: "../dataset/train/3_1548_0.tfr"
        string_val: "../dataset/train/3_63_1.tfr"
        string_val: "../dataset/train/3_730_0.tfr"
        string_val: "../dataset/train/3_134_1.tfr"
        string_val: "../dataset/train/3_130_1.tfr"
        string_val: "../dataset/train/3_62_1.tfr"
        string_val: "../dataset/train/3_1747_0.tfr"
        string_val: "../dataset/train/3_23_1.tfr"
        string_val: "../dataset/train/3_53_1.tfr"
        string_val: "../dataset/train/3_1673_0.tfr"
        string_val: "../dataset/train/3_44_1.tfr"
        string_val: "../dataset/train/3_1448_0.tfr"
        string_val: "../dataset/train/3_34_1.tfr"
        string_val: "../dataset/train/3_126_1.tfr"
        string_val: "../dataset/train/3_1911_0.tfr"
        string_val: "../dataset/train/3_782_0.tfr"
        string_val: "../dataset/train/3_947_0.tfr"
        string_val: "../dataset/train/3_79_0.tfr"
        string_val: "../dataset/train/3_1604_0.tfr"
        string_val: "../dataset/train/3_79_1.tfr"
        string_val: "../dataset/train/3_169_0.tfr"
        string_val: "../dataset/train/3_282_0.tfr"
        string_val: "../dataset/train/3_104_1.tfr"
        string_val: "../dataset/train/3_106_1.tfr"
        string_val: "../dataset/train/3_645_0.tfr"
        string_val: "../dataset/train/3_2004_0.tfr"
        string_val: "../dataset/train/3_748_0.tfr"
        string_val: "../dataset/train/3_1300_0.tfr"
        string_val: "../dataset/train/3_883_0.tfr"
        string_val: "../dataset/train/3_28_1.tfr"
        string_val: "../dataset/train/3_3_1.tfr"
        string_val: "../dataset/train/3_420_0.tfr"
        string_val: "../dataset/train/3_2003_0.tfr"
        string_val: "../dataset/train/3_135_1.tfr"
        string_val: "../dataset/train/3_75_1.tfr"
        string_val: "../dataset/train/3_2133_0.tfr"
        string_val: "../dataset/train/3_101_1.tfr"
        string_val: "../dataset/train/3_127_1.tfr"
        string_val: "../dataset/train/3_1010_0.tfr"
        string_val: "../dataset/train/3_99_1.tfr"
        string_val: "../dataset/train/3_1_1.tfr"
        string_val: "../dataset/train/3_956_0.tfr"
        string_val: "../dataset/train/3_76_1.tfr"
        string_val: "../dataset/train/3_170_0.tfr"
        string_val: "../dataset/train/3_196_0.tfr"
        string_val: "../dataset/train/3_14_1.tfr"
        string_val: "../dataset/train/3_19_1.tfr"
        string_val: "../dataset/train/3_29_1.tfr"
        string_val: "../dataset/train/3_66_1.tfr"
        string_val: "../dataset/train/3_471_0.tfr"
        string_val: "../dataset/train/3_57_0.tfr"
        string_val: "../dataset/train/3_1937_0.tfr"
        string_val: "../dataset/train/3_91_1.tfr"
        string_val: "../dataset/train/3_1869_0.tfr"
        string_val: "../dataset/train/3_969_0.tfr"
        string_val: "../dataset/train/3_354_0.tfr"
        string_val: "../dataset/train/3_65_1.tfr"
        string_val: "../dataset/train/3_465_0.tfr"
        string_val: "../dataset/train/3_1640_0.tfr"
        string_val: "../dataset/train/3_97_0.tfr"
        string_val: "../dataset/train/3_777_0.tfr"
        string_val: "../dataset/train/3_24_1.tfr"
        string_val: "../dataset/train/3_64_1.tfr"
        string_val: "../dataset/train/3_670_0.tfr"
        string_val: "../dataset/train/3_74_1.tfr"
        string_val: "../dataset/train/3_935_0.tfr"
        string_val: "../dataset/train/3_1453_0.tfr"
        string_val: "../dataset/train/3_2215_0.tfr"
        string_val: "../dataset/train/3_402_0.tfr"
        string_val: "../dataset/train/3_45_1.tfr"
        string_val: "../dataset/train/3_841_0.tfr"
        string_val: "../dataset/train/3_93_1.tfr"
        string_val: "../dataset/train/3_1313_0.tfr"
        string_val: "../dataset/train/3_1153_0.tfr"
        string_val: "../dataset/train/3_2121_0.tfr"
        string_val: "../dataset/train/3_1287_0.tfr"
        string_val: "../dataset/train/3_405_0.tfr"
        string_val: "../dataset/train/3_1323_0.tfr"
        string_val: "../dataset/train/3_275_0.tfr"
        string_val: "../dataset/train/3_58_1.tfr"
        string_val: "../dataset/train/3_2227_0.tfr"
        string_val: "../dataset/train/3_138_1.tfr"
        string_val: "../dataset/train/3_88_1.tfr"
        string_val: "../dataset/train/3_115_1.tfr"
        string_val: "../dataset/train/3_136_1.tfr"
        string_val: "../dataset/train/3_236_0.tfr"
        string_val: "../dataset/train/3_1089_0.tfr"
        string_val: "../dataset/train/3_1435_0.tfr"
        string_val: "../dataset/train/3_51_1.tfr"
        string_val: "../dataset/train/3_600_0.tfr"
        string_val: "../dataset/train/3_1329_0.tfr"
        string_val: "../dataset/train/3_879_0.tfr"
        string_val: "../dataset/train/3_1852_0.tfr"
        string_val: "../dataset/train/3_16_1.tfr"
        string_val: "../dataset/train/3_1150_0.tfr"
        string_val: "../dataset/train/3_360_0.tfr"
        string_val: "../dataset/train/3_52_1.tfr"
        string_val: "../dataset/train/3_1890_0.tfr"
        string_val: "../dataset/train/3_114_1.tfr"
        string_val: "../dataset/train/3_149_0.tfr"
        string_val: "../dataset/train/3_144_1.tfr"
        string_val: "../dataset/train/3_9_1.tfr"
        string_val: "../dataset/train/3_27_1.tfr"
        string_val: "../dataset/train/3_163_0.tfr"
        string_val: "../dataset/train/3_1877_0.tfr"
        string_val: "../dataset/train/3_137_1.tfr"
        string_val: "../dataset/train/3_103_1.tfr"
        string_val: "../dataset/train/3_36_1.tfr"
        string_val: "../dataset/train/3_86_1.tfr"
        string_val: "../dataset/train/3_1706_0.tfr"
        string_val: "../dataset/train/3_333_0.tfr"
        string_val: "../dataset/train/3_602_0.tfr"
        string_val: "../dataset/train/3_111_1.tfr"
        string_val: "../dataset/train/3_689_0.tfr"
        string_val: "../dataset/train/3_110_0.tfr"
        string_val: "../dataset/train/3_1858_0.tfr"
        string_val: "../dataset/train/3_1806_0.tfr"
        string_val: "../dataset/train/3_13_1.tfr"
        string_val: "../dataset/train/3_1769_0.tfr"
        string_val: "../dataset/train/3_1376_0.tfr"
        string_val: "../dataset/train/3_617_0.tfr"
        string_val: "../dataset/train/3_454_0.tfr"
        string_val: "../dataset/train/3_2031_0.tfr"
        string_val: "../dataset/train/3_112_1.tfr"
        string_val: "../dataset/train/3_120_1.tfr"
        string_val: "../dataset/train/3_48_1.tfr"
        string_val: "../dataset/train/3_192_0.tfr"
        string_val: "../dataset/train/3_41_0.tfr"
        string_val: "../dataset/train/3_1137_0.tfr"
        string_val: "../dataset/train/3_70_1.tfr"
        string_val: "../dataset/train/3_148_1.tfr"
        string_val: "../dataset/train/3_455_0.tfr"
        string_val: "../dataset/train/3_113_0.tfr"
        string_val: "../dataset/train/3_5_1.tfr"
        string_val: "../dataset/train/3_1759_0.tfr"
        string_val: "../dataset/train/3_109_1.tfr"
        string_val: "../dataset/train/3_32_1.tfr"
        string_val: "../dataset/train/3_117_1.tfr"
        string_val: "../dataset/train/3_1078_0.tfr"
        string_val: "../dataset/train/3_823_0.tfr"
        string_val: "../dataset/train/3_1811_0.tfr"
        string_val: "../dataset/train/3_889_0.tfr"
        string_val: "../dataset/train/3_31_1.tfr"
        string_val: "../dataset/train/3_43_1.tfr"
        string_val: "../dataset/train/3_1745_0.tfr"
        string_val: "../dataset/train/3_35_1.tfr"
        string_val: "../dataset/train/3_71_1.tfr"
        string_val: "../dataset/train/3_145_1.tfr"
        string_val: "../dataset/train/3_85_1.tfr"
        string_val: "../dataset/train/3_67_1.tfr"
        string_val: "../dataset/train/3_107_1.tfr"
        string_val: "../dataset/train/3_95_1.tfr"
        string_val: "../dataset/train/3_41_1.tfr"
        string_val: "../dataset/train/3_1180_0.tfr"
        string_val: "../dataset/train/3_2083_0.tfr"
        string_val: "../dataset/train/3_1966_0.tfr"
        string_val: "../dataset/train/3_1134_0.tfr"
        string_val: "../dataset/train/3_128_1.tfr"
        string_val: "../dataset/train/3_1881_0.tfr"
        string_val: "../dataset/train/3_11_1.tfr"
        string_val: "../dataset/train/3_1337_0.tfr"
        string_val: "../dataset/train/3_6_1.tfr"
        string_val: "../dataset/train/3_124_1.tfr"
        string_val: "../dataset/train/3_2028_0.tfr"
        string_val: "../dataset/train/3_81_1.tfr"
        string_val: "../dataset/train/3_902_0.tfr"
        string_val: "../dataset/train/3_139_1.tfr"
        string_val: "../dataset/train/3_1230_0.tfr"
        string_val: "../dataset/train/3_980_0.tfr"
        string_val: "../dataset/train/3_1467_0.tfr"
        string_val: "../dataset/train/3_73_1.tfr"
        string_val: "../dataset/train/3_1162_0.tfr"
        string_val: "../dataset/train/3_25_1.tfr"
        string_val: "../dataset/train/3_1885_0.tfr"
        string_val: "../dataset/train/3_1951_0.tfr"
        string_val: "../dataset/train/3_50_1.tfr"
        string_val: "../dataset/train/3_129_1.tfr"
        string_val: "../dataset/train/3_1872_0.tfr"
        string_val: "../dataset/train/3_12_1.tfr"
        string_val: "../dataset/train/3_26_1.tfr"
        string_val: "../dataset/train/3_355_0.tfr"
      }
    }
  }
}
node {
  name: "parallel_read/input_producer/Size"
  op: "Const"
  attr {
    key: "_output_shapes"
    value {
      list {
        shape {
        }
      }
    }
  }
  attr {
    key: "dtype"
    value {
      type: DT_INT32
    }
  }
  attr {
    key: "value"
    value {
      tensor {
        dtype: DT_INT32
        tensor_shape {
        }
        int_val: 307
      }
    }
  }
}
node {
  name: "parallel_read/input_producer/Greater/y"
  op: "Const"
  attr {
    key: "_output_shapes"
    value {
      list {
        shape {
        }
      }
    }
  }
  attr {
    key: "dtype"
    value {
      type: DT_INT32
    }
  }
  attr {
    key: "value"
    value {
      tensor {
        dtype: DT_INT32
        tensor_shape {
        }
        int_val: 0
      }
    }
  }
}
node {
  name: "parallel_read/input_producer/Greater"
  op: "Greater"
  input: "parallel_read/input_producer/Size"
  input: "parallel_read/input_producer/Greater/y"
  attr {
    key: "T"
    value {
      type: DT_INT32
    }
  }
  attr {
    key: "_output_shapes"
    value {
      list {
        shape {
        }
      }
    }
  }
}
node {
  name: "parallel_read/input_producer/Assert/AssertGuard/Switch"
  op: "Switch"
  input: "parallel_read/input_producer/Greater"
  input: "parallel_read/input_producer/Greater"
  attr {
    key: "T"
    value {
      type: DT_BOOL
    }
  }
  attr {
    key: "_output_shapes"
    value {
      list {
        shape {
        }
        shape {
        }
      }
    }
  }
}
node {
  name: "parallel_read/input_producer/Assert/AssertGuard/switch_t"
  op: "Identity"
  input: "parallel_read/input_producer/Assert/AssertGuard/Switch:1"
  attr {
    key: "T"
    value {
      type: DT_BOOL
    }
  }
  attr {
    key: "_output_shapes"
    value {
      list {
        shape {
        }
      }
    }
  }
}
node {
  name: "parallel_read/input_producer/Assert/AssertGuard/switch_f"
  op: "Identity"
  input: "parallel_read/input_producer/Assert/AssertGuard/Switch"
  attr {
    key: "T"
    value {
      type: DT_BOOL
    }
  }
  attr {
    key: "_output_shapes"
    value {
      list {
        shape {
        }
      }
    }
  }
}
node {
  name: "parallel_read/input_producer/Assert/AssertGuard/pred_id"
  op: "Identity"
  input: "parallel_read/input_producer/Greater"
  attr {
    key: "T"
    value {
      type: DT_BOOL
    }
  }
  attr {
    key: "_output_shapes"
    value {
      list {
        shape {
        }
      }
    }
  }
}
node {
  name: "parallel_read/input_producer/Assert/AssertGuard/NoOp"
  op: "NoOp"
  input: "^parallel_read/input_producer/Assert/AssertGuard/switch_t"
}
node {
  name: "parallel_read/input_producer/Assert/AssertGuard/control_dependency"
  op: "Identity"
  input: "parallel_read/input_producer/Assert/AssertGuard/switch_t"
  input: "^parallel_read/input_producer/Assert/AssertGuard/NoOp"
  attr {
    key: "T"
    value {
      type: DT_BOOL
    }
  }
  attr {
    key: "_class"
    value {
      list {
        s: "loc:@parallel_read/input_producer/Assert/AssertGuard/switch_t"
      }
    }
  }
  attr {
    key: "_output_shapes"
    value {
      list {
        shape {
        }
      }
    }
  }
}
node {
  name: "parallel_read/input_producer/Assert/AssertGuard/Assert/data_0"
  op: "Const"
  input: "^parallel_read/input_producer/Assert/AssertGuard/switch_f"
  attr {
    key: "_output_shapes"
    value {
      list {
        shape {
        }
      }
    }
  }
  attr {
    key: "dtype"
    value {
      type: DT_STRING
    }
  }
  attr {
    key: "value"
    value {
      tensor {
        dtype: DT_STRING
        tensor_shape {
        }
        string_val: "string_input_producer requires a non-null input tensor"
      }
    }
  }
}
node {
  name: "parallel_read/input_producer/Assert/AssertGuard/Assert/Switch"
  op: "Switch"
  input: "parallel_read/input_producer/Greater"
  input: "parallel_read/input_producer/Assert/AssertGuard/pred_id"
  attr {
    key: "T"
    value {
      type: DT_BOOL
    }
  }
  attr {
    key: "_class"
    value {
      list {
        s: "loc:@parallel_read/input_producer/Greater"
      }
    }
  }
  attr {
    key: "_output_shapes"
    value {
      list {
        shape {
        }
        shape {
        }
      }
    }
  }
}
node {
  name: "parallel_read/input_producer/Assert/AssertGuard/Assert"
  op: "Assert"
  input: "parallel_read/input_producer/Assert/AssertGuard/Assert/Switch"
  input: "parallel_read/input_producer/Assert/AssertGuard/Assert/data_0"
  attr {
    key: "T"
    value {
      list {
        type: DT_STRING
      }
    }
  }
  attr {
    key: "summarize"
    value {
      i: 3
    }
  }
}
node {
  name: "parallel_read/input_producer/Assert/AssertGuard/control_dependency_1"
  op: "Identity"
  input: "parallel_read/input_producer/Assert/AssertGuard/switch_f"
  input: "^parallel_read/input_producer/Assert/AssertGuard/Assert"
  attr {
    key: "T"
    value {
      type: DT_BOOL
    }
  }
  attr {
    key: "_class"
    value {
      list {
        s: "loc:@parallel_read/input_producer/Assert/AssertGuard/switch_f"
      }
    }
  }
  attr {
    key: "_output_shapes"
    value {
      list {
        shape {
        }
      }
    }
  }
}
node {
  name: "parallel_read/input_producer/Assert/AssertGuard/Merge"
  op: "Merge"
  input: "parallel_read/input_producer/Assert/AssertGuard/control_dependency_1"
  input: "parallel_read/input_producer/Assert/AssertGuard/control_dependency"
  attr {
    key: "N"
    value {
      i: 2
    }
  }
  attr {
    key: "T"
    value {
      type: DT_BOOL
    }
  }
  attr {
    key: "_output_shapes"
    value {
      list {
        shape {
        }
        shape {
        }
      }
    }
  }
}
node {
  name: "parallel_read/input_producer/Identity"
  op: "Identity"
  input: "parallel_read/input_producer/Const"
  input: "^parallel_read/input_producer/Assert/AssertGuard/Merge"
  attr {
    key: "T"
    value {
      type: DT_STRING
    }
  }
  attr {
    key: "_output_shapes"
    value {
      list {
        shape {
          dim {
            size: 307
          }
        }
      }
    }
  }
}
node {
  name: "parallel_read/input_producer/RandomShuffle"
  op: "RandomShuffle"
  input: "parallel_read/input_producer/Identity"
  attr {
    key: "T"
    value {
      type: DT_STRING
    }
  }
  attr {
    key: "_output_shapes"
    value {
      list {
        shape {
          dim {
            size: 307
          }
        }
      }
    }
  }
  attr {
    key: "seed"
    value {
      i: 0
    }
  }
  attr {
    key: "seed2"
    value {
      i: 0
    }
  }
}
node {
  name: "parallel_read/input_producer"
  op: "FIFOQueue"
  attr {
    key: "_output_shapes"
    value {
      list {
        shape {
          dim {
            size: 2
          }
        }
      }
    }
  }
  attr {
    key: "capacity"
    value {
      i: 32
    }
  }
  attr {
    key: "component_types"
    value {
      list {
        type: DT_STRING
      }
    }
  }
  attr {
    key: "container"
    value {
      s: ""
    }
  }
  attr {
    key: "shapes"
    value {
      list {
        shape {
        }
      }
    }
  }
  attr {
    key: "shared_name"
    value {
      s: ""
    }
  }
}
node {
  name: "parallel_read/input_producer/input_producer_EnqueueMany"
  op: "QueueEnqueueMany"
  input: "parallel_read/input_producer"
  input: "parallel_read/input_producer/RandomShuffle"
  attr {
    key: "Tcomponents"
    value {
      list {
        type: DT_STRING
      }
    }
  }
  attr {
    key: "_class"
    value {
      list {
        s: "loc:@parallel_read/input_producer"
      }
    }
  }
  attr {
    key: "timeout_ms"
    value {
      i: -1
    }
  }
}
node {
  name: "parallel_read/input_producer/input_producer_Close"
  op: "QueueClose"
  input: "parallel_read/input_producer"
  attr {
    key: "_class"
    value {
      list {
        s: "loc:@parallel_read/input_producer"
      }
    }
  }
  attr {
    key: "cancel_pending_enqueues"
    value {
      b: false
    }
  }
}
node {
  name: "parallel_read/input_producer/input_producer_Close_1"
  op: "QueueClose"
  input: "parallel_read/input_producer"
  attr {
    key: "_class"
    value {
      list {
        s: "loc:@parallel_read/input_producer"
      }
    }
  }
  attr {
    key: "cancel_pending_enqueues"
    value {
      b: true
    }
  }
}
node {
  name: "parallel_read/input_producer/input_producer_Size"
  op: "QueueSize"
  input: "parallel_read/input_producer"
  attr {
    key: "_class"
    value {
      list {
        s: "loc:@parallel_read/input_producer"
      }
    }
  }
  attr {
    key: "_output_shapes"
    value {
      list {
        shape {
        }
      }
    }
  }
}
node {
  name: "parallel_read/input_producer/Cast"
  op: "Cast"
  input: "parallel_read/input_producer/input_producer_Size"
  attr {
    key: "DstT"
    value {
      type: DT_FLOAT
    }
  }
  attr {
    key: "SrcT"
    value {
      type: DT_INT32
    }
  }
  attr {
    key: "_output_shapes"
    value {
      list {
        shape {
        }
      }
    }
  }
}
node {
  name: "parallel_read/input_producer/mul/y"
  op: "Const"
  attr {
    key: "_output_shapes"
    value {
      list {
        shape {
        }
      }
    }
  }
  attr {
    key: "dtype"
    value {
      type: DT_FLOAT
    }
  }
  attr {
    key: "value"
    value {
      tensor {
        dtype: DT_FLOAT
        tensor_shape {
        }
        float_val: 0.03125
      }
    }
  }
}
node {
  name: "parallel_read/input_producer/mul"
  op: "Mul"
  input: "parallel_read/input_producer/Cast"
  input: "parallel_read/input_producer/mul/y"
  attr {
    key: "T"
    value {
      type: DT_FLOAT
    }
  }
  attr {
    key: "_output_shapes"
    value {
      list {
        shape {
        }
      }
    }
  }
}
node {
  name: "parallel_read/input_producer/ScalarSummary/tags"
  op: "Const"
  attr {
    key: "_output_shapes"
    value {
      list {
        shape {
        }
      }
    }
  }
  attr {
    key: "dtype"
    value {
      type: DT_STRING
    }
  }
  attr {
    key: "value"
    value {
      tensor {
        dtype: DT_STRING
        tensor_shape {
        }
        string_val: "queue/parallel_read/input_producer/fraction_of_32_full"
      }
    }
  }
}
node {
  name: "parallel_read/input_producer/ScalarSummary"
  op: "ScalarSummary"
  input: "parallel_read/input_producer/ScalarSummary/tags"
  input: "parallel_read/input_producer/mul"
  attr {
    key: "T"
    value {
      type: DT_FLOAT
    }
  }
  attr {
    key: "_output_shapes"
    value {
      list {
        shape {
        }
      }
    }
  }
}
node {
  name: "parallel_read/random_shuffle_queue"
  op: "RandomShuffleQueue"
  attr {
    key: "_output_shapes"
    value {
      list {
        shape {
          dim {
            size: 2
          }
        }
      }
    }
  }
  attr {
    key: "capacity"
    value {
      i: 40
    }
  }
  attr {
    key: "component_types"
    value {
      list {
        type: DT_STRING
        type: DT_STRING
      }
    }
  }
  attr {
    key: "container"
    value {
      s: ""
    }
  }
  attr {
    key: "min_after_dequeue"
    value {
      i: 20
    }
  }
  attr {
    key: "seed"
    value {
      i: 0
    }
  }
  attr {
    key: "seed2"
    value {
      i: 0
    }
  }
  attr {
    key: "shapes"
    value {
      list {
      }
    }
  }
  attr {
    key: "shared_name"
    value {
      s: ""
    }
  }
}
node {
  name: "parallel_read/random_shuffle_queue_Size"
  op: "QueueSize"
  input: "parallel_read/random_shuffle_queue"
  attr {
    key: "_class"
    value {
      list {
        s: "loc:@parallel_read/random_shuffle_queue"
      }
    }
  }
  attr {
    key: "_output_shapes"
    value {
      list {
        shape {
        }
      }
    }
  }
}
node {
  name: "parallel_read/ToFloat"
  op: "Cast"
  input: "parallel_read/random_shuffle_queue_Size"
  attr {
    key: "DstT"
    value {
      type: DT_FLOAT
    }
  }
  attr {
    key: "SrcT"
    value {
      type: DT_INT32
    }
  }
  attr {
    key: "_output_shapes"
    value {
      list {
        shape {
        }
      }
    }
  }
}
node {
  name: "parallel_read/mul/y"
  op: "Const"
  attr {
    key: "_output_shapes"
    value {
      list {
        shape {
        }
      }
    }
  }
  attr {
    key: "dtype"
    value {
      type: DT_FLOAT
    }
  }
  attr {
    key: "value"
    value {
      tensor {
        dtype: DT_FLOAT
        tensor_shape {
        }
        float_val: 0.0250000003725
      }
    }
  }
}
node {
  name: "parallel_read/mul"
  op: "Mul"
  input: "parallel_read/ToFloat"
  input: "parallel_read/mul/y"
  attr {
    key: "T"
    value {
      type: DT_FLOAT
    }
  }
  attr {
    key: "_output_shapes"
    value {
      list {
        shape {
        }
      }
    }
  }
}
node {
  name: "parallel_read/ScalarSummary/tags"
  op: "Const"
  attr {
    key: "_output_shapes"
    value {
      list {
        shape {
        }
      }
    }
  }
  attr {
    key: "dtype"
    value {
      type: DT_STRING
    }
  }
  attr {
    key: "value"
    value {
      tensor {
        dtype: DT_STRING
        tensor_shape {
        }
        string_val: "queue/parallel_read/random_shuffle_queue/fraction_of_40_full"
      }
    }
  }
}
node {
  name: "parallel_read/ScalarSummary"
  op: "ScalarSummary"
  input: "parallel_read/ScalarSummary/tags"
  input: "parallel_read/mul"
  attr {
    key: "T"
    value {
      type: DT_FLOAT
    }
  }
  attr {
    key: "_output_shapes"
    value {
      list {
        shape {
        }
      }
    }
  }
}
node {
  name: "parallel_read/TFRecordReader"
  op: "TFRecordReader"
  attr {
    key: "_output_shapes"
    value {
      list {
        shape {
          dim {
            size: 2
          }
        }
      }
    }
  }
  attr {
    key: "compression_type"
    value {
      s: ""
    }
  }
  attr {
    key: "container"
    value {
      s: ""
    }
  }
  attr {
    key: "shared_name"
    value {
      s: ""
    }
  }
}
node {
  name: "parallel_read/ReaderRead"
  op: "ReaderRead"
  input: "parallel_read/TFRecordReader"
  input: "parallel_read/input_producer"
  attr {
    key: "_class"
    value {
      list {
        s: "loc:@parallel_read/TFRecordReader"
        s: "loc:@parallel_read/input_producer"
      }
    }
  }
  attr {
    key: "_output_shapes"
    value {
      list {
        shape {
        }
        shape {
        }
      }
    }
  }
}
node {
  name: "parallel_read/random_shuffle_queue_enqueue"
  op: "QueueEnqueue"
  input: "parallel_read/random_shuffle_queue"
  input: "parallel_read/ReaderRead"
  input: "parallel_read/ReaderRead:1"
  attr {
    key: "Tcomponents"
    value {
      list {
        type: DT_STRING
        type: DT_STRING
      }
    }
  }
  attr {
    key: "_class"
    value {
      list {
        s: "loc:@parallel_read/random_shuffle_queue"
      }
    }
  }
  attr {
    key: "timeout_ms"
    value {
      i: -1
    }
  }
}
node {
  name: "parallel_read/random_shuffle_queue_Close"
  op: "QueueClose"
  input: "parallel_read/random_shuffle_queue"
  attr {
    key: "_class"
    value {
      list {
        s: "loc:@parallel_read/random_shuffle_queue"
      }
    }
  }
  attr {
    key: "cancel_pending_enqueues"
    value {
      b: false
    }
  }
}
node {
  name: "parallel_read/random_shuffle_queue_Close_1"
  op: "QueueClose"
  input: "parallel_read/random_shuffle_queue"
  attr {
    key: "_class"
    value {
      list {
        s: "loc:@parallel_read/random_shuffle_queue"
      }
    }
  }
  attr {
    key: "cancel_pending_enqueues"
    value {
      b: true
    }
  }
}
node {
  name: "parallel_read/random_shuffle_queue_Dequeue"
  op: "QueueDequeue"
  input: "parallel_read/random_shuffle_queue"
  attr {
    key: "_class"
    value {
      list {
        s: "loc:@parallel_read/random_shuffle_queue"
      }
    }
  }
  attr {
    key: "_output_shapes"
    value {
      list {
        shape {
          unknown_rank: true
        }
        shape {
          unknown_rank: true
        }
      }
    }
  }
  attr {
    key: "component_types"
    value {
      list {
        type: DT_STRING
        type: DT_STRING
      }
    }
  }
  attr {
    key: "timeout_ms"
    value {
      i: -1
    }
  }
}
node {
  name: "ParseSingleExample/Rank"
  op: "Rank"
  input: "parallel_read/random_shuffle_queue_Dequeue:1"
  attr {
    key: "T"
    value {
      type: DT_STRING
    }
  }
  attr {
    key: "_output_shapes"
    value {
      list {
        shape {
        }
      }
    }
  }
}
node {
  name: "ParseSingleExample/Equal/y"
  op: "Const"
  attr {
    key: "_output_shapes"
    value {
      list {
        shape {
        }
      }
    }
  }
  attr {
    key: "dtype"
    value {
      type: DT_INT32
    }
  }
  attr {
    key: "value"
    value {
      tensor {
        dtype: DT_INT32
        tensor_shape {
        }
        int_val: 0
      }
    }
  }
}
node {
  name: "ParseSingleExample/Equal"
  op: "Equal"
  input: "ParseSingleExample/Rank"
  input: "ParseSingleExample/Equal/y"
  attr {
    key: "T"
    value {
      type: DT_INT32
    }
  }
  attr {
    key: "_output_shapes"
    value {
      list {
        shape {
        }
      }
    }
  }
}
node {
  name: "ParseSingleExample/SerializedIsScalar/AssertGuard/Switch"
  op: "Switch"
  input: "ParseSingleExample/Equal"
  input: "ParseSingleExample/Equal"
  attr {
    key: "T"
    value {
      type: DT_BOOL
    }
  }
  attr {
    key: "_output_shapes"
    value {
      list {
        shape {
        }
        shape {
        }
      }
    }
  }
}
node {
  name: "ParseSingleExample/SerializedIsScalar/AssertGuard/switch_t"
  op: "Identity"
  input: "ParseSingleExample/SerializedIsScalar/AssertGuard/Switch:1"
  attr {
    key: "T"
    value {
      type: DT_BOOL
    }
  }
  attr {
    key: "_output_shapes"
    value {
      list {
        shape {
        }
      }
    }
  }
}
node {
  name: "ParseSingleExample/SerializedIsScalar/AssertGuard/switch_f"
  op: "Identity"
  input: "ParseSingleExample/SerializedIsScalar/AssertGuard/Switch"
  attr {
    key: "T"
    value {
      type: DT_BOOL
    }
  }
  attr {
    key: "_output_shapes"
    value {
      list {
        shape {
        }
      }
    }
  }
}
node {
  name: "ParseSingleExample/SerializedIsScalar/AssertGuard/pred_id"
  op: "Identity"
  input: "ParseSingleExample/Equal"
  attr {
    key: "T"
    value {
      type: DT_BOOL
    }
  }
  attr {
    key: "_output_shapes"
    value {
      list {
        shape {
        }
      }
    }
  }
}
node {
  name: "ParseSingleExample/SerializedIsScalar/AssertGuard/NoOp"
  op: "NoOp"
  input: "^ParseSingleExample/SerializedIsScalar/AssertGuard/switch_t"
}
node {
  name: "ParseSingleExample/SerializedIsScalar/AssertGuard/control_dependency"
  op: "Identity"
  input: "ParseSingleExample/SerializedIsScalar/AssertGuard/switch_t"
  input: "^ParseSingleExample/SerializedIsScalar/AssertGuard/NoOp"
  attr {
    key: "T"
    value {
      type: DT_BOOL
    }
  }
  attr {
    key: "_class"
    value {
      list {
        s: "loc:@ParseSingleExample/SerializedIsScalar/AssertGuard/switch_t"
      }
    }
  }
  attr {
    key: "_output_shapes"
    value {
      list {
        shape {
        }
      }
    }
  }
}
node {
  name: "ParseSingleExample/SerializedIsScalar/AssertGuard/Assert/data_0"
  op: "Const"
  input: "^ParseSingleExample/SerializedIsScalar/AssertGuard/switch_f"
  attr {
    key: "_output_shapes"
    value {
      list {
        shape {
        }
      }
    }
  }
  attr {
    key: "dtype"
    value {
      type: DT_STRING
    }
  }
  attr {
    key: "value"
    value {
      tensor {
        dtype: DT_STRING
        tensor_shape {
        }
        string_val: "Input serialized must be a scalar"
      }
    }
  }
}
node {
  name: "ParseSingleExample/SerializedIsScalar/AssertGuard/Assert/Switch"
  op: "Switch"
  input: "ParseSingleExample/Equal"
  input: "ParseSingleExample/SerializedIsScalar/AssertGuard/pred_id"
  attr {
    key: "T"
    value {
      type: DT_BOOL
    }
  }
  attr {
    key: "_class"
    value {
      list {
        s: "loc:@ParseSingleExample/Equal"
      }
    }
  }
  attr {
    key: "_output_shapes"
    value {
      list {
        shape {
        }
        shape {
        }
      }
    }
  }
}
node {
  name: "ParseSingleExample/SerializedIsScalar/AssertGuard/Assert"
  op: "Assert"
  input: "ParseSingleExample/SerializedIsScalar/AssertGuard/Assert/Switch"
  input: "ParseSingleExample/SerializedIsScalar/AssertGuard/Assert/data_0"
  attr {
    key: "T"
    value {
      list {
        type: DT_STRING
      }
    }
  }
  attr {
    key: "summarize"
    value {
      i: 3
    }
  }
}
node {
  name: "ParseSingleExample/SerializedIsScalar/AssertGuard/control_dependency_1"
  op: "Identity"
  input: "ParseSingleExample/SerializedIsScalar/AssertGuard/switch_f"
  input: "^ParseSingleExample/SerializedIsScalar/AssertGuard/Assert"
  attr {
    key: "T"
    value {
      type: DT_BOOL
    }
  }
  attr {
    key: "_class"
    value {
      list {
        s: "loc:@ParseSingleExample/SerializedIsScalar/AssertGuard/switch_f"
      }
    }
  }
  attr {
    key: "_output_shapes"
    value {
      list {
        shape {
        }
      }
    }
  }
}
node {
  name: "ParseSingleExample/SerializedIsScalar/AssertGuard/Merge"
  op: "Merge"
  input: "ParseSingleExample/SerializedIsScalar/AssertGuard/control_dependency_1"
  input: "ParseSingleExample/SerializedIsScalar/AssertGuard/control_dependency"
  attr {
    key: "N"
    value {
      i: 2
    }
  }
  attr {
    key: "T"
    value {
      type: DT_BOOL
    }
  }
  attr {
    key: "_output_shapes"
    value {
      list {
        shape {
        }
        shape {
        }
      }
    }
  }
}
node {
  name: "ParseSingleExample/SerializedDependencies"
  op: "Identity"
  input: "parallel_read/random_shuffle_queue_Dequeue:1"
  input: "^ParseSingleExample/SerializedIsScalar/AssertGuard/Merge"
  attr {
    key: "T"
    value {
      type: DT_STRING
    }
  }
  attr {
    key: "_class"
    value {
      list {
        s: "loc:@parallel_read/random_shuffle_queue"
      }
    }
  }
  attr {
    key: "_output_shapes"
    value {
      list {
        shape {
          unknown_rank: true
        }
      }
    }
  }
}
node {
  name: "ParseSingleExample/ExpandDims/dim"
  op: "Const"
  attr {
    key: "_output_shapes"
    value {
      list {
        shape {
        }
      }
    }
  }
  attr {
    key: "dtype"
    value {
      type: DT_INT32
    }
  }
  attr {
    key: "value"
    value {
      tensor {
        dtype: DT_INT32
        tensor_shape {
        }
        int_val: 0
      }
    }
  }
}
node {
  name: "ParseSingleExample/ExpandDims"
  op: "ExpandDims"
  input: "ParseSingleExample/SerializedDependencies"
  input: "ParseSingleExample/ExpandDims/dim"
  attr {
    key: "T"
    value {
      type: DT_STRING
    }
  }
  attr {
    key: "Tdim"
    value {
      type: DT_INT32
    }
  }
  attr {
    key: "_output_shapes"
    value {
      list {
        shape {
          unknown_rank: true
        }
      }
    }
  }
}
node {
  name: "ParseSingleExample/ParseExample/Const"
  op: "Const"
  attr {
    key: "_output_shapes"
    value {
      list {
        shape {
          dim {
          }
        }
      }
    }
  }
  attr {
    key: "dtype"
    value {
      type: DT_FLOAT
    }
  }
  attr {
    key: "value"
    value {
      tensor {
        dtype: DT_FLOAT
        tensor_shape {
          dim {
          }
        }
      }
    }
  }
}
node {
  name: "ParseSingleExample/ParseExample/Const_1"
  op: "Const"
  attr {
    key: "_output_shapes"
    value {
      list {
        shape {
          dim {
          }
        }
      }
    }
  }
  attr {
    key: "dtype"
    value {
      type: DT_INT64
    }
  }
  attr {
    key: "value"
    value {
      tensor {
        dtype: DT_INT64
        tensor_shape {
          dim {
          }
        }
      }
    }
  }
}
node {
  name: "ParseSingleExample/ParseExample/ParseExample/names"
  op: "Const"
  attr {
    key: "_output_shapes"
    value {
      list {
        shape {
          dim {
          }
        }
      }
    }
  }
  attr {
    key: "dtype"
    value {
      type: DT_STRING
    }
  }
  attr {
    key: "value"
    value {
      tensor {
        dtype: DT_STRING
        tensor_shape {
          dim {
          }
        }
      }
    }
  }
}
node {
  name: "ParseSingleExample/ParseExample/ParseExample/dense_keys_0"
  op: "Const"
  attr {
    key: "_output_shapes"
    value {
      list {
        shape {
        }
      }
    }
  }
  attr {
    key: "dtype"
    value {
      type: DT_STRING
    }
  }
  attr {
    key: "value"
    value {
      tensor {
        dtype: DT_STRING
        tensor_shape {
        }
        string_val: "data"
      }
    }
  }
}
node {
  name: "ParseSingleExample/ParseExample/ParseExample/dense_keys_1"
  op: "Const"
  attr {
    key: "_output_shapes"
    value {
      list {
        shape {
        }
      }
    }
  }
  attr {
    key: "dtype"
    value {
      type: DT_STRING
    }
  }
  attr {
    key: "value"
    value {
      tensor {
        dtype: DT_STRING
        tensor_shape {
        }
        string_val: "label"
      }
    }
  }
}
node {
  name: "ParseSingleExample/ParseExample/ParseExample"
  op: "ParseExample"
  input: "ParseSingleExample/ExpandDims"
  input: "ParseSingleExample/ParseExample/ParseExample/names"
  input: "ParseSingleExample/ParseExample/ParseExample/dense_keys_0"
  input: "ParseSingleExample/ParseExample/ParseExample/dense_keys_1"
  input: "ParseSingleExample/ParseExample/Const"
  input: "ParseSingleExample/ParseExample/Const_1"
  attr {
    key: "Ndense"
    value {
      i: 2
    }
  }
  attr {
    key: "Nsparse"
    value {
      i: 0
    }
  }
  attr {
    key: "Tdense"
    value {
      list {
        type: DT_FLOAT
        type: DT_INT64
      }
    }
  }
  attr {
    key: "_output_shapes"
    value {
      list {
        shape {
          dim {
            size: -1
          }
          dim {
            size: 3840000
          }
        }
        shape {
          dim {
            size: -1
          }
        }
      }
    }
  }
  attr {
    key: "dense_shapes"
    value {
      list {
        shape {
          dim {
            size: 3840000
          }
        }
        shape {
        }
      }
    }
  }
  attr {
    key: "sparse_types"
    value {
      list {
      }
    }
  }
}
node {
  name: "ParseSingleExample/Squeeze_data"
  op: "Squeeze"
  input: "ParseSingleExample/ParseExample/ParseExample"
  attr {
    key: "T"
    value {
      type: DT_FLOAT
    }
  }
  attr {
    key: "_output_shapes"
    value {
      list {
        shape {
          dim {
            size: 3840000
          }
        }
      }
    }
  }
  attr {
    key: "squeeze_dims"
    value {
      list {
        i: 0
      }
    }
  }
}
node {
  name: "ParseSingleExample/Squeeze_label"
  op: "Squeeze"
  input: "ParseSingleExample/ParseExample/ParseExample:1"
  attr {
    key: "T"
    value {
      type: DT_INT64
    }
  }
  attr {
    key: "_output_shapes"
    value {
      list {
        shape {
        }
      }
    }
  }
  attr {
    key: "squeeze_dims"
    value {
      list {
        i: 0
      }
    }
  }
}
node {
  name: "Reshape/shape"
  op: "Const"
  attr {
    key: "_output_shapes"
    value {
      list {
        shape {
          dim {
            size: 1
          }
        }
      }
    }
  }
  attr {
    key: "dtype"
    value {
      type: DT_INT32
    }
  }
  attr {
    key: "value"
    value {
      tensor {
        dtype: DT_INT32
        tensor_shape {
          dim {
            size: 1
          }
        }
        int_val: 3840000
      }
    }
  }
}
node {
  name: "Reshape"
  op: "Reshape"
  input: "ParseSingleExample/Squeeze_data"
  input: "Reshape/shape"
  attr {
    key: "T"
    value {
      type: DT_FLOAT
    }
  }
  attr {
    key: "Tshape"
    value {
      type: DT_INT32
    }
  }
  attr {
    key: "_output_shapes"
    value {
      list {
        shape {
          dim {
            size: 3840000
          }
        }
      }
    }
  }
}
node {
  name: "Reshape_1/shape"
  op: "Const"
  attr {
    key: "_output_shapes"
    value {
      list {
        shape {
          dim {
          }
        }
      }
    }
  }
  attr {
    key: "dtype"
    value {
      type: DT_INT32
    }
  }
  attr {
    key: "value"
    value {
      tensor {
        dtype: DT_INT32
        tensor_shape {
          dim {
          }
        }
      }
    }
  }
}
node {
  name: "Reshape_1"
  op: "Reshape"
  input: "ParseSingleExample/Squeeze_label"
  input: "Reshape_1/shape"
  attr {
    key: "T"
    value {
      type: DT_INT64
    }
  }
  attr {
    key: "Tshape"
    value {
      type: DT_INT32
    }
  }
  attr {
    key: "_output_shapes"
    value {
      list {
        shape {
        }
      }
    }
  }
}
node {
  name: "Reshape_2/shape"
  op: "Const"
  attr {
    key: "_output_shapes"
    value {
      list {
        shape {
          dim {
            size: 2
          }
        }
      }
    }
  }
  attr {
    key: "dtype"
    value {
      type: DT_INT32
    }
  }
  attr {
    key: "value"
    value {
      tensor {
        dtype: DT_INT32
        tensor_shape {
          dim {
            size: 2
          }
        }
        tensor_content: "\200\251\003\000\020\000\000\000"
      }
    }
  }
}
node {
  name: "Reshape_2"
  op: "Reshape"
  input: "Reshape"
  input: "Reshape_2/shape"
  attr {
    key: "T"
    value {
      type: DT_FLOAT
    }
  }
  attr {
    key: "Tshape"
    value {
      type: DT_INT32
    }
  }
  attr {
    key: "_output_shapes"
    value {
      list {
        shape {
          dim {
            size: 240000
          }
          dim {
            size: 16
          }
        }
      }
    }
  }
}
node {
  name: "split/split_dim"
  op: "Const"
  attr {
    key: "_output_shapes"
    value {
      list {
        shape {
        }
      }
    }
  }
  attr {
    key: "dtype"
    value {
      type: DT_INT32
    }
  }
  attr {
    key: "value"
    value {
      tensor {
        dtype: DT_INT32
        tensor_shape {
        }
        int_val: 0
      }
    }
  }
}
node {
  name: "split"
  op: "Split"
  input: "split/split_dim"
  input: "Reshape_2"
  attr {
    key: "T"
    value {
      type: DT_FLOAT
    }
  }
  attr {
    key: "_output_shapes"
    value {
      list {
        shape {
          dim {
            size: 2400
          }
          dim {
            size: 16
          }
        }
        shape {
          dim {
            size: 2400
          }
          dim {
            size: 16
          }
        }
        shape {
          dim {
            size: 2400
          }
          dim {
            size: 16
          }
        }
        shape {
          dim {
            size: 2400
          }
          dim {
            size: 16
          }
        }
        shape {
          dim {
            size: 2400
          }
          dim {
            size: 16
          }
        }
        shape {
          dim {
            size: 2400
          }
          dim {
            size: 16
          }
        }
        shape {
          dim {
            size: 2400
          }
          dim {
            size: 16
          }
        }
        shape {
          dim {
            size: 2400
          }
          dim {
            size: 16
          }
        }
        shape {
          dim {
            size: 2400
          }
          dim {
            size: 16
          }
        }
        shape {
          dim {
            size: 2400
          }
          dim {
            size: 16
          }
        }
        shape {
          dim {
            size: 2400
          }
          dim {
            size: 16
          }
        }
        shape {
          dim {
            size: 2400
          }
          dim {
            size: 16
          }
        }
        shape {
          dim {
            size: 2400
          }
          dim {
            size: 16
          }
        }
        shape {
          dim {
            size: 2400
          }
          dim {
            size: 16
          }
        }
        shape {
          dim {
            size: 2400
          }
          dim {
            size: 16
          }
        }
        shape {
          dim {
            size: 2400
          }
          dim {
            size: 16
          }
        }
        shape {
          dim {
            size: 2400
          }
          dim {
            size: 16
          }
        }
        shape {
          dim {
            size: 2400
          }
          dim {
            size: 16
          }
        }
        shape {
          dim {
            size: 2400
          }
          dim {
            size: 16
          }
        }
        shape {
          dim {
            size: 2400
          }
          dim {
            size: 16
          }
        }
        shape {
          dim {
            size: 2400
          }
          dim {
            size: 16
          }
        }
        shape {
          dim {
            size: 2400
          }
          dim {
            size: 16
          }
        }
        shape {
          dim {
            size: 2400
          }
          dim {
            size: 16
          }
        }
        shape {
          dim {
            size: 2400
          }
          dim {
            size: 16
          }
        }
        shape {
          dim {
            size: 2400
          }
          dim {
            size: 16
          }
        }
        shape {
          dim {
            size: 2400
          }
          dim {
            size: 16
          }
        }
        shape {
          dim {
            size: 2400
          }
          dim {
            size: 16
          }
        }
        shape {
          dim {
            size: 2400
          }
          dim {
            size: 16
          }
        }
        shape {
          dim {
            size: 2400
          }
          dim {
            size: 16
          }
        }
        shape {
          dim {
            size: 2400
          }
          dim {
            size: 16
          }
        }
        shape {
          dim {
            size: 2400
          }
          dim {
            size: 16
          }
        }
        shape {
          dim {
            size: 2400
          }
          dim {
            size: 16
          }
        }
        shape {
          dim {
            size: 2400
          }
          dim {
            size: 16
          }
        }
        shape {
          dim {
            size: 2400
          }
          dim {
            size: 16
          }
        }
        shape {
          dim {
            size: 2400
          }
          dim {
            size: 16
          }
        }
        shape {
          dim {
            size: 2400
          }
          dim {
            size: 16
          }
        }
        shape {
          dim {
            size: 2400
          }
          dim {
            size: 16
          }
        }
        shape {
          dim {
            size: 2400
          }
          dim {
            size: 16
          }
        }
        shape {
          dim {
            size: 2400
          }
          dim {
            size: 16
          }
        }
        shape {
          dim {
            size: 2400
          }
          dim {
            size: 16
          }
        }
        shape {
          dim {
            size: 2400
          }
          dim {
            size: 16
          }
        }
        shape {
          dim {
            size: 2400
          }
          dim {
            size: 16
          }
        }
        shape {
          dim {
            size: 2400
          }
          dim {
            size: 16
          }
        }
        shape {
          dim {
            size: 2400
          }
          dim {
            size: 16
          }
        }
        shape {
          dim {
            size: 2400
          }
          dim {
            size: 16
          }
        }
        shape {
          dim {
            size: 2400
          }
          dim {
            size: 16
          }
        }
        shape {
          dim {
            size: 2400
          }
          dim {
            size: 16
          }
        }
        shape {
          dim {
            size: 2400
          }
          dim {
            size: 16
          }
        }
        shape {
          dim {
            size: 2400
          }
          dim {
            size: 16
          }
        }
        shape {
          dim {
            size: 2400
          }
          dim {
            size: 16
          }
        }
        shape {
          dim {
            size: 2400
          }
          dim {
            size: 16
          }
        }
        shape {
          dim {
            size: 2400
          }
          dim {
            size: 16
          }
        }
        shape {
          dim {
            size: 2400
          }
          dim {
            size: 16
          }
        }
        shape {
          dim {
            size: 2400
          }
          dim {
            size: 16
          }
        }
        shape {
          dim {
            size: 2400
          }
          dim {
            size: 16
          }
        }
        shape {
          dim {
            size: 2400
          }
          dim {
            size: 16
          }
        }
        shape {
          dim {
            size: 2400
          }
          dim {
            size: 16
          }
        }
        shape {
          dim {
            size: 2400
          }
          dim {
            size: 16
          }
        }
        shape {
          dim {
            size: 2400
          }
          dim {
            size: 16
          }
        }
        shape {
          dim {
            size: 2400
          }
          dim {
            size: 16
          }
        }
        shape {
          dim {
            size: 2400
          }
          dim {
            size: 16
          }
        }
        shape {
          dim {
            size: 2400
          }
          dim {
            size: 16
          }
        }
        shape {
          dim {
            size: 2400
          }
          dim {
            size: 16
          }
        }
        shape {
          dim {
            size: 2400
          }
          dim {
            size: 16
          }
        }
        shape {
          dim {
            size: 2400
          }
          dim {
            size: 16
          }
        }
        shape {
          dim {
            size: 2400
          }
          dim {
            size: 16
          }
        }
        shape {
          dim {
            size: 2400
          }
          dim {
            size: 16
          }
        }
        shape {
          dim {
            size: 2400
          }
          dim {
            size: 16
          }
        }
        shape {
          dim {
            size: 2400
          }
          dim {
            size: 16
          }
        }
        shape {
          dim {
            size: 2400
          }
          dim {
            size: 16
          }
        }
        shape {
          dim {
            size: 2400
          }
          dim {
            size: 16
          }
        }
        shape {
          dim {
            size: 2400
          }
          dim {
            size: 16
          }
        }
        shape {
          dim {
            size: 2400
          }
          dim {
            size: 16
          }
        }
        shape {
          dim {
            size: 2400
          }
          dim {
            size: 16
          }
        }
        shape {
          dim {
            size: 2400
          }
          dim {
            size: 16
          }
        }
        shape {
          dim {
            size: 2400
          }
          dim {
            size: 16
          }
        }
        shape {
          dim {
            size: 2400
          }
          dim {
            size: 16
          }
        }
        shape {
          dim {
            size: 2400
          }
          dim {
            size: 16
          }
        }
        shape {
          dim {
            size: 2400
          }
          dim {
            size: 16
          }
        }
        shape {
          dim {
            size: 2400
          }
          dim {
            size: 16
          }
        }
        shape {
          dim {
            size: 2400
          }
          dim {
            size: 16
          }
        }
        shape {
          dim {
            size: 2400
          }
          dim {
            size: 16
          }
        }
        shape {
          dim {
            size: 2400
          }
          dim {
            size: 16
          }
        }
        shape {
          dim {
            size: 2400
          }
          dim {
            size: 16
          }
        }
        shape {
          dim {
            size: 2400
          }
          dim {
            size: 16
          }
        }
        shape {
          dim {
            size: 2400
          }
          dim {
            size: 16
          }
        }
        shape {
          dim {
            size: 2400
          }
          dim {
            size: 16
          }
        }
        shape {
          dim {
            size: 2400
          }
          dim {
            size: 16
          }
        }
        shape {
          dim {
            size: 2400
          }
          dim {
            size: 16
          }
        }
        shape {
          dim {
            size: 2400
          }
          dim {
            size: 16
          }
        }
        shape {
          dim {
            size: 2400
          }
          dim {
            size: 16
          }
        }
        shape {
          dim {
            size: 2400
          }
          dim {
            size: 16
          }
        }
        shape {
          dim {
            size: 2400
          }
          dim {
            size: 16
          }
        }
        shape {
          dim {
            size: 2400
          }
          dim {
            size: 16
          }
        }
        shape {
          dim {
            size: 2400
          }
          dim {
            size: 16
          }
        }
        shape {
          dim {
            size: 2400
          }
          dim {
            size: 16
          }
        }
        shape {
          dim {
            size: 2400
          }
          dim {
            size: 16
          }
        }
        shape {
          dim {
            size: 2400
          }
          dim {
            size: 16
          }
        }
        shape {
          dim {
            size: 2400
          }
          dim {
            size: 16
          }
        }
        shape {
          dim {
            size: 2400
          }
          dim {
            size: 16
          }
        }
      }
    }
  }
  attr {
    key: "num_split"
    value {
      i: 100
    }
  }
}
node {
  name: "pack"
  op: "Pack"
  input: "split"
  input: "split:1"
  input: "split:2"
  input: "split:3"
  input: "split:4"
  input: "split:5"
  input: "split:6"
  input: "split:7"
  input: "split:8"
  input: "split:9"
  input: "split:10"
  input: "split:11"
  input: "split:12"
  input: "split:13"
  input: "split:14"
  input: "split:15"
  input: "split:16"
  input: "split:17"
  input: "split:18"
  input: "split:19"
  input: "split:20"
  input: "split:21"
  input: "split:22"
  input: "split:23"
  input: "split:24"
  input: "split:25"
  input: "split:26"
  input: "split:27"
  input: "split:28"
  input: "split:29"
  input: "split:30"
  input: "split:31"
  input: "split:32"
  input: "split:33"
  input: "split:34"
  input: "split:35"
  input: "split:36"
  input: "split:37"
  input: "split:38"
  input: "split:39"
  input: "split:40"
  input: "split:41"
  input: "split:42"
  input: "split:43"
  input: "split:44"
  input: "split:45"
  input: "split:46"
  input: "split:47"
  input: "split:48"
  input: "split:49"
  input: "split:50"
  input: "split:51"
  input: "split:52"
  input: "split:53"
  input: "split:54"
  input: "split:55"
  input: "split:56"
  input: "split:57"
  input: "split:58"
  input: "split:59"
  input: "split:60"
  input: "split:61"
  input: "split:62"
  input: "split:63"
  input: "split:64"
  input: "split:65"
  input: "split:66"
  input: "split:67"
  input: "split:68"
  input: "split:69"
  input: "split:70"
  input: "split:71"
  input: "split:72"
  input: "split:73"
  input: "split:74"
  input: "split:75"
  input: "split:76"
  input: "split:77"
  input: "split:78"
  input: "split:79"
  input: "split:80"
  input: "split:81"
  input: "split:82"
  input: "split:83"
  input: "split:84"
  input: "split:85"
  input: "split:86"
  input: "split:87"
  input: "split:88"
  input: "split:89"
  input: "split:90"
  input: "split:91"
  input: "split:92"
  input: "split:93"
  input: "split:94"
  input: "split:95"
  input: "split:96"
  input: "split:97"
  input: "split:98"
  input: "split:99"
  attr {
    key: "N"
    value {
      i: 100
    }
  }
  attr {
    key: "T"
    value {
      type: DT_FLOAT
    }
  }
  attr {
    key: "_output_shapes"
    value {
      list {
        shape {
          dim {
            size: 100
          }
          dim {
            size: 2400
          }
          dim {
            size: 16
          }
        }
      }
    }
  }
  attr {
    key: "axis"
    value {
      i: 0
    }
  }
}
node {
  name: "moments/sufficient_statistics/Const"
  op: "Const"
  attr {
    key: "_output_shapes"
    value {
      list {
        shape {
        }
      }
    }
  }
  attr {
    key: "dtype"
    value {
      type: DT_FLOAT
    }
  }
  attr {
    key: "value"
    value {
      tensor {
        dtype: DT_FLOAT
        tensor_shape {
        }
        float_val: 38400.0
      }
    }
  }
}
node {
  name: "moments/sufficient_statistics/Square"
  op: "Square"
  input: "pack"
  attr {
    key: "T"
    value {
      type: DT_FLOAT
    }
  }
  attr {
    key: "_output_shapes"
    value {
      list {
        shape {
          dim {
            size: 100
          }
          dim {
            size: 2400
          }
          dim {
            size: 16
          }
        }
      }
    }
  }
}
node {
  name: "moments/sufficient_statistics/mean_ss/reduction_indices"
  op: "Const"
  attr {
    key: "_output_shapes"
    value {
      list {
        shape {
          dim {
            size: 2
          }
        }
      }
    }
  }
  attr {
    key: "dtype"
    value {
      type: DT_INT32
    }
  }
  attr {
    key: "value"
    value {
      tensor {
        dtype: DT_INT32
        tensor_shape {
          dim {
            size: 2
          }
        }
        tensor_content: "\001\000\000\000\002\000\000\000"
      }
    }
  }
}
node {
  name: "moments/sufficient_statistics/mean_ss"
  op: "Sum"
  input: "pack"
  input: "moments/sufficient_statistics/mean_ss/reduction_indices"
  attr {
    key: "T"
    value {
      type: DT_FLOAT
    }
  }
  attr {
    key: "Tidx"
    value {
      type: DT_INT32
    }
  }
  attr {
    key: "_output_shapes"
    value {
      list {
        shape {
          dim {
            size: 100
          }
        }
      }
    }
  }
  attr {
    key: "keep_dims"
    value {
      b: false
    }
  }
}
node {
  name: "moments/sufficient_statistics/var_ss/reduction_indices"
  op: "Const"
  attr {
    key: "_output_shapes"
    value {
      list {
        shape {
          dim {
            size: 2
          }
        }
      }
    }
  }
  attr {
    key: "dtype"
    value {
      type: DT_INT32
    }
  }
  attr {
    key: "value"
    value {
      tensor {
        dtype: DT_INT32
        tensor_shape {
          dim {
            size: 2
          }
        }
        tensor_content: "\001\000\000\000\002\000\000\000"
      }
    }
  }
}
node {
  name: "moments/sufficient_statistics/var_ss"
  op: "Sum"
  input: "moments/sufficient_statistics/Square"
  input: "moments/sufficient_statistics/var_ss/reduction_indices"
  attr {
    key: "T"
    value {
      type: DT_FLOAT
    }
  }
  attr {
    key: "Tidx"
    value {
      type: DT_INT32
    }
  }
  attr {
    key: "_output_shapes"
    value {
      list {
        shape {
          dim {
            size: 100
          }
        }
      }
    }
  }
  attr {
    key: "keep_dims"
    value {
      b: false
    }
  }
}
node {
  name: "moments/normalize/divisor"
  op: "Inv"
  input: "moments/sufficient_statistics/Const"
  input: "^moments/sufficient_statistics/mean_ss"
  input: "^moments/sufficient_statistics/var_ss"
  attr {
    key: "T"
    value {
      type: DT_FLOAT
    }
  }
  attr {
    key: "_output_shapes"
    value {
      list {
        shape {
        }
      }
    }
  }
}
node {
  name: "moments/normalize/mean"
  op: "Mul"
  input: "moments/sufficient_statistics/mean_ss"
  input: "moments/normalize/divisor"
  attr {
    key: "T"
    value {
      type: DT_FLOAT
    }
  }
  attr {
    key: "_output_shapes"
    value {
      list {
        shape {
          dim {
            size: 100
          }
        }
      }
    }
  }
}
node {
  name: "moments/normalize/Mul"
  op: "Mul"
  input: "moments/sufficient_statistics/var_ss"
  input: "moments/normalize/divisor"
  attr {
    key: "T"
    value {
      type: DT_FLOAT
    }
  }
  attr {
    key: "_output_shapes"
    value {
      list {
        shape {
          dim {
            size: 100
          }
        }
      }
    }
  }
}
node {
  name: "moments/normalize/Square"
  op: "Square"
  input: "moments/normalize/mean"
  attr {
    key: "T"
    value {
      type: DT_FLOAT
    }
  }
  attr {
    key: "_output_shapes"
    value {
      list {
        shape {
          dim {
            size: 100
          }
        }
      }
    }
  }
}
node {
  name: "moments/normalize/variance"
  op: "Sub"
  input: "moments/normalize/Mul"
  input: "moments/normalize/Square"
  attr {
    key: "T"
    value {
      type: DT_FLOAT
    }
  }
  attr {
    key: "_output_shapes"
    value {
      list {
        shape {
          dim {
            size: 100
          }
        }
      }
    }
  }
}
node {
  name: "Greater/y"
  op: "Const"
  attr {
    key: "_output_shapes"
    value {
      list {
        shape {
        }
      }
    }
  }
  attr {
    key: "dtype"
    value {
      type: DT_FLOAT
    }
  }
  attr {
    key: "value"
    value {
      tensor {
        dtype: DT_FLOAT
        tensor_shape {
        }
        float_val: 1.0
      }
    }
  }
}
node {
  name: "Greater"
  op: "Greater"
  input: "moments/normalize/variance"
  input: "Greater/y"
  attr {
    key: "T"
    value {
      type: DT_FLOAT
    }
  }
  attr {
    key: "_output_shapes"
    value {
      list {
        shape {
          dim {
            size: 100
          }
        }
      }
    }
  }
}
node {
  name: "Where"
  op: "Where"
  input: "Greater"
  attr {
    key: "_output_shapes"
    value {
      list {
        shape {
          dim {
            size: -1
          }
          dim {
            size: 1
          }
        }
      }
    }
  }
}
node {
  name: "Reshape_3/shape"
  op: "Const"
  attr {
    key: "_output_shapes"
    value {
      list {
        shape {
          dim {
            size: 1
          }
        }
      }
    }
  }
  attr {
    key: "dtype"
    value {
      type: DT_INT32
    }
  }
  attr {
    key: "value"
    value {
      tensor {
        dtype: DT_INT32
        tensor_shape {
          dim {
            size: 1
          }
        }
        int_val: -1
      }
    }
  }
}
node {
  name: "Reshape_3"
  op: "Reshape"
  input: "Where"
  input: "Reshape_3/shape"
  attr {
    key: "T"
    value {
      type: DT_INT64
    }
  }
  attr {
    key: "Tshape"
    value {
      type: DT_INT32
    }
  }
  attr {
    key: "_output_shapes"
    value {
      list {
        shape {
          dim {
            size: -1
          }
        }
      }
    }
  }
}
node {
  name: "Gather"
  op: "Gather"
  input: "pack"
  input: "Reshape_3"
  attr {
    key: "Tindices"
    value {
      type: DT_INT64
    }
  }
  attr {
    key: "Tparams"
    value {
      type: DT_FLOAT
    }
  }
  attr {
    key: "_output_shapes"
    value {
      list {
        shape {
          dim {
            size: -1
          }
          dim {
            size: 2400
          }
          dim {
            size: 16
          }
        }
      }
    }
  }
  attr {
    key: "validate_indices"
    value {
      b: true
    }
  }
}
node {
  name: "one_hot/on_value"
  op: "Const"
  attr {
    key: "_output_shapes"
    value {
      list {
        shape {
        }
      }
    }
  }
  attr {
    key: "dtype"
    value {
      type: DT_INT32
    }
  }
  attr {
    key: "value"
    value {
      tensor {
        dtype: DT_INT32
        tensor_shape {
        }
        int_val: 1
      }
    }
  }
}
node {
  name: "one_hot/off_value"
  op: "Const"
  attr {
    key: "_output_shapes"
    value {
      list {
        shape {
        }
      }
    }
  }
  attr {
    key: "dtype"
    value {
      type: DT_INT32
    }
  }
  attr {
    key: "value"
    value {
      tensor {
        dtype: DT_INT32
        tensor_shape {
        }
        int_val: 0
      }
    }
  }
}
node {
  name: "one_hot/depth"
  op: "Const"
  attr {
    key: "_output_shapes"
    value {
      list {
        shape {
        }
      }
    }
  }
  attr {
    key: "dtype"
    value {
      type: DT_INT32
    }
  }
  attr {
    key: "value"
    value {
      tensor {
        dtype: DT_INT32
        tensor_shape {
        }
        int_val: 2
      }
    }
  }
}
node {
  name: "one_hot"
  op: "OneHot"
  input: "Reshape_1"
  input: "one_hot/depth"
  input: "one_hot/on_value"
  input: "one_hot/off_value"
  attr {
    key: "T"
    value {
      type: DT_INT32
    }
  }
  attr {
    key: "TI"
    value {
      type: DT_INT64
    }
  }
  attr {
    key: "_output_shapes"
    value {
      list {
        shape {
          dim {
            size: 2
          }
        }
      }
    }
  }
  attr {
    key: "axis"
    value {
      i: -1
    }
  }
}
node {
  name: "Shape"
  op: "Shape"
  input: "Gather"
  attr {
    key: "T"
    value {
      type: DT_FLOAT
    }
  }
  attr {
    key: "_output_shapes"
    value {
      list {
        shape {
          dim {
            size: 3
          }
        }
      }
    }
  }
  attr {
    key: "out_type"
    value {
      type: DT_INT32
    }
  }
}
node {
  name: "strided_slice/pack"
  op: "Const"
  attr {
    key: "_output_shapes"
    value {
      list {
        shape {
          dim {
            size: 1
          }
        }
      }
    }
  }
  attr {
    key: "dtype"
    value {
      type: DT_INT32
    }
  }
  attr {
    key: "value"
    value {
      tensor {
        dtype: DT_INT32
        tensor_shape {
          dim {
            size: 1
          }
        }
        int_val: 0
      }
    }
  }
}
node {
  name: "strided_slice/pack_1"
  op: "Const"
  attr {
    key: "_output_shapes"
    value {
      list {
        shape {
          dim {
            size: 1
          }
        }
      }
    }
  }
  attr {
    key: "dtype"
    value {
      type: DT_INT32
    }
  }
  attr {
    key: "value"
    value {
      tensor {
        dtype: DT_INT32
        tensor_shape {
          dim {
            size: 1
          }
        }
        int_val: 1
      }
    }
  }
}
node {
  name: "strided_slice/pack_2"
  op: "Const"
  attr {
    key: "_output_shapes"
    value {
      list {
        shape {
          dim {
            size: 1
          }
        }
      }
    }
  }
  attr {
    key: "dtype"
    value {
      type: DT_INT32
    }
  }
  attr {
    key: "value"
    value {
      tensor {
        dtype: DT_INT32
        tensor_shape {
          dim {
            size: 1
          }
        }
        int_val: 1
      }
    }
  }
}
node {
  name: "strided_slice"
  op: "StridedSlice"
  input: "Shape"
  input: "strided_slice/pack"
  input: "strided_slice/pack_1"
  input: "strided_slice/pack_2"
  attr {
    key: "Index"
    value {
      type: DT_INT32
    }
  }
  attr {
    key: "T"
    value {
      type: DT_INT32
    }
  }
  attr {
    key: "_output_shapes"
    value {
      list {
        shape {
        }
      }
    }
  }
  attr {
    key: "begin_mask"
    value {
      i: 0
    }
  }
  attr {
    key: "ellipsis_mask"
    value {
      i: 0
    }
  }
  attr {
    key: "end_mask"
    value {
      i: 0
    }
  }
  attr {
    key: "new_axis_mask"
    value {
      i: 0
    }
  }
  attr {
    key: "shrink_axis_mask"
    value {
      i: 1
    }
  }
}
node {
  name: "Tile/multiples"
  op: "Pack"
  input: "strided_slice"
  attr {
    key: "N"
    value {
      i: 1
    }
  }
  attr {
    key: "T"
    value {
      type: DT_INT32
    }
  }
  attr {
    key: "_output_shapes"
    value {
      list {
        shape {
          dim {
            size: 1
          }
        }
      }
    }
  }
  attr {
    key: "axis"
    value {
      i: 0
    }
  }
}
node {
  name: "Tile"
  op: "Tile"
  input: "one_hot"
  input: "Tile/multiples"
  attr {
    key: "T"
    value {
      type: DT_INT32
    }
  }
  attr {
    key: "Tmultiples"
    value {
      type: DT_INT32
    }
  }
  attr {
    key: "_output_shapes"
    value {
      list {
        shape {
          dim {
            size: -1
          }
        }
      }
    }
  }
}
node {
  name: "Reshape_4/shape/1"
  op: "Const"
  attr {
    key: "_output_shapes"
    value {
      list {
        shape {
        }
      }
    }
  }
  attr {
    key: "dtype"
    value {
      type: DT_INT32
    }
  }
  attr {
    key: "value"
    value {
      tensor {
        dtype: DT_INT32
        tensor_shape {
        }
        int_val: 2
      }
    }
  }
}
node {
  name: "Reshape_4/shape"
  op: "Pack"
  input: "strided_slice"
  input: "Reshape_4/shape/1"
  attr {
    key: "N"
    value {
      i: 2
    }
  }
  attr {
    key: "T"
    value {
      type: DT_INT32
    }
  }
  attr {
    key: "_output_shapes"
    value {
      list {
        shape {
          dim {
            size: 2
          }
        }
      }
    }
  }
  attr {
    key: "axis"
    value {
      i: 0
    }
  }
}
node {
  name: "Reshape_4"
  op: "Reshape"
  input: "Tile"
  input: "Reshape_4/shape"
  attr {
    key: "T"
    value {
      type: DT_INT32
    }
  }
  attr {
    key: "Tshape"
    value {
      type: DT_INT32
    }
  }
  attr {
    key: "_output_shapes"
    value {
      list {
        shape {
          dim {
            size: -1
          }
          dim {
            size: 2
          }
        }
      }
    }
  }
}
node {
  name: "Mean/reduction_indices"
  op: "Const"
  attr {
    key: "_output_shapes"
    value {
      list {
        shape {
          dim {
            size: 1
          }
        }
      }
    }
  }
  attr {
    key: "dtype"
    value {
      type: DT_INT32
    }
  }
  attr {
    key: "value"
    value {
      tensor {
        dtype: DT_INT32
        tensor_shape {
          dim {
            size: 1
          }
        }
        int_val: 1
      }
    }
  }
}
node {
  name: "Mean"
  op: "Mean"
  input: "Gather"
  input: "Mean/reduction_indices"
  attr {
    key: "T"
    value {
      type: DT_FLOAT
    }
  }
  attr {
    key: "Tidx"
    value {
      type: DT_INT32
    }
  }
  attr {
    key: "_output_shapes"
    value {
      list {
        shape {
          dim {
            size: -1
          }
          dim {
            size: 16
          }
        }
      }
    }
  }
  attr {
    key: "keep_dims"
    value {
      b: false
    }
  }
}
node {
  name: "ExpandDims/dim"
  op: "Const"
  attr {
    key: "_output_shapes"
    value {
      list {
        shape {
        }
      }
    }
  }
  attr {
    key: "dtype"
    value {
      type: DT_INT32
    }
  }
  attr {
    key: "value"
    value {
      tensor {
        dtype: DT_INT32
        tensor_shape {
        }
        int_val: 1
      }
    }
  }
}
node {
  name: "ExpandDims"
  op: "ExpandDims"
  input: "Mean"
  input: "ExpandDims/dim"
  attr {
    key: "T"
    value {
      type: DT_FLOAT
    }
  }
  attr {
    key: "Tdim"
    value {
      type: DT_INT32
    }
  }
  attr {
    key: "_output_shapes"
    value {
      list {
        shape {
          dim {
            size: -1
          }
          dim {
            size: 1
          }
          dim {
            size: 16
          }
        }
      }
    }
  }
}
node {
  name: "Sub"
  op: "Sub"
  input: "Gather"
  input: "ExpandDims"
  attr {
    key: "T"
    value {
      type: DT_FLOAT
    }
  }
  attr {
    key: "_output_shapes"
    value {
      list {
        shape {
          dim {
            size: -1
          }
          dim {
            size: 2400
          }
          dim {
            size: 16
          }
        }
      }
    }
  }
}
node {
  name: "Abs"
  op: "Abs"
  input: "Sub"
  attr {
    key: "T"
    value {
      type: DT_FLOAT
    }
  }
  attr {
    key: "_output_shapes"
    value {
      list {
        shape {
          dim {
            size: -1
          }
          dim {
            size: 2400
          }
          dim {
            size: 16
          }
        }
      }
    }
  }
}
node {
  name: "Max/reduction_indices"
  op: "Const"
  attr {
    key: "_output_shapes"
    value {
      list {
        shape {
          dim {
            size: 1
          }
        }
      }
    }
  }
  attr {
    key: "dtype"
    value {
      type: DT_INT32
    }
  }
  attr {
    key: "value"
    value {
      tensor {
        dtype: DT_INT32
        tensor_shape {
          dim {
            size: 1
          }
        }
        int_val: 1
      }
    }
  }
}
node {
  name: "Max"
  op: "Max"
  input: "Abs"
  input: "Max/reduction_indices"
  attr {
    key: "T"
    value {
      type: DT_FLOAT
    }
  }
  attr {
    key: "Tidx"
    value {
      type: DT_INT32
    }
  }
  attr {
    key: "_output_shapes"
    value {
      list {
        shape {
          dim {
            size: -1
          }
          dim {
            size: 16
          }
        }
      }
    }
  }
  attr {
    key: "keep_dims"
    value {
      b: false
    }
  }
}
node {
  name: "ExpandDims_1/dim"
  op: "Const"
  attr {
    key: "_output_shapes"
    value {
      list {
        shape {
        }
      }
    }
  }
  attr {
    key: "dtype"
    value {
      type: DT_INT32
    }
  }
  attr {
    key: "value"
    value {
      tensor {
        dtype: DT_INT32
        tensor_shape {
        }
        int_val: 1
      }
    }
  }
}
node {
  name: "ExpandDims_1"
  op: "ExpandDims"
  input: "Max"
  input: "ExpandDims_1/dim"
  attr {
    key: "T"
    value {
      type: DT_FLOAT
    }
  }
  attr {
    key: "Tdim"
    value {
      type: DT_INT32
    }
  }
  attr {
    key: "_output_shapes"
    value {
      list {
        shape {
          dim {
            size: -1
          }
          dim {
            size: 1
          }
          dim {
            size: 16
          }
        }
      }
    }
  }
}
node {
  name: "Mul/x"
  op: "Const"
  attr {
    key: "_output_shapes"
    value {
      list {
        shape {
        }
      }
    }
  }
  attr {
    key: "dtype"
    value {
      type: DT_FLOAT
    }
  }
  attr {
    key: "value"
    value {
      tensor {
        dtype: DT_FLOAT
        tensor_shape {
        }
        float_val: 4.0
      }
    }
  }
}
node {
  name: "Mul"
  op: "Mul"
  input: "Mul/x"
  input: "ExpandDims_1"
  attr {
    key: "T"
    value {
      type: DT_FLOAT
    }
  }
  attr {
    key: "_output_shapes"
    value {
      list {
        shape {
          dim {
            size: -1
          }
          dim {
            size: 1
          }
          dim {
            size: 16
          }
        }
      }
    }
  }
}
node {
  name: "Div"
  op: "Div"
  input: "Sub"
  input: "Mul"
  attr {
    key: "T"
    value {
      type: DT_FLOAT
    }
  }
  attr {
    key: "_output_shapes"
    value {
      list {
        shape {
          dim {
            size: -1
          }
          dim {
            size: 2400
          }
          dim {
            size: 16
          }
        }
      }
    }
  }
}
node {
  name: "ExpandDims_2/dim"
  op: "Const"
  attr {
    key: "_output_shapes"
    value {
      list {
        shape {
        }
      }
    }
  }
  attr {
    key: "dtype"
    value {
      type: DT_INT32
    }
  }
  attr {
    key: "value"
    value {
      tensor {
        dtype: DT_INT32
        tensor_shape {
        }
        int_val: 1
      }
    }
  }
}
node {
  name: "ExpandDims_2"
  op: "ExpandDims"
  input: "Div"
  input: "ExpandDims_2/dim"
  attr {
    key: "T"
    value {
      type: DT_FLOAT
    }
  }
  attr {
    key: "Tdim"
    value {
      type: DT_INT32
    }
  }
  attr {
    key: "_output_shapes"
    value {
      list {
        shape {
          dim {
            size: -1
          }
          dim {
            size: 1
          }
          dim {
            size: 2400
          }
          dim {
            size: 16
          }
        }
      }
    }
  }
}
node {
  name: "shuffle_batch/random_shuffle_queue"
  op: "RandomShuffleQueue"
  attr {
    key: "_output_shapes"
    value {
      list {
        shape {
          dim {
            size: 2
          }
        }
      }
    }
  }
  attr {
    key: "capacity"
    value {
      i: 4000
    }
  }
  attr {
    key: "component_types"
    value {
      list {
        type: DT_FLOAT
        type: DT_INT32
      }
    }
  }
  attr {
    key: "container"
    value {
      s: ""
    }
  }
  attr {
    key: "min_after_dequeue"
    value {
      i: 2000
    }
  }
  attr {
    key: "seed"
    value {
      i: 0
    }
  }
  attr {
    key: "seed2"
    value {
      i: 0
    }
  }
  attr {
    key: "shapes"
    value {
      list {
        shape {
          dim {
            size: 1
          }
          dim {
            size: 2400
          }
          dim {
            size: 16
          }
        }
        shape {
          dim {
            size: 2
          }
        }
      }
    }
  }
  attr {
    key: "shared_name"
    value {
      s: ""
    }
  }
}
node {
  name: "shuffle_batch/random_shuffle_queue_EnqueueMany"
  op: "QueueEnqueueMany"
  input: "shuffle_batch/random_shuffle_queue"
  input: "ExpandDims_2"
  input: "Reshape_4"
  attr {
    key: "Tcomponents"
    value {
      list {
        type: DT_FLOAT
        type: DT_INT32
      }
    }
  }
  attr {
    key: "_class"
    value {
      list {
        s: "loc:@shuffle_batch/random_shuffle_queue"
      }
    }
  }
  attr {
    key: "timeout_ms"
    value {
      i: -1
    }
  }
}
node {
  name: "shuffle_batch/random_shuffle_queue_Close"
  op: "QueueClose"
  input: "shuffle_batch/random_shuffle_queue"
  attr {
    key: "_class"
    value {
      list {
        s: "loc:@shuffle_batch/random_shuffle_queue"
      }
    }
  }
  attr {
    key: "cancel_pending_enqueues"
    value {
      b: false
    }
  }
}
node {
  name: "shuffle_batch/random_shuffle_queue_Close_1"
  op: "QueueClose"
  input: "shuffle_batch/random_shuffle_queue"
  attr {
    key: "_class"
    value {
      list {
        s: "loc:@shuffle_batch/random_shuffle_queue"
      }
    }
  }
  attr {
    key: "cancel_pending_enqueues"
    value {
      b: true
    }
  }
}
node {
  name: "shuffle_batch/random_shuffle_queue_Size"
  op: "QueueSize"
  input: "shuffle_batch/random_shuffle_queue"
  attr {
    key: "_class"
    value {
      list {
        s: "loc:@shuffle_batch/random_shuffle_queue"
      }
    }
  }
  attr {
    key: "_output_shapes"
    value {
      list {
        shape {
        }
      }
    }
  }
}
node {
  name: "shuffle_batch/sub/y"
  op: "Const"
  attr {
    key: "_output_shapes"
    value {
      list {
        shape {
        }
      }
    }
  }
  attr {
    key: "dtype"
    value {
      type: DT_INT32
    }
  }
  attr {
    key: "value"
    value {
      tensor {
        dtype: DT_INT32
        tensor_shape {
        }
        int_val: 2000
      }
    }
  }
}
node {
  name: "shuffle_batch/sub"
  op: "Sub"
  input: "shuffle_batch/random_shuffle_queue_Size"
  input: "shuffle_batch/sub/y"
  attr {
    key: "T"
    value {
      type: DT_INT32
    }
  }
  attr {
    key: "_output_shapes"
    value {
      list {
        shape {
        }
      }
    }
  }
}
node {
  name: "shuffle_batch/Maximum/x"
  op: "Const"
  attr {
    key: "_output_shapes"
    value {
      list {
        shape {
        }
      }
    }
  }
  attr {
    key: "dtype"
    value {
      type: DT_INT32
    }
  }
  attr {
    key: "value"
    value {
      tensor {
        dtype: DT_INT32
        tensor_shape {
        }
        int_val: 0
      }
    }
  }
}
node {
  name: "shuffle_batch/Maximum"
  op: "Maximum"
  input: "shuffle_batch/Maximum/x"
  input: "shuffle_batch/sub"
  attr {
    key: "T"
    value {
      type: DT_INT32
    }
  }
  attr {
    key: "_output_shapes"
    value {
      list {
        shape {
        }
      }
    }
  }
}
node {
  name: "shuffle_batch/Cast"
  op: "Cast"
  input: "shuffle_batch/Maximum"
  attr {
    key: "DstT"
    value {
      type: DT_FLOAT
    }
  }
  attr {
    key: "SrcT"
    value {
      type: DT_INT32
    }
  }
  attr {
    key: "_output_shapes"
    value {
      list {
        shape {
        }
      }
    }
  }
}
node {
  name: "shuffle_batch/mul/y"
  op: "Const"
  attr {
    key: "_output_shapes"
    value {
      list {
        shape {
        }
      }
    }
  }
  attr {
    key: "dtype"
    value {
      type: DT_FLOAT
    }
  }
  attr {
    key: "value"
    value {
      tensor {
        dtype: DT_FLOAT
        tensor_shape {
        }
        float_val: 0.000500000023749
      }
    }
  }
}
node {
  name: "shuffle_batch/mul"
  op: "Mul"
  input: "shuffle_batch/Cast"
  input: "shuffle_batch/mul/y"
  attr {
    key: "T"
    value {
      type: DT_FLOAT
    }
  }
  attr {
    key: "_output_shapes"
    value {
      list {
        shape {
        }
      }
    }
  }
}
node {
  name: "shuffle_batch/ScalarSummary/tags"
  op: "Const"
  attr {
    key: "_output_shapes"
    value {
      list {
        shape {
        }
      }
    }
  }
  attr {
    key: "dtype"
    value {
      type: DT_STRING
    }
  }
  attr {
    key: "value"
    value {
      tensor {
        dtype: DT_STRING
        tensor_shape {
        }
        string_val: "queue/shuffle_batch/fraction_over_2000_of_2000_full"
      }
    }
  }
}
node {
  name: "shuffle_batch/ScalarSummary"
  op: "ScalarSummary"
  input: "shuffle_batch/ScalarSummary/tags"
  input: "shuffle_batch/mul"
  attr {
    key: "T"
    value {
      type: DT_FLOAT
    }
  }
  attr {
    key: "_output_shapes"
    value {
      list {
        shape {
        }
      }
    }
  }
}
node {
  name: "shuffle_batch/n"
  op: "Const"
  attr {
    key: "_output_shapes"
    value {
      list {
        shape {
        }
      }
    }
  }
  attr {
    key: "dtype"
    value {
      type: DT_INT32
    }
  }
  attr {
    key: "value"
    value {
      tensor {
        dtype: DT_INT32
        tensor_shape {
        }
        int_val: 16
      }
    }
  }
}
node {
  name: "shuffle_batch"
  op: "QueueDequeueMany"
  input: "shuffle_batch/random_shuffle_queue"
  input: "shuffle_batch/n"
  attr {
    key: "_class"
    value {
      list {
        s: "loc:@shuffle_batch/random_shuffle_queue"
      }
    }
  }
  attr {
    key: "_output_shapes"
    value {
      list {
        shape {
          dim {
            size: 16
          }
          dim {
            size: 1
          }
          dim {
            size: 2400
          }
          dim {
            size: 16
          }
        }
        shape {
          dim {
            size: 16
          }
          dim {
            size: 2
          }
        }
      }
    }
  }
  attr {
    key: "component_types"
    value {
      list {
        type: DT_FLOAT
        type: DT_INT32
      }
    }
  }
  attr {
    key: "timeout_ms"
    value {
      i: -1
    }
  }
}
node {
  name: "eegnet_network/input_layer/conv1/weights"
  op: "Variable"
  attr {
    key: "_output_shapes"
    value {
      list {
        shape {
          dim {
            size: 1
          }
          dim {
            size: 3
          }
          dim {
            size: 16
          }
          dim {
            size: 48
          }
        }
      }
    }
  }
  attr {
    key: "container"
    value {
      s: ""
    }
  }
  attr {
    key: "dtype"
    value {
      type: DT_FLOAT
    }
  }
  attr {
    key: "shape"
    value {
      shape {
        dim {
          size: 1
        }
        dim {
          size: 3
        }
        dim {
          size: 16
        }
        dim {
          size: 48
        }
      }
    }
  }
  attr {
    key: "shared_name"
    value {
      s: ""
    }
  }
}
node {
  name: "eegnet_network/input_layer/conv1/weights/Initializer/random_uniform/shape"
  op: "Const"
  attr {
    key: "_class"
    value {
      list {
        s: "loc:@eegnet_network/input_layer/conv1/weights"
      }
    }
  }
  attr {
    key: "_output_shapes"
    value {
      list {
        shape {
          dim {
            size: 4
          }
        }
      }
    }
  }
  attr {
    key: "dtype"
    value {
      type: DT_INT32
    }
  }
  attr {
    key: "value"
    value {
      tensor {
        dtype: DT_INT32
        tensor_shape {
          dim {
            size: 4
          }
        }
        tensor_content: "\001\000\000\000\003\000\000\000\020\000\000\0000\000\000\000"
      }
    }
  }
}
node {
  name: "eegnet_network/input_layer/conv1/weights/Initializer/random_uniform/min"
  op: "Const"
  attr {
    key: "_class"
    value {
      list {
        s: "loc:@eegnet_network/input_layer/conv1/weights"
      }
    }
  }
  attr {
    key: "_output_shapes"
    value {
      list {
        shape {
        }
      }
    }
  }
  attr {
    key: "dtype"
    value {
      type: DT_FLOAT
    }
  }
  attr {
    key: "value"
    value {
      tensor {
        dtype: DT_FLOAT
        tensor_shape {
        }
        float_val: -0.176776692271
      }
    }
  }
}
node {
  name: "eegnet_network/input_layer/conv1/weights/Initializer/random_uniform/max"
  op: "Const"
  attr {
    key: "_class"
    value {
      list {
        s: "loc:@eegnet_network/input_layer/conv1/weights"
      }
    }
  }
  attr {
    key: "_output_shapes"
    value {
      list {
        shape {
        }
      }
    }
  }
  attr {
    key: "dtype"
    value {
      type: DT_FLOAT
    }
  }
  attr {
    key: "value"
    value {
      tensor {
        dtype: DT_FLOAT
        tensor_shape {
        }
        float_val: 0.176776692271
      }
    }
  }
}
node {
  name: "eegnet_network/input_layer/conv1/weights/Initializer/random_uniform/RandomUniform"
  op: "RandomUniform"
  input: "eegnet_network/input_layer/conv1/weights/Initializer/random_uniform/shape"
  attr {
    key: "T"
    value {
      type: DT_INT32
    }
  }
  attr {
    key: "_class"
    value {
      list {
        s: "loc:@eegnet_network/input_layer/conv1/weights"
      }
    }
  }
  attr {
    key: "_output_shapes"
    value {
      list {
        shape {
          dim {
            size: 1
          }
          dim {
            size: 3
          }
          dim {
            size: 16
          }
          dim {
            size: 48
          }
        }
      }
    }
  }
  attr {
    key: "dtype"
    value {
      type: DT_FLOAT
    }
  }
  attr {
    key: "seed"
    value {
      i: 0
    }
  }
  attr {
    key: "seed2"
    value {
      i: 0
    }
  }
}
node {
  name: "eegnet_network/input_layer/conv1/weights/Initializer/random_uniform/sub"
  op: "Sub"
  input: "eegnet_network/input_layer/conv1/weights/Initializer/random_uniform/max"
  input: "eegnet_network/input_layer/conv1/weights/Initializer/random_uniform/min"
  attr {
    key: "T"
    value {
      type: DT_FLOAT
    }
  }
  attr {
    key: "_class"
    value {
      list {
        s: "loc:@eegnet_network/input_layer/conv1/weights"
      }
    }
  }
  attr {
    key: "_output_shapes"
    value {
      list {
        shape {
        }
      }
    }
  }
}
node {
  name: "eegnet_network/input_layer/conv1/weights/Initializer/random_uniform/mul"
  op: "Mul"
  input: "eegnet_network/input_layer/conv1/weights/Initializer/random_uniform/RandomUniform"
  input: "eegnet_network/input_layer/conv1/weights/Initializer/random_uniform/sub"
  attr {
    key: "T"
    value {
      type: DT_FLOAT
    }
  }
  attr {
    key: "_class"
    value {
      list {
        s: "loc:@eegnet_network/input_layer/conv1/weights"
      }
    }
  }
  attr {
    key: "_output_shapes"
    value {
      list {
        shape {
          dim {
            size: 1
          }
          dim {
            size: 3
          }
          dim {
            size: 16
          }
          dim {
            size: 48
          }
        }
      }
    }
  }
}
node {
  name: "eegnet_network/input_layer/conv1/weights/Initializer/random_uniform"
  op: "Add"
  input: "eegnet_network/input_layer/conv1/weights/Initializer/random_uniform/mul"
  input: "eegnet_network/input_layer/conv1/weights/Initializer/random_uniform/min"
  attr {
    key: "T"
    value {
      type: DT_FLOAT
    }
  }
  attr {
    key: "_class"
    value {
      list {
        s: "loc:@eegnet_network/input_layer/conv1/weights"
      }
    }
  }
  attr {
    key: "_output_shapes"
    value {
      list {
        shape {
          dim {
            size: 1
          }
          dim {
            size: 3
          }
          dim {
            size: 16
          }
          dim {
            size: 48
          }
        }
      }
    }
  }
}
node {
  name: "eegnet_network/input_layer/conv1/weights/Assign"
  op: "Assign"
  input: "eegnet_network/input_layer/conv1/weights"
  input: "eegnet_network/input_layer/conv1/weights/Initializer/random_uniform"
  attr {
    key: "T"
    value {
      type: DT_FLOAT
    }
  }
  attr {
    key: "_class"
    value {
      list {
        s: "loc:@eegnet_network/input_layer/conv1/weights"
      }
    }
  }
  attr {
    key: "_output_shapes"
    value {
      list {
        shape {
          dim {
            size: 1
          }
          dim {
            size: 3
          }
          dim {
            size: 16
          }
          dim {
            size: 48
          }
        }
      }
    }
  }
  attr {
    key: "use_locking"
    value {
      b: true
    }
  }
  attr {
    key: "validate_shape"
    value {
      b: true
    }
  }
}
node {
  name: "eegnet_network/input_layer/conv1/weights/read"
  op: "Identity"
  input: "eegnet_network/input_layer/conv1/weights"
  attr {
    key: "T"
    value {
      type: DT_FLOAT
    }
  }
  attr {
    key: "_class"
    value {
      list {
        s: "loc:@eegnet_network/input_layer/conv1/weights"
      }
    }
  }
  attr {
    key: "_output_shapes"
    value {
      list {
        shape {
          dim {
            size: 1
          }
          dim {
            size: 3
          }
          dim {
            size: 16
          }
          dim {
            size: 48
          }
        }
      }
    }
  }
}
node {
  name: "eegnet_network/input_layer/conv1/Conv2D"
  op: "Conv2D"
  input: "shuffle_batch"
  input: "eegnet_network/input_layer/conv1/weights/read"
  attr {
    key: "T"
    value {
      type: DT_FLOAT
    }
  }
  attr {
    key: "_output_shapes"
    value {
      list {
        shape {
          dim {
            size: 16
          }
          dim {
            size: 1
          }
          dim {
            size: 2400
          }
          dim {
            size: 48
          }
        }
      }
    }
  }
  attr {
    key: "data_format"
    value {
      s: "NHWC"
    }
  }
  attr {
    key: "padding"
    value {
      s: "SAME"
    }
  }
  attr {
    key: "strides"
    value {
      list {
        i: 1
        i: 1
        i: 1
        i: 1
      }
    }
  }
  attr {
    key: "use_cudnn_on_gpu"
    value {
      b: true
    }
  }
}
node {
  name: "eegnet_network/input_layer/conv1/BatchNorm/beta"
  op: "Variable"
  attr {
    key: "_output_shapes"
    value {
      list {
        shape {
          dim {
            size: 48
          }
        }
      }
    }
  }
  attr {
    key: "container"
    value {
      s: ""
    }
  }
  attr {
    key: "dtype"
    value {
      type: DT_FLOAT
    }
  }
  attr {
    key: "shape"
    value {
      shape {
        dim {
          size: 48
        }
      }
    }
  }
  attr {
    key: "shared_name"
    value {
      s: ""
    }
  }
}
node {
  name: "eegnet_network/input_layer/conv1/BatchNorm/beta/Initializer/zeros"
  op: "Const"
  attr {
    key: "_class"
    value {
      list {
        s: "loc:@eegnet_network/input_layer/conv1/BatchNorm/beta"
      }
    }
  }
  attr {
    key: "_output_shapes"
    value {
      list {
        shape {
          dim {
            size: 48
          }
        }
      }
    }
  }
  attr {
    key: "dtype"
    value {
      type: DT_FLOAT
    }
  }
  attr {
    key: "value"
    value {
      tensor {
        dtype: DT_FLOAT
        tensor_shape {
          dim {
            size: 48
          }
        }
        float_val: 0.0
      }
    }
  }
}
node {
  name: "eegnet_network/input_layer/conv1/BatchNorm/beta/Assign"
  op: "Assign"
  input: "eegnet_network/input_layer/conv1/BatchNorm/beta"
  input: "eegnet_network/input_layer/conv1/BatchNorm/beta/Initializer/zeros"
  attr {
    key: "T"
    value {
      type: DT_FLOAT
    }
  }
  attr {
    key: "_class"
    value {
      list {
        s: "loc:@eegnet_network/input_layer/conv1/BatchNorm/beta"
      }
    }
  }
  attr {
    key: "_output_shapes"
    value {
      list {
        shape {
          dim {
            size: 48
          }
        }
      }
    }
  }
  attr {
    key: "use_locking"
    value {
      b: true
    }
  }
  attr {
    key: "validate_shape"
    value {
      b: true
    }
  }
}
node {
  name: "eegnet_network/input_layer/conv1/BatchNorm/beta/read"
  op: "Identity"
  input: "eegnet_network/input_layer/conv1/BatchNorm/beta"
  attr {
    key: "T"
    value {
      type: DT_FLOAT
    }
  }
  attr {
    key: "_class"
    value {
      list {
        s: "loc:@eegnet_network/input_layer/conv1/BatchNorm/beta"
      }
    }
  }
  attr {
    key: "_output_shapes"
    value {
      list {
        shape {
          dim {
            size: 48
          }
        }
      }
    }
  }
}
node {
  name: "eegnet_network/input_layer/conv1/BatchNorm/moving_mean"
  op: "Variable"
  attr {
    key: "_output_shapes"
    value {
      list {
        shape {
          dim {
            size: 48
          }
        }
      }
    }
  }
  attr {
    key: "container"
    value {
      s: ""
    }
  }
  attr {
    key: "dtype"
    value {
      type: DT_FLOAT
    }
  }
  attr {
    key: "shape"
    value {
      shape {
        dim {
          size: 48
        }
      }
    }
  }
  attr {
    key: "shared_name"
    value {
      s: ""
    }
  }
}
node {
  name: "eegnet_network/input_layer/conv1/BatchNorm/moving_mean/Initializer/zeros"
  op: "Const"
  attr {
    key: "_class"
    value {
      list {
        s: "loc:@eegnet_network/input_layer/conv1/BatchNorm/moving_mean"
      }
    }
  }
  attr {
    key: "_output_shapes"
    value {
      list {
        shape {
          dim {
            size: 48
          }
        }
      }
    }
  }
  attr {
    key: "dtype"
    value {
      type: DT_FLOAT
    }
  }
  attr {
    key: "value"
    value {
      tensor {
        dtype: DT_FLOAT
        tensor_shape {
          dim {
            size: 48
          }
        }
        float_val: 0.0
      }
    }
  }
}
node {
  name: "eegnet_network/input_layer/conv1/BatchNorm/moving_mean/Assign"
  op: "Assign"
  input: "eegnet_network/input_layer/conv1/BatchNorm/moving_mean"
  input: "eegnet_network/input_layer/conv1/BatchNorm/moving_mean/Initializer/zeros"
  attr {
    key: "T"
    value {
      type: DT_FLOAT
    }
  }
  attr {
    key: "_class"
    value {
      list {
        s: "loc:@eegnet_network/input_layer/conv1/BatchNorm/moving_mean"
      }
    }
  }
  attr {
    key: "_output_shapes"
    value {
      list {
        shape {
          dim {
            size: 48
          }
        }
      }
    }
  }
  attr {
    key: "use_locking"
    value {
      b: true
    }
  }
  attr {
    key: "validate_shape"
    value {
      b: true
    }
  }
}
node {
  name: "eegnet_network/input_layer/conv1/BatchNorm/moving_mean/read"
  op: "Identity"
  input: "eegnet_network/input_layer/conv1/BatchNorm/moving_mean"
  attr {
    key: "T"
    value {
      type: DT_FLOAT
    }
  }
  attr {
    key: "_class"
    value {
      list {
        s: "loc:@eegnet_network/input_layer/conv1/BatchNorm/moving_mean"
      }
    }
  }
  attr {
    key: "_output_shapes"
    value {
      list {
        shape {
          dim {
            size: 48
          }
        }
      }
    }
  }
}
node {
  name: "eegnet_network/input_layer/conv1/BatchNorm/moving_variance"
  op: "Variable"
  attr {
    key: "_output_shapes"
    value {
      list {
        shape {
          dim {
            size: 48
          }
        }
      }
    }
  }
  attr {
    key: "container"
    value {
      s: ""
    }
  }
  attr {
    key: "dtype"
    value {
      type: DT_FLOAT
    }
  }
  attr {
    key: "shape"
    value {
      shape {
        dim {
          size: 48
        }
      }
    }
  }
  attr {
    key: "shared_name"
    value {
      s: ""
    }
  }
}
node {
  name: "eegnet_network/input_layer/conv1/BatchNorm/moving_variance/Initializer/ones"
  op: "Const"
  attr {
    key: "_class"
    value {
      list {
        s: "loc:@eegnet_network/input_layer/conv1/BatchNorm/moving_variance"
      }
    }
  }
  attr {
    key: "_output_shapes"
    value {
      list {
        shape {
          dim {
            size: 48
          }
        }
      }
    }
  }
  attr {
    key: "dtype"
    value {
      type: DT_FLOAT
    }
  }
  attr {
    key: "value"
    value {
      tensor {
        dtype: DT_FLOAT
        tensor_shape {
          dim {
            size: 48
          }
        }
        float_val: 1.0
      }
    }
  }
}
node {
  name: "eegnet_network/input_layer/conv1/BatchNorm/moving_variance/Assign"
  op: "Assign"
  input: "eegnet_network/input_layer/conv1/BatchNorm/moving_variance"
  input: "eegnet_network/input_layer/conv1/BatchNorm/moving_variance/Initializer/ones"
  attr {
    key: "T"
    value {
      type: DT_FLOAT
    }
  }
  attr {
    key: "_class"
    value {
      list {
        s: "loc:@eegnet_network/input_layer/conv1/BatchNorm/moving_variance"
      }
    }
  }
  attr {
    key: "_output_shapes"
    value {
      list {
        shape {
          dim {
            size: 48
          }
        }
      }
    }
  }
  attr {
    key: "use_locking"
    value {
      b: true
    }
  }
  attr {
    key: "validate_shape"
    value {
      b: true
    }
  }
}
node {
  name: "eegnet_network/input_layer/conv1/BatchNorm/moving_variance/read"
  op: "Identity"
  input: "eegnet_network/input_layer/conv1/BatchNorm/moving_variance"
  attr {
    key: "T"
    value {
      type: DT_FLOAT
    }
  }
  attr {
    key: "_class"
    value {
      list {
        s: "loc:@eegnet_network/input_layer/conv1/BatchNorm/moving_variance"
      }
    }
  }
  attr {
    key: "_output_shapes"
    value {
      list {
        shape {
          dim {
            size: 48
          }
        }
      }
    }
  }
}
node {
  name: "eegnet_network/input_layer/conv1/BatchNorm/Add/y"
  op: "Const"
  attr {
    key: "_output_shapes"
    value {
      list {
        shape {
        }
      }
    }
  }
  attr {
    key: "dtype"
    value {
      type: DT_FLOAT
    }
  }
  attr {
    key: "value"
    value {
      tensor {
        dtype: DT_FLOAT
        tensor_shape {
        }
        float_val: 0.0
      }
    }
  }
}
node {
  name: "eegnet_network/input_layer/conv1/BatchNorm/Add"
  op: "Add"
  input: "eegnet_network/input_layer/conv1/BatchNorm/moving_mean/read"
  input: "eegnet_network/input_layer/conv1/BatchNorm/Add/y"
  attr {
    key: "T"
    value {
      type: DT_FLOAT
    }
  }
  attr {
    key: "_output_shapes"
    value {
      list {
        shape {
          dim {
            size: 48
          }
        }
      }
    }
  }
}
node {
  name: "eegnet_network/input_layer/conv1/BatchNorm/moments/sufficient_statistics/Const"
  op: "Const"
  attr {
    key: "_output_shapes"
    value {
      list {
        shape {
        }
      }
    }
  }
  attr {
    key: "dtype"
    value {
      type: DT_FLOAT
    }
  }
  attr {
    key: "value"
    value {
      tensor {
        dtype: DT_FLOAT
        tensor_shape {
        }
        float_val: 38400.0
      }
    }
  }
}
node {
  name: "eegnet_network/input_layer/conv1/BatchNorm/moments/sufficient_statistics/Sub"
  op: "Sub"
  input: "eegnet_network/input_layer/conv1/Conv2D"
  input: "eegnet_network/input_layer/conv1/BatchNorm/Add"
  attr {
    key: "T"
    value {
      type: DT_FLOAT
    }
  }
  attr {
    key: "_output_shapes"
    value {
      list {
        shape {
          dim {
            size: 16
          }
          dim {
            size: 1
          }
          dim {
            size: 2400
          }
          dim {
            size: 48
          }
        }
      }
    }
  }
}
node {
  name: "eegnet_network/input_layer/conv1/BatchNorm/moments/sufficient_statistics/SquaredDifference"
  op: "SquaredDifference"
  input: "eegnet_network/input_layer/conv1/Conv2D"
  input: "eegnet_network/input_layer/conv1/BatchNorm/Add"
  attr {
    key: "T"
    value {
      type: DT_FLOAT
    }
  }
  attr {
    key: "_output_shapes"
    value {
      list {
        shape {
          dim {
            size: 16
          }
          dim {
            size: 1
          }
          dim {
            size: 2400
          }
          dim {
            size: 48
          }
        }
      }
    }
  }
}
node {
  name: "eegnet_network/input_layer/conv1/BatchNorm/moments/sufficient_statistics/mean_ss/reduction_indices"
  op: "Const"
  attr {
    key: "_output_shapes"
    value {
      list {
        shape {
          dim {
            size: 3
          }
        }
      }
    }
  }
  attr {
    key: "dtype"
    value {
      type: DT_INT32
    }
  }
  attr {
    key: "value"
    value {
      tensor {
        dtype: DT_INT32
        tensor_shape {
          dim {
            size: 3
          }
        }
        tensor_content: "\000\000\000\000\001\000\000\000\002\000\000\000"
      }
    }
  }
}
node {
  name: "eegnet_network/input_layer/conv1/BatchNorm/moments/sufficient_statistics/mean_ss"
  op: "Sum"
  input: "eegnet_network/input_layer/conv1/BatchNorm/moments/sufficient_statistics/Sub"
  input: "eegnet_network/input_layer/conv1/BatchNorm/moments/sufficient_statistics/mean_ss/reduction_indices"
  attr {
    key: "T"
    value {
      type: DT_FLOAT
    }
  }
  attr {
    key: "Tidx"
    value {
      type: DT_INT32
    }
  }
  attr {
    key: "_output_shapes"
    value {
      list {
        shape {
          dim {
            size: 48
          }
        }
      }
    }
  }
  attr {
    key: "keep_dims"
    value {
      b: false
    }
  }
}
node {
  name: "eegnet_network/input_layer/conv1/BatchNorm/moments/sufficient_statistics/var_ss/reduction_indices"
  op: "Const"
  attr {
    key: "_output_shapes"
    value {
      list {
        shape {
          dim {
            size: 3
          }
        }
      }
    }
  }
  attr {
    key: "dtype"
    value {
      type: DT_INT32
    }
  }
  attr {
    key: "value"
    value {
      tensor {
        dtype: DT_INT32
        tensor_shape {
          dim {
            size: 3
          }
        }
        tensor_content: "\000\000\000\000\001\000\000\000\002\000\000\000"
      }
    }
  }
}
node {
  name: "eegnet_network/input_layer/conv1/BatchNorm/moments/sufficient_statistics/var_ss"
  op: "Sum"
  input: "eegnet_network/input_layer/conv1/BatchNorm/moments/sufficient_statistics/SquaredDifference"
  input: "eegnet_network/input_layer/conv1/BatchNorm/moments/sufficient_statistics/var_ss/reduction_indices"
  attr {
    key: "T"
    value {
      type: DT_FLOAT
    }
  }
  attr {
    key: "Tidx"
    value {
      type: DT_INT32
    }
  }
  attr {
    key: "_output_shapes"
    value {
      list {
        shape {
          dim {
            size: 48
          }
        }
      }
    }
  }
  attr {
    key: "keep_dims"
    value {
      b: false
    }
  }
}
node {
  name: "eegnet_network/input_layer/conv1/BatchNorm/moments/normalize/divisor"
  op: "Inv"
  input: "eegnet_network/input_layer/conv1/BatchNorm/moments/sufficient_statistics/Const"
  input: "^eegnet_network/input_layer/conv1/BatchNorm/moments/sufficient_statistics/mean_ss"
  input: "^eegnet_network/input_layer/conv1/BatchNorm/moments/sufficient_statistics/var_ss"
  attr {
    key: "T"
    value {
      type: DT_FLOAT
    }
  }
  attr {
    key: "_output_shapes"
    value {
      list {
        shape {
        }
      }
    }
  }
}
node {
  name: "eegnet_network/input_layer/conv1/BatchNorm/moments/normalize/shifted_mean"
  op: "Mul"
  input: "eegnet_network/input_layer/conv1/BatchNorm/moments/sufficient_statistics/mean_ss"
  input: "eegnet_network/input_layer/conv1/BatchNorm/moments/normalize/divisor"
  attr {
    key: "T"
    value {
      type: DT_FLOAT
    }
  }
  attr {
    key: "_output_shapes"
    value {
      list {
        shape {
          dim {
            size: 48
          }
        }
      }
    }
  }
}
node {
  name: "eegnet_network/input_layer/conv1/BatchNorm/moments/normalize/mean"
  op: "Add"
  input: "eegnet_network/input_layer/conv1/BatchNorm/moments/normalize/shifted_mean"
  input: "eegnet_network/input_layer/conv1/BatchNorm/Add"
  attr {
    key: "T"
    value {
      type: DT_FLOAT
    }
  }
  attr {
    key: "_output_shapes"
    value {
      list {
        shape {
          dim {
            size: 48
          }
        }
      }
    }
  }
}
node {
  name: "eegnet_network/input_layer/conv1/BatchNorm/moments/normalize/Mul"
  op: "Mul"
  input: "eegnet_network/input_layer/conv1/BatchNorm/moments/sufficient_statistics/var_ss"
  input: "eegnet_network/input_layer/conv1/BatchNorm/moments/normalize/divisor"
  attr {
    key: "T"
    value {
      type: DT_FLOAT
    }
  }
  attr {
    key: "_output_shapes"
    value {
      list {
        shape {
          dim {
            size: 48
          }
        }
      }
    }
  }
}
node {
  name: "eegnet_network/input_layer/conv1/BatchNorm/moments/normalize/Square"
  op: "Square"
  input: "eegnet_network/input_layer/conv1/BatchNorm/moments/normalize/shifted_mean"
  attr {
    key: "T"
    value {
      type: DT_FLOAT
    }
  }
  attr {
    key: "_output_shapes"
    value {
      list {
        shape {
          dim {
            size: 48
          }
        }
      }
    }
  }
}
node {
  name: "eegnet_network/input_layer/conv1/BatchNorm/moments/normalize/variance"
  op: "Sub"
  input: "eegnet_network/input_layer/conv1/BatchNorm/moments/normalize/Mul"
  input: "eegnet_network/input_layer/conv1/BatchNorm/moments/normalize/Square"
  attr {
    key: "T"
    value {
      type: DT_FLOAT
    }
  }
  attr {
    key: "_output_shapes"
    value {
      list {
        shape {
          dim {
            size: 48
          }
        }
      }
    }
  }
}
node {
  name: "eegnet_network/input_layer/conv1/BatchNorm/AssignMovingAvg/decay"
  op: "Const"
  attr {
    key: "_class"
    value {
      list {
        s: "loc:@eegnet_network/input_layer/conv1/BatchNorm/moving_mean"
      }
    }
  }
  attr {
    key: "_output_shapes"
    value {
      list {
        shape {
        }
      }
    }
  }
  attr {
    key: "dtype"
    value {
      type: DT_FLOAT
    }
  }
  attr {
    key: "value"
    value {
      tensor {
        dtype: DT_FLOAT
        tensor_shape {
        }
        float_val: 0.0010000000475
      }
    }
  }
}
node {
  name: "eegnet_network/input_layer/conv1/BatchNorm/AssignMovingAvg/sub"
  op: "Sub"
  input: "eegnet_network/input_layer/conv1/BatchNorm/moving_mean/read"
  input: "eegnet_network/input_layer/conv1/BatchNorm/moments/normalize/mean"
  attr {
    key: "T"
    value {
      type: DT_FLOAT
    }
  }
  attr {
    key: "_class"
    value {
      list {
        s: "loc:@eegnet_network/input_layer/conv1/BatchNorm/moving_mean"
      }
    }
  }
  attr {
    key: "_output_shapes"
    value {
      list {
        shape {
          dim {
            size: 48
          }
        }
      }
    }
  }
}
node {
  name: "eegnet_network/input_layer/conv1/BatchNorm/AssignMovingAvg/mul"
  op: "Mul"
  input: "eegnet_network/input_layer/conv1/BatchNorm/AssignMovingAvg/sub"
  input: "eegnet_network/input_layer/conv1/BatchNorm/AssignMovingAvg/decay"
  attr {
    key: "T"
    value {
      type: DT_FLOAT
    }
  }
  attr {
    key: "_class"
    value {
      list {
        s: "loc:@eegnet_network/input_layer/conv1/BatchNorm/moving_mean"
      }
    }
  }
  attr {
    key: "_output_shapes"
    value {
      list {
        shape {
          dim {
            size: 48
          }
        }
      }
    }
  }
}
node {
  name: "eegnet_network/input_layer/conv1/BatchNorm/AssignMovingAvg"
  op: "AssignSub"
  input: "eegnet_network/input_layer/conv1/BatchNorm/moving_mean"
  input: "eegnet_network/input_layer/conv1/BatchNorm/AssignMovingAvg/mul"
  attr {
    key: "T"
    value {
      type: DT_FLOAT
    }
  }
  attr {
    key: "_class"
    value {
      list {
        s: "loc:@eegnet_network/input_layer/conv1/BatchNorm/moving_mean"
      }
    }
  }
  attr {
    key: "_output_shapes"
    value {
      list {
        shape {
          dim {
            size: 48
          }
        }
      }
    }
  }
  attr {
    key: "use_locking"
    value {
      b: false
    }
  }
}
node {
  name: "eegnet_network/input_layer/conv1/BatchNorm/AssignMovingAvg_1/decay"
  op: "Const"
  attr {
    key: "_class"
    value {
      list {
        s: "loc:@eegnet_network/input_layer/conv1/BatchNorm/moving_variance"
      }
    }
  }
  attr {
    key: "_output_shapes"
    value {
      list {
        shape {
        }
      }
    }
  }
  attr {
    key: "dtype"
    value {
      type: DT_FLOAT
    }
  }
  attr {
    key: "value"
    value {
      tensor {
        dtype: DT_FLOAT
        tensor_shape {
        }
        float_val: 0.0010000000475
      }
    }
  }
}
node {
  name: "eegnet_network/input_layer/conv1/BatchNorm/AssignMovingAvg_1/sub"
  op: "Sub"
  input: "eegnet_network/input_layer/conv1/BatchNorm/moving_variance/read"
  input: "eegnet_network/input_layer/conv1/BatchNorm/moments/normalize/variance"
  attr {
    key: "T"
    value {
      type: DT_FLOAT
    }
  }
  attr {
    key: "_class"
    value {
      list {
        s: "loc:@eegnet_network/input_layer/conv1/BatchNorm/moving_variance"
      }
    }
  }
  attr {
    key: "_output_shapes"
    value {
      list {
        shape {
          dim {
            size: 48
          }
        }
      }
    }
  }
}
node {
  name: "eegnet_network/input_layer/conv1/BatchNorm/AssignMovingAvg_1/mul"
  op: "Mul"
  input: "eegnet_network/input_layer/conv1/BatchNorm/AssignMovingAvg_1/sub"
  input: "eegnet_network/input_layer/conv1/BatchNorm/AssignMovingAvg_1/decay"
  attr {
    key: "T"
    value {
      type: DT_FLOAT
    }
  }
  attr {
    key: "_class"
    value {
      list {
        s: "loc:@eegnet_network/input_layer/conv1/BatchNorm/moving_variance"
      }
    }
  }
  attr {
    key: "_output_shapes"
    value {
      list {
        shape {
          dim {
            size: 48
          }
        }
      }
    }
  }
}
node {
  name: "eegnet_network/input_layer/conv1/BatchNorm/AssignMovingAvg_1"
  op: "AssignSub"
  input: "eegnet_network/input_layer/conv1/BatchNorm/moving_variance"
  input: "eegnet_network/input_layer/conv1/BatchNorm/AssignMovingAvg_1/mul"
  attr {
    key: "T"
    value {
      type: DT_FLOAT
    }
  }
  attr {
    key: "_class"
    value {
      list {
        s: "loc:@eegnet_network/input_layer/conv1/BatchNorm/moving_variance"
      }
    }
  }
  attr {
    key: "_output_shapes"
    value {
      list {
        shape {
          dim {
            size: 48
          }
        }
      }
    }
  }
  attr {
    key: "use_locking"
    value {
      b: false
    }
  }
}
node {
  name: "eegnet_network/input_layer/conv1/BatchNorm/batchnorm/add/y"
  op: "Const"
  attr {
    key: "_output_shapes"
    value {
      list {
        shape {
        }
      }
    }
  }
  attr {
    key: "dtype"
    value {
      type: DT_FLOAT
    }
  }
  attr {
    key: "value"
    value {
      tensor {
        dtype: DT_FLOAT
        tensor_shape {
        }
        float_val: 0.0010000000475
      }
    }
  }
}
node {
  name: "eegnet_network/input_layer/conv1/BatchNorm/batchnorm/add"
  op: "Add"
  input: "eegnet_network/input_layer/conv1/BatchNorm/moments/normalize/variance"
  input: "eegnet_network/input_layer/conv1/BatchNorm/batchnorm/add/y"
  attr {
    key: "T"
    value {
      type: DT_FLOAT
    }
  }
  attr {
    key: "_output_shapes"
    value {
      list {
        shape {
          dim {
            size: 48
          }
        }
      }
    }
  }
}
node {
  name: "eegnet_network/input_layer/conv1/BatchNorm/batchnorm/Rsqrt"
  op: "Rsqrt"
  input: "eegnet_network/input_layer/conv1/BatchNorm/batchnorm/add"
  attr {
    key: "T"
    value {
      type: DT_FLOAT
    }
  }
  attr {
    key: "_output_shapes"
    value {
      list {
        shape {
          dim {
            size: 48
          }
        }
      }
    }
  }
}
node {
  name: "eegnet_network/input_layer/conv1/BatchNorm/batchnorm/mul"
  op: "Mul"
  input: "eegnet_network/input_layer/conv1/Conv2D"
  input: "eegnet_network/input_layer/conv1/BatchNorm/batchnorm/Rsqrt"
  attr {
    key: "T"
    value {
      type: DT_FLOAT
    }
  }
  attr {
    key: "_output_shapes"
    value {
      list {
        shape {
          dim {
            size: 16
          }
          dim {
            size: 1
          }
          dim {
            size: 2400
          }
          dim {
            size: 48
          }
        }
      }
    }
  }
}
node {
  name: "eegnet_network/input_layer/conv1/BatchNorm/batchnorm/mul_1"
  op: "Mul"
  input: "eegnet_network/input_layer/conv1/BatchNorm/moments/normalize/mean"
  input: "eegnet_network/input_layer/conv1/BatchNorm/batchnorm/Rsqrt"
  attr {
    key: "T"
    value {
      type: DT_FLOAT
    }
  }
  attr {
    key: "_output_shapes"
    value {
      list {
        shape {
          dim {
            size: 48
          }
        }
      }
    }
  }
}
node {
  name: "eegnet_network/input_layer/conv1/BatchNorm/batchnorm/sub"
  op: "Sub"
  input: "eegnet_network/input_layer/conv1/BatchNorm/beta/read"
  input: "eegnet_network/input_layer/conv1/BatchNorm/batchnorm/mul_1"
  attr {
    key: "T"
    value {
      type: DT_FLOAT
    }
  }
  attr {
    key: "_output_shapes"
    value {
      list {
        shape {
          dim {
            size: 48
          }
        }
      }
    }
  }
}
node {
  name: "eegnet_network/input_layer/conv1/BatchNorm/batchnorm/add_1"
  op: "Add"
  input: "eegnet_network/input_layer/conv1/BatchNorm/batchnorm/mul"
  input: "eegnet_network/input_layer/conv1/BatchNorm/batchnorm/sub"
  attr {
    key: "T"
    value {
      type: DT_FLOAT
    }
  }
  attr {
    key: "_output_shapes"
    value {
      list {
        shape {
          dim {
            size: 16
          }
          dim {
            size: 1
          }
          dim {
            size: 2400
          }
          dim {
            size: 48
          }
        }
      }
    }
  }
}
node {
  name: "eegnet_network/hidden/layer1/dilconv/weights"
  op: "Variable"
  attr {
    key: "_output_shapes"
    value {
      list {
        shape {
          dim {
            size: 1
          }
          dim {
            size: 3
          }
          dim {
            size: 48
          }
          dim {
            size: 96
          }
        }
      }
    }
  }
  attr {
    key: "container"
    value {
      s: ""
    }
  }
  attr {
    key: "dtype"
    value {
      type: DT_FLOAT
    }
  }
  attr {
    key: "shape"
    value {
      shape {
        dim {
          size: 1
        }
        dim {
          size: 3
        }
        dim {
          size: 48
        }
        dim {
          size: 96
        }
      }
    }
  }
  attr {
    key: "shared_name"
    value {
      s: ""
    }
  }
}
node {
  name: "eegnet_network/hidden/layer1/dilconv/weights/Initializer/random_uniform/shape"
  op: "Const"
  attr {
    key: "_class"
    value {
      list {
        s: "loc:@eegnet_network/hidden/layer1/dilconv/weights"
      }
    }
  }
  attr {
    key: "_output_shapes"
    value {
      list {
        shape {
          dim {
            size: 4
          }
        }
      }
    }
  }
  attr {
    key: "dtype"
    value {
      type: DT_INT32
    }
  }
  attr {
    key: "value"
    value {
      tensor {
        dtype: DT_INT32
        tensor_shape {
          dim {
            size: 4
          }
        }
        tensor_content: "\001\000\000\000\003\000\000\0000\000\000\000`\000\000\000"
      }
    }
  }
}
node {
  name: "eegnet_network/hidden/layer1/dilconv/weights/Initializer/random_uniform/min"
  op: "Const"
  attr {
    key: "_class"
    value {
      list {
        s: "loc:@eegnet_network/hidden/layer1/dilconv/weights"
      }
    }
  }
  attr {
    key: "_output_shapes"
    value {
      list {
        shape {
        }
      }
    }
  }
  attr {
    key: "dtype"
    value {
      type: DT_FLOAT
    }
  }
  attr {
    key: "value"
    value {
      tensor {
        dtype: DT_FLOAT
        tensor_shape {
        }
        float_val: -0.117851130664
      }
    }
  }
}
node {
  name: "eegnet_network/hidden/layer1/dilconv/weights/Initializer/random_uniform/max"
  op: "Const"
  attr {
    key: "_class"
    value {
      list {
        s: "loc:@eegnet_network/hidden/layer1/dilconv/weights"
      }
    }
  }
  attr {
    key: "_output_shapes"
    value {
      list {
        shape {
        }
      }
    }
  }
  attr {
    key: "dtype"
    value {
      type: DT_FLOAT
    }
  }
  attr {
    key: "value"
    value {
      tensor {
        dtype: DT_FLOAT
        tensor_shape {
        }
        float_val: 0.117851130664
      }
    }
  }
}
node {
  name: "eegnet_network/hidden/layer1/dilconv/weights/Initializer/random_uniform/RandomUniform"
  op: "RandomUniform"
  input: "eegnet_network/hidden/layer1/dilconv/weights/Initializer/random_uniform/shape"
  attr {
    key: "T"
    value {
      type: DT_INT32
    }
  }
  attr {
    key: "_class"
    value {
      list {
        s: "loc:@eegnet_network/hidden/layer1/dilconv/weights"
      }
    }
  }
  attr {
    key: "_output_shapes"
    value {
      list {
        shape {
          dim {
            size: 1
          }
          dim {
            size: 3
          }
          dim {
            size: 48
          }
          dim {
            size: 96
          }
        }
      }
    }
  }
  attr {
    key: "dtype"
    value {
      type: DT_FLOAT
    }
  }
  attr {
    key: "seed"
    value {
      i: 0
    }
  }
  attr {
    key: "seed2"
    value {
      i: 0
    }
  }
}
node {
  name: "eegnet_network/hidden/layer1/dilconv/weights/Initializer/random_uniform/sub"
  op: "Sub"
  input: "eegnet_network/hidden/layer1/dilconv/weights/Initializer/random_uniform/max"
  input: "eegnet_network/hidden/layer1/dilconv/weights/Initializer/random_uniform/min"
  attr {
    key: "T"
    value {
      type: DT_FLOAT
    }
  }
  attr {
    key: "_class"
    value {
      list {
        s: "loc:@eegnet_network/hidden/layer1/dilconv/weights"
      }
    }
  }
  attr {
    key: "_output_shapes"
    value {
      list {
        shape {
        }
      }
    }
  }
}
node {
  name: "eegnet_network/hidden/layer1/dilconv/weights/Initializer/random_uniform/mul"
  op: "Mul"
  input: "eegnet_network/hidden/layer1/dilconv/weights/Initializer/random_uniform/RandomUniform"
  input: "eegnet_network/hidden/layer1/dilconv/weights/Initializer/random_uniform/sub"
  attr {
    key: "T"
    value {
      type: DT_FLOAT
    }
  }
  attr {
    key: "_class"
    value {
      list {
        s: "loc:@eegnet_network/hidden/layer1/dilconv/weights"
      }
    }
  }
  attr {
    key: "_output_shapes"
    value {
      list {
        shape {
          dim {
            size: 1
          }
          dim {
            size: 3
          }
          dim {
            size: 48
          }
          dim {
            size: 96
          }
        }
      }
    }
  }
}
node {
  name: "eegnet_network/hidden/layer1/dilconv/weights/Initializer/random_uniform"
  op: "Add"
  input: "eegnet_network/hidden/layer1/dilconv/weights/Initializer/random_uniform/mul"
  input: "eegnet_network/hidden/layer1/dilconv/weights/Initializer/random_uniform/min"
  attr {
    key: "T"
    value {
      type: DT_FLOAT
    }
  }
  attr {
    key: "_class"
    value {
      list {
        s: "loc:@eegnet_network/hidden/layer1/dilconv/weights"
      }
    }
  }
  attr {
    key: "_output_shapes"
    value {
      list {
        shape {
          dim {
            size: 1
          }
          dim {
            size: 3
          }
          dim {
            size: 48
          }
          dim {
            size: 96
          }
        }
      }
    }
  }
}
node {
  name: "eegnet_network/hidden/layer1/dilconv/weights/Assign"
  op: "Assign"
  input: "eegnet_network/hidden/layer1/dilconv/weights"
  input: "eegnet_network/hidden/layer1/dilconv/weights/Initializer/random_uniform"
  attr {
    key: "T"
    value {
      type: DT_FLOAT
    }
  }
  attr {
    key: "_class"
    value {
      list {
        s: "loc:@eegnet_network/hidden/layer1/dilconv/weights"
      }
    }
  }
  attr {
    key: "_output_shapes"
    value {
      list {
        shape {
          dim {
            size: 1
          }
          dim {
            size: 3
          }
          dim {
            size: 48
          }
          dim {
            size: 96
          }
        }
      }
    }
  }
  attr {
    key: "use_locking"
    value {
      b: true
    }
  }
  attr {
    key: "validate_shape"
    value {
      b: true
    }
  }
}
node {
  name: "eegnet_network/hidden/layer1/dilconv/weights/read"
  op: "Identity"
  input: "eegnet_network/hidden/layer1/dilconv/weights"
  attr {
    key: "T"
    value {
      type: DT_FLOAT
    }
  }
  attr {
    key: "_class"
    value {
      list {
        s: "loc:@eegnet_network/hidden/layer1/dilconv/weights"
      }
    }
  }
  attr {
    key: "_output_shapes"
    value {
      list {
        shape {
          dim {
            size: 1
          }
          dim {
            size: 3
          }
          dim {
            size: 48
          }
          dim {
            size: 96
          }
        }
      }
    }
  }
}
node {
  name: "eegnet_network/hidden/layer1/dilconv/atrous_conv2d/SpaceToBatchND/block_shape"
  op: "Const"
  attr {
    key: "_output_shapes"
    value {
      list {
        shape {
          dim {
            size: 2
          }
        }
      }
    }
  }
  attr {
    key: "dtype"
    value {
      type: DT_INT32
    }
  }
  attr {
    key: "value"
    value {
      tensor {
        dtype: DT_INT32
        tensor_shape {
          dim {
            size: 2
          }
        }
        tensor_content: "\002\000\000\000\002\000\000\000"
      }
    }
  }
}
node {
  name: "eegnet_network/hidden/layer1/dilconv/atrous_conv2d/SpaceToBatchND/paddings"
  op: "Const"
  attr {
    key: "_output_shapes"
    value {
      list {
        shape {
          dim {
            size: 2
          }
          dim {
            size: 2
          }
        }
      }
    }
  }
  attr {
    key: "dtype"
    value {
      type: DT_INT32
    }
  }
  attr {
    key: "value"
    value {
      tensor {
        dtype: DT_INT32
        tensor_shape {
          dim {
            size: 2
          }
          dim {
            size: 2
          }
        }
        tensor_content: "\000\000\000\000\001\000\000\000\002\000\000\000\002\000\000\000"
      }
    }
  }
}
node {
  name: "eegnet_network/hidden/layer1/dilconv/atrous_conv2d/SpaceToBatchND"
  op: "SpaceToBatchND"
  input: "eegnet_network/input_layer/conv1/BatchNorm/batchnorm/add_1"
  input: "eegnet_network/hidden/layer1/dilconv/atrous_conv2d/SpaceToBatchND/block_shape"
  input: "eegnet_network/hidden/layer1/dilconv/atrous_conv2d/SpaceToBatchND/paddings"
  attr {
    key: "T"
    value {
      type: DT_FLOAT
    }
  }
  attr {
    key: "Tblock_shape"
    value {
      type: DT_INT32
    }
  }
  attr {
    key: "Tpaddings"
    value {
      type: DT_INT32
    }
  }
  attr {
    key: "_output_shapes"
    value {
      list {
        shape {
          dim {
            size: 64
          }
          dim {
            size: 1
          }
          dim {
            size: 1202
          }
          dim {
            size: 48
          }
        }
      }
    }
  }
}
node {
  name: "eegnet_network/hidden/layer1/dilconv/atrous_conv2d"
  op: "Conv2D"
  input: "eegnet_network/hidden/layer1/dilconv/atrous_conv2d/SpaceToBatchND"
  input: "eegnet_network/hidden/layer1/dilconv/weights/read"
  attr {
    key: "T"
    value {
      type: DT_FLOAT
    }
  }
  attr {
    key: "_output_shapes"
    value {
      list {
        shape {
          dim {
            size: 64
          }
          dim {
            size: 1
          }
          dim {
            size: 1200
          }
          dim {
            size: 96
          }
        }
      }
    }
  }
  attr {
    key: "data_format"
    value {
      s: "NHWC"
    }
  }
  attr {
    key: "padding"
    value {
      s: "VALID"
    }
  }
  attr {
    key: "strides"
    value {
      list {
        i: 1
        i: 1
        i: 1
        i: 1
      }
    }
  }
  attr {
    key: "use_cudnn_on_gpu"
    value {
      b: true
    }
  }
}
node {
  name: "eegnet_network/hidden/layer1/dilconv/atrous_conv2d/BatchToSpaceND/block_shape"
  op: "Const"
  attr {
    key: "_output_shapes"
    value {
      list {
        shape {
          dim {
            size: 2
          }
        }
      }
    }
  }
  attr {
    key: "dtype"
    value {
      type: DT_INT32
    }
  }
  attr {
    key: "value"
    value {
      tensor {
        dtype: DT_INT32
        tensor_shape {
          dim {
            size: 2
          }
        }
        tensor_content: "\002\000\000\000\002\000\000\000"
      }
    }
  }
}
node {
  name: "eegnet_network/hidden/layer1/dilconv/atrous_conv2d/BatchToSpaceND/crops"
  op: "Const"
  attr {
    key: "_output_shapes"
    value {
      list {
        shape {
          dim {
            size: 2
          }
          dim {
            size: 2
          }
        }
      }
    }
  }
  attr {
    key: "dtype"
    value {
      type: DT_INT32
    }
  }
  attr {
    key: "value"
    value {
      tensor {
        dtype: DT_INT32
        tensor_shape {
          dim {
            size: 2
          }
          dim {
            size: 2
          }
        }
        tensor_content: "\000\000\000\000\001\000\000\000\000\000\000\000\000\000\000\000"
      }
    }
  }
}
node {
  name: "eegnet_network/hidden/layer1/dilconv/atrous_conv2d/BatchToSpaceND"
  op: "BatchToSpaceND"
  input: "eegnet_network/hidden/layer1/dilconv/atrous_conv2d"
  input: "eegnet_network/hidden/layer1/dilconv/atrous_conv2d/BatchToSpaceND/block_shape"
  input: "eegnet_network/hidden/layer1/dilconv/atrous_conv2d/BatchToSpaceND/crops"
  attr {
    key: "T"
    value {
      type: DT_FLOAT
    }
  }
  attr {
    key: "Tblock_shape"
    value {
      type: DT_INT32
    }
  }
  attr {
    key: "Tcrops"
    value {
      type: DT_INT32
    }
  }
  attr {
    key: "_output_shapes"
    value {
      list {
        shape {
          dim {
            size: 16
          }
          dim {
            size: 1
          }
          dim {
            size: 2400
          }
          dim {
            size: 96
          }
        }
      }
    }
  }
}
node {
  name: "eegnet_network/hidden/layer1/dilconv/BatchNorm/beta"
  op: "Variable"
  attr {
    key: "_output_shapes"
    value {
      list {
        shape {
          dim {
            size: 96
          }
        }
      }
    }
  }
  attr {
    key: "container"
    value {
      s: ""
    }
  }
  attr {
    key: "dtype"
    value {
      type: DT_FLOAT
    }
  }
  attr {
    key: "shape"
    value {
      shape {
        dim {
          size: 96
        }
      }
    }
  }
  attr {
    key: "shared_name"
    value {
      s: ""
    }
  }
}
node {
  name: "eegnet_network/hidden/layer1/dilconv/BatchNorm/beta/Initializer/zeros"
  op: "Const"
  attr {
    key: "_class"
    value {
      list {
        s: "loc:@eegnet_network/hidden/layer1/dilconv/BatchNorm/beta"
      }
    }
  }
  attr {
    key: "_output_shapes"
    value {
      list {
        shape {
          dim {
            size: 96
          }
        }
      }
    }
  }
  attr {
    key: "dtype"
    value {
      type: DT_FLOAT
    }
  }
  attr {
    key: "value"
    value {
      tensor {
        dtype: DT_FLOAT
        tensor_shape {
          dim {
            size: 96
          }
        }
        float_val: 0.0
      }
    }
  }
}
node {
  name: "eegnet_network/hidden/layer1/dilconv/BatchNorm/beta/Assign"
  op: "Assign"
  input: "eegnet_network/hidden/layer1/dilconv/BatchNorm/beta"
  input: "eegnet_network/hidden/layer1/dilconv/BatchNorm/beta/Initializer/zeros"
  attr {
    key: "T"
    value {
      type: DT_FLOAT
    }
  }
  attr {
    key: "_class"
    value {
      list {
        s: "loc:@eegnet_network/hidden/layer1/dilconv/BatchNorm/beta"
      }
    }
  }
  attr {
    key: "_output_shapes"
    value {
      list {
        shape {
          dim {
            size: 96
          }
        }
      }
    }
  }
  attr {
    key: "use_locking"
    value {
      b: true
    }
  }
  attr {
    key: "validate_shape"
    value {
      b: true
    }
  }
}
node {
  name: "eegnet_network/hidden/layer1/dilconv/BatchNorm/beta/read"
  op: "Identity"
  input: "eegnet_network/hidden/layer1/dilconv/BatchNorm/beta"
  attr {
    key: "T"
    value {
      type: DT_FLOAT
    }
  }
  attr {
    key: "_class"
    value {
      list {
        s: "loc:@eegnet_network/hidden/layer1/dilconv/BatchNorm/beta"
      }
    }
  }
  attr {
    key: "_output_shapes"
    value {
      list {
        shape {
          dim {
            size: 96
          }
        }
      }
    }
  }
}
node {
  name: "eegnet_network/hidden/layer1/dilconv/BatchNorm/moving_mean"
  op: "Variable"
  attr {
    key: "_output_shapes"
    value {
      list {
        shape {
          dim {
            size: 96
          }
        }
      }
    }
  }
  attr {
    key: "container"
    value {
      s: ""
    }
  }
  attr {
    key: "dtype"
    value {
      type: DT_FLOAT
    }
  }
  attr {
    key: "shape"
    value {
      shape {
        dim {
          size: 96
        }
      }
    }
  }
  attr {
    key: "shared_name"
    value {
      s: ""
    }
  }
}
node {
  name: "eegnet_network/hidden/layer1/dilconv/BatchNorm/moving_mean/Initializer/zeros"
  op: "Const"
  attr {
    key: "_class"
    value {
      list {
        s: "loc:@eegnet_network/hidden/layer1/dilconv/BatchNorm/moving_mean"
      }
    }
  }
  attr {
    key: "_output_shapes"
    value {
      list {
        shape {
          dim {
            size: 96
          }
        }
      }
    }
  }
  attr {
    key: "dtype"
    value {
      type: DT_FLOAT
    }
  }
  attr {
    key: "value"
    value {
      tensor {
        dtype: DT_FLOAT
        tensor_shape {
          dim {
            size: 96
          }
        }
        float_val: 0.0
      }
    }
  }
}
node {
  name: "eegnet_network/hidden/layer1/dilconv/BatchNorm/moving_mean/Assign"
  op: "Assign"
  input: "eegnet_network/hidden/layer1/dilconv/BatchNorm/moving_mean"
  input: "eegnet_network/hidden/layer1/dilconv/BatchNorm/moving_mean/Initializer/zeros"
  attr {
    key: "T"
    value {
      type: DT_FLOAT
    }
  }
  attr {
    key: "_class"
    value {
      list {
        s: "loc:@eegnet_network/hidden/layer1/dilconv/BatchNorm/moving_mean"
      }
    }
  }
  attr {
    key: "_output_shapes"
    value {
      list {
        shape {
          dim {
            size: 96
          }
        }
      }
    }
  }
  attr {
    key: "use_locking"
    value {
      b: true
    }
  }
  attr {
    key: "validate_shape"
    value {
      b: true
    }
  }
}
node {
  name: "eegnet_network/hidden/layer1/dilconv/BatchNorm/moving_mean/read"
  op: "Identity"
  input: "eegnet_network/hidden/layer1/dilconv/BatchNorm/moving_mean"
  attr {
    key: "T"
    value {
      type: DT_FLOAT
    }
  }
  attr {
    key: "_class"
    value {
      list {
        s: "loc:@eegnet_network/hidden/layer1/dilconv/BatchNorm/moving_mean"
      }
    }
  }
  attr {
    key: "_output_shapes"
    value {
      list {
        shape {
          dim {
            size: 96
          }
        }
      }
    }
  }
}
node {
  name: "eegnet_network/hidden/layer1/dilconv/BatchNorm/moving_variance"
  op: "Variable"
  attr {
    key: "_output_shapes"
    value {
      list {
        shape {
          dim {
            size: 96
          }
        }
      }
    }
  }
  attr {
    key: "container"
    value {
      s: ""
    }
  }
  attr {
    key: "dtype"
    value {
      type: DT_FLOAT
    }
  }
  attr {
    key: "shape"
    value {
      shape {
        dim {
          size: 96
        }
      }
    }
  }
  attr {
    key: "shared_name"
    value {
      s: ""
    }
  }
}
node {
  name: "eegnet_network/hidden/layer1/dilconv/BatchNorm/moving_variance/Initializer/ones"
  op: "Const"
  attr {
    key: "_class"
    value {
      list {
        s: "loc:@eegnet_network/hidden/layer1/dilconv/BatchNorm/moving_variance"
      }
    }
  }
  attr {
    key: "_output_shapes"
    value {
      list {
        shape {
          dim {
            size: 96
          }
        }
      }
    }
  }
  attr {
    key: "dtype"
    value {
      type: DT_FLOAT
    }
  }
  attr {
    key: "value"
    value {
      tensor {
        dtype: DT_FLOAT
        tensor_shape {
          dim {
            size: 96
          }
        }
        float_val: 1.0
      }
    }
  }
}
node {
  name: "eegnet_network/hidden/layer1/dilconv/BatchNorm/moving_variance/Assign"
  op: "Assign"
  input: "eegnet_network/hidden/layer1/dilconv/BatchNorm/moving_variance"
  input: "eegnet_network/hidden/layer1/dilconv/BatchNorm/moving_variance/Initializer/ones"
  attr {
    key: "T"
    value {
      type: DT_FLOAT
    }
  }
  attr {
    key: "_class"
    value {
      list {
        s: "loc:@eegnet_network/hidden/layer1/dilconv/BatchNorm/moving_variance"
      }
    }
  }
  attr {
    key: "_output_shapes"
    value {
      list {
        shape {
          dim {
            size: 96
          }
        }
      }
    }
  }
  attr {
    key: "use_locking"
    value {
      b: true
    }
  }
  attr {
    key: "validate_shape"
    value {
      b: true
    }
  }
}
node {
  name: "eegnet_network/hidden/layer1/dilconv/BatchNorm/moving_variance/read"
  op: "Identity"
  input: "eegnet_network/hidden/layer1/dilconv/BatchNorm/moving_variance"
  attr {
    key: "T"
    value {
      type: DT_FLOAT
    }
  }
  attr {
    key: "_class"
    value {
      list {
        s: "loc:@eegnet_network/hidden/layer1/dilconv/BatchNorm/moving_variance"
      }
    }
  }
  attr {
    key: "_output_shapes"
    value {
      list {
        shape {
          dim {
            size: 96
          }
        }
      }
    }
  }
}
node {
  name: "eegnet_network/hidden/layer1/dilconv/BatchNorm/Add/y"
  op: "Const"
  attr {
    key: "_output_shapes"
    value {
      list {
        shape {
        }
      }
    }
  }
  attr {
    key: "dtype"
    value {
      type: DT_FLOAT
    }
  }
  attr {
    key: "value"
    value {
      tensor {
        dtype: DT_FLOAT
        tensor_shape {
        }
        float_val: 0.0
      }
    }
  }
}
node {
  name: "eegnet_network/hidden/layer1/dilconv/BatchNorm/Add"
  op: "Add"
  input: "eegnet_network/hidden/layer1/dilconv/BatchNorm/moving_mean/read"
  input: "eegnet_network/hidden/layer1/dilconv/BatchNorm/Add/y"
  attr {
    key: "T"
    value {
      type: DT_FLOAT
    }
  }
  attr {
    key: "_output_shapes"
    value {
      list {
        shape {
          dim {
            size: 96
          }
        }
      }
    }
  }
}
node {
  name: "eegnet_network/hidden/layer1/dilconv/BatchNorm/moments/sufficient_statistics/Const"
  op: "Const"
  attr {
    key: "_output_shapes"
    value {
      list {
        shape {
        }
      }
    }
  }
  attr {
    key: "dtype"
    value {
      type: DT_FLOAT
    }
  }
  attr {
    key: "value"
    value {
      tensor {
        dtype: DT_FLOAT
        tensor_shape {
        }
        float_val: 38400.0
      }
    }
  }
}
node {
  name: "eegnet_network/hidden/layer1/dilconv/BatchNorm/moments/sufficient_statistics/Sub"
  op: "Sub"
  input: "eegnet_network/hidden/layer1/dilconv/atrous_conv2d/BatchToSpaceND"
  input: "eegnet_network/hidden/layer1/dilconv/BatchNorm/Add"
  attr {
    key: "T"
    value {
      type: DT_FLOAT
    }
  }
  attr {
    key: "_output_shapes"
    value {
      list {
        shape {
          dim {
            size: 16
          }
          dim {
            size: 1
          }
          dim {
            size: 2400
          }
          dim {
            size: 96
          }
        }
      }
    }
  }
}
node {
  name: "eegnet_network/hidden/layer1/dilconv/BatchNorm/moments/sufficient_statistics/SquaredDifference"
  op: "SquaredDifference"
  input: "eegnet_network/hidden/layer1/dilconv/atrous_conv2d/BatchToSpaceND"
  input: "eegnet_network/hidden/layer1/dilconv/BatchNorm/Add"
  attr {
    key: "T"
    value {
      type: DT_FLOAT
    }
  }
  attr {
    key: "_output_shapes"
    value {
      list {
        shape {
          dim {
            size: 16
          }
          dim {
            size: 1
          }
          dim {
            size: 2400
          }
          dim {
            size: 96
          }
        }
      }
    }
  }
}
node {
  name: "eegnet_network/hidden/layer1/dilconv/BatchNorm/moments/sufficient_statistics/mean_ss/reduction_indices"
  op: "Const"
  attr {
    key: "_output_shapes"
    value {
      list {
        shape {
          dim {
            size: 3
          }
        }
      }
    }
  }
  attr {
    key: "dtype"
    value {
      type: DT_INT32
    }
  }
  attr {
    key: "value"
    value {
      tensor {
        dtype: DT_INT32
        tensor_shape {
          dim {
            size: 3
          }
        }
        tensor_content: "\000\000\000\000\001\000\000\000\002\000\000\000"
      }
    }
  }
}
node {
  name: "eegnet_network/hidden/layer1/dilconv/BatchNorm/moments/sufficient_statistics/mean_ss"
  op: "Sum"
  input: "eegnet_network/hidden/layer1/dilconv/BatchNorm/moments/sufficient_statistics/Sub"
  input: "eegnet_network/hidden/layer1/dilconv/BatchNorm/moments/sufficient_statistics/mean_ss/reduction_indices"
  attr {
    key: "T"
    value {
      type: DT_FLOAT
    }
  }
  attr {
    key: "Tidx"
    value {
      type: DT_INT32
    }
  }
  attr {
    key: "_output_shapes"
    value {
      list {
        shape {
          dim {
            size: 96
          }
        }
      }
    }
  }
  attr {
    key: "keep_dims"
    value {
      b: false
    }
  }
}
node {
  name: "eegnet_network/hidden/layer1/dilconv/BatchNorm/moments/sufficient_statistics/var_ss/reduction_indices"
  op: "Const"
  attr {
    key: "_output_shapes"
    value {
      list {
        shape {
          dim {
            size: 3
          }
        }
      }
    }
  }
  attr {
    key: "dtype"
    value {
      type: DT_INT32
    }
  }
  attr {
    key: "value"
    value {
      tensor {
        dtype: DT_INT32
        tensor_shape {
          dim {
            size: 3
          }
        }
        tensor_content: "\000\000\000\000\001\000\000\000\002\000\000\000"
      }
    }
  }
}
node {
  name: "eegnet_network/hidden/layer1/dilconv/BatchNorm/moments/sufficient_statistics/var_ss"
  op: "Sum"
  input: "eegnet_network/hidden/layer1/dilconv/BatchNorm/moments/sufficient_statistics/SquaredDifference"
  input: "eegnet_network/hidden/layer1/dilconv/BatchNorm/moments/sufficient_statistics/var_ss/reduction_indices"
  attr {
    key: "T"
    value {
      type: DT_FLOAT
    }
  }
  attr {
    key: "Tidx"
    value {
      type: DT_INT32
    }
  }
  attr {
    key: "_output_shapes"
    value {
      list {
        shape {
          dim {
            size: 96
          }
        }
      }
    }
  }
  attr {
    key: "keep_dims"
    value {
      b: false
    }
  }
}
node {
  name: "eegnet_network/hidden/layer1/dilconv/BatchNorm/moments/normalize/divisor"
  op: "Inv"
  input: "eegnet_network/hidden/layer1/dilconv/BatchNorm/moments/sufficient_statistics/Const"
  input: "^eegnet_network/hidden/layer1/dilconv/BatchNorm/moments/sufficient_statistics/mean_ss"
  input: "^eegnet_network/hidden/layer1/dilconv/BatchNorm/moments/sufficient_statistics/var_ss"
  attr {
    key: "T"
    value {
      type: DT_FLOAT
    }
  }
  attr {
    key: "_output_shapes"
    value {
      list {
        shape {
        }
      }
    }
  }
}
node {
  name: "eegnet_network/hidden/layer1/dilconv/BatchNorm/moments/normalize/shifted_mean"
  op: "Mul"
  input: "eegnet_network/hidden/layer1/dilconv/BatchNorm/moments/sufficient_statistics/mean_ss"
  input: "eegnet_network/hidden/layer1/dilconv/BatchNorm/moments/normalize/divisor"
  attr {
    key: "T"
    value {
      type: DT_FLOAT
    }
  }
  attr {
    key: "_output_shapes"
    value {
      list {
        shape {
          dim {
            size: 96
          }
        }
      }
    }
  }
}
node {
  name: "eegnet_network/hidden/layer1/dilconv/BatchNorm/moments/normalize/mean"
  op: "Add"
  input: "eegnet_network/hidden/layer1/dilconv/BatchNorm/moments/normalize/shifted_mean"
  input: "eegnet_network/hidden/layer1/dilconv/BatchNorm/Add"
  attr {
    key: "T"
    value {
      type: DT_FLOAT
    }
  }
  attr {
    key: "_output_shapes"
    value {
      list {
        shape {
          dim {
            size: 96
          }
        }
      }
    }
  }
}
node {
  name: "eegnet_network/hidden/layer1/dilconv/BatchNorm/moments/normalize/Mul"
  op: "Mul"
  input: "eegnet_network/hidden/layer1/dilconv/BatchNorm/moments/sufficient_statistics/var_ss"
  input: "eegnet_network/hidden/layer1/dilconv/BatchNorm/moments/normalize/divisor"
  attr {
    key: "T"
    value {
      type: DT_FLOAT
    }
  }
  attr {
    key: "_output_shapes"
    value {
      list {
        shape {
          dim {
            size: 96
          }
        }
      }
    }
  }
}
node {
  name: "eegnet_network/hidden/layer1/dilconv/BatchNorm/moments/normalize/Square"
  op: "Square"
  input: "eegnet_network/hidden/layer1/dilconv/BatchNorm/moments/normalize/shifted_mean"
  attr {
    key: "T"
    value {
      type: DT_FLOAT
    }
  }
  attr {
    key: "_output_shapes"
    value {
      list {
        shape {
          dim {
            size: 96
          }
        }
      }
    }
  }
}
node {
  name: "eegnet_network/hidden/layer1/dilconv/BatchNorm/moments/normalize/variance"
  op: "Sub"
  input: "eegnet_network/hidden/layer1/dilconv/BatchNorm/moments/normalize/Mul"
  input: "eegnet_network/hidden/layer1/dilconv/BatchNorm/moments/normalize/Square"
  attr {
    key: "T"
    value {
      type: DT_FLOAT
    }
  }
  attr {
    key: "_output_shapes"
    value {
      list {
        shape {
          dim {
            size: 96
          }
        }
      }
    }
  }
}
node {
  name: "eegnet_network/hidden/layer1/dilconv/BatchNorm/AssignMovingAvg/decay"
  op: "Const"
  attr {
    key: "_class"
    value {
      list {
        s: "loc:@eegnet_network/hidden/layer1/dilconv/BatchNorm/moving_mean"
      }
    }
  }
  attr {
    key: "_output_shapes"
    value {
      list {
        shape {
        }
      }
    }
  }
  attr {
    key: "dtype"
    value {
      type: DT_FLOAT
    }
  }
  attr {
    key: "value"
    value {
      tensor {
        dtype: DT_FLOAT
        tensor_shape {
        }
        float_val: 0.0010000000475
      }
    }
  }
}
node {
  name: "eegnet_network/hidden/layer1/dilconv/BatchNorm/AssignMovingAvg/sub"
  op: "Sub"
  input: "eegnet_network/hidden/layer1/dilconv/BatchNorm/moving_mean/read"
  input: "eegnet_network/hidden/layer1/dilconv/BatchNorm/moments/normalize/mean"
  attr {
    key: "T"
    value {
      type: DT_FLOAT
    }
  }
  attr {
    key: "_class"
    value {
      list {
        s: "loc:@eegnet_network/hidden/layer1/dilconv/BatchNorm/moving_mean"
      }
    }
  }
  attr {
    key: "_output_shapes"
    value {
      list {
        shape {
          dim {
            size: 96
          }
        }
      }
    }
  }
}
node {
  name: "eegnet_network/hidden/layer1/dilconv/BatchNorm/AssignMovingAvg/mul"
  op: "Mul"
  input: "eegnet_network/hidden/layer1/dilconv/BatchNorm/AssignMovingAvg/sub"
  input: "eegnet_network/hidden/layer1/dilconv/BatchNorm/AssignMovingAvg/decay"
  attr {
    key: "T"
    value {
      type: DT_FLOAT
    }
  }
  attr {
    key: "_class"
    value {
      list {
        s: "loc:@eegnet_network/hidden/layer1/dilconv/BatchNorm/moving_mean"
      }
    }
  }
  attr {
    key: "_output_shapes"
    value {
      list {
        shape {
          dim {
            size: 96
          }
        }
      }
    }
  }
}
node {
  name: "eegnet_network/hidden/layer1/dilconv/BatchNorm/AssignMovingAvg"
  op: "AssignSub"
  input: "eegnet_network/hidden/layer1/dilconv/BatchNorm/moving_mean"
  input: "eegnet_network/hidden/layer1/dilconv/BatchNorm/AssignMovingAvg/mul"
  attr {
    key: "T"
    value {
      type: DT_FLOAT
    }
  }
  attr {
    key: "_class"
    value {
      list {
        s: "loc:@eegnet_network/hidden/layer1/dilconv/BatchNorm/moving_mean"
      }
    }
  }
  attr {
    key: "_output_shapes"
    value {
      list {
        shape {
          dim {
            size: 96
          }
        }
      }
    }
  }
  attr {
…
  name: "init_ops/report_uninitialized_variables/IsVariableInitialized_138"
  op: "IsVariableInitialized"
  input: "eegnet_network/skip_processing/1x5reduce1/weights/Adam_1"
  attr {
    key: "_class"
    value {
      list {
        s: "loc:@eegnet_network/skip_processing/1x5reduce1/weights"
      }
    }
  }
  attr {
    key: "_output_shapes"
    value {
      list {
        shape {
        }
      }
    }
  }
  attr {
    key: "dtype"
    value {
      type: DT_FLOAT
    }
  }
}
node {
  name: "init_ops/report_uninitialized_variables/IsVariableInitialized_139"
  op: "IsVariableInitialized"
  input: "eegnet_network/skip_processing/1x5reduce1/BatchNorm/beta/Adam"
  attr {
    key: "_class"
    value {
      list {
        s: "loc:@eegnet_network/skip_processing/1x5reduce1/BatchNorm/beta"
      }
    }
  }
  attr {
    key: "_output_shapes"
    value {
      list {
        shape {
        }
      }
    }
  }
  attr {
    key: "dtype"
    value {
      type: DT_FLOAT
    }
  }
}
node {
  name: "init_ops/report_uninitialized_variables/IsVariableInitialized_140"
  op: "IsVariableInitialized"
  input: "eegnet_network/skip_processing/1x5reduce1/BatchNorm/beta/Adam_1"
  attr {
    key: "_class"
    value {
      list {
        s: "loc:@eegnet_network/skip_processing/1x5reduce1/BatchNorm/beta"
      }
    }
  }
  attr {
    key: "_output_shapes"
    value {
      list {
        shape {
        }
      }
    }
  }
  attr {
    key: "dtype"
    value {
      type: DT_FLOAT
    }
  }
}
node {
  name: "init_ops/report_uninitialized_variables/IsVariableInitialized_141"
  op: "IsVariableInitialized"
  input: "eegnet_network/skip_processing/1x1compress2/weights/Adam"
  attr {
    key: "_class"
    value {
      list {
        s: "loc:@eegnet_network/skip_processing/1x1compress2/weights"
      }
    }
  }
  attr {
    key: "_output_shapes"
    value {
      list {
        shape {
        }
      }
    }
  }
  attr {
    key: "dtype"
    value {
      type: DT_FLOAT
    }
  }
}
node {
  name: "init_ops/report_uninitialized_variables/IsVariableInitialized_142"
  op: "IsVariableInitialized"
  input: "eegnet_network/skip_processing/1x1compress2/weights/Adam_1"
  attr {
    key: "_class"
    value {
      list {
        s: "loc:@eegnet_network/skip_processing/1x1compress2/weights"
      }
    }
  }
  attr {
    key: "_output_shapes"
    value {
      list {
        shape {
        }
      }
    }
  }
  attr {
    key: "dtype"
    value {
      type: DT_FLOAT
    }
  }
}
node {
  name: "init_ops/report_uninitialized_variables/IsVariableInitialized_143"
  op: "IsVariableInitialized"
  input: "eegnet_network/skip_processing/1x1compress2/BatchNorm/beta/Adam"
  attr {
    key: "_class"
    value {
      list {
        s: "loc:@eegnet_network/skip_processing/1x1compress2/BatchNorm/beta"
      }
    }
  }
  attr {
    key: "_output_shapes"
    value {
      list {
        shape {
        }
      }
    }
  }
  attr {
    key: "dtype"
    value {
      type: DT_FLOAT
    }
  }
}
node {
  name: "init_ops/report_uninitialized_variables/IsVariableInitialized_144"
  op: "IsVariableInitialized"
  input: "eegnet_network/skip_processing/1x1compress2/BatchNorm/beta/Adam_1"
  attr {
    key: "_class"
    value {
      list {
        s: "loc:@eegnet_network/skip_processing/1x1compress2/BatchNorm/beta"
      }
    }
  }
  attr {
    key: "_output_shapes"
    value {
      list {
        shape {
        }
      }
    }
  }
  attr {
    key: "dtype"
    value {
      type: DT_FLOAT
    }
  }
}
node {
  name: "init_ops/report_uninitialized_variables/IsVariableInitialized_145"
  op: "IsVariableInitialized"
  input: "eegnet_network/skip_processing/1x5reduce2/weights/Adam"
  attr {
    key: "_class"
    value {
      list {
        s: "loc:@eegnet_network/skip_processing/1x5reduce2/weights"
      }
    }
  }
  attr {
    key: "_output_shapes"
    value {
      list {
        shape {
        }
      }
    }
  }
  attr {
    key: "dtype"
    value {
      type: DT_FLOAT
    }
  }
}
node {
  name: "init_ops/report_uninitialized_variables/IsVariableInitialized_146"
  op: "IsVariableInitialized"
  input: "eegnet_network/skip_processing/1x5reduce2/weights/Adam_1"
  attr {
    key: "_class"
    value {
      list {
        s: "loc:@eegnet_network/skip_processing/1x5reduce2/weights"
      }
    }
  }
  attr {
    key: "_output_shapes"
    value {
      list {
        shape {
        }
      }
    }
  }
  attr {
    key: "dtype"
    value {
      type: DT_FLOAT
    }
  }
}
node {
  name: "init_ops/report_uninitialized_variables/IsVariableInitialized_147"
  op: "IsVariableInitialized"
  input: "eegnet_network/skip_processing/1x5reduce2/BatchNorm/beta/Adam"
  attr {
    key: "_class"
    value {
      list {
        s: "loc:@eegnet_network/skip_processing/1x5reduce2/BatchNorm/beta"
      }
    }
  }
  attr {
    key: "_output_shapes"
    value {
      list {
        shape {
        }
      }
    }
  }
  attr {
    key: "dtype"
    value {
      type: DT_FLOAT
    }
  }
}
node {
  name: "init_ops/report_uninitialized_variables/IsVariableInitialized_148"
  op: "IsVariableInitialized"
  input: "eegnet_network/skip_processing/1x5reduce2/BatchNorm/beta/Adam_1"
  attr {
    key: "_class"
    value {
      list {
        s: "loc:@eegnet_network/skip_processing/1x5reduce2/BatchNorm/beta"
      }
    }
  }
  attr {
    key: "_output_shapes"
    value {
      list {
        shape {
        }
      }
    }
  }
  attr {
    key: "dtype"
    value {
      type: DT_FLOAT
    }
  }
}
node {
  name: "init_ops/report_uninitialized_variables/IsVariableInitialized_149"
  op: "IsVariableInitialized"
  input: "eegnet_network/skip_processing/1x1compress3/weights/Adam"
  attr {
    key: "_class"
    value {
      list {
        s: "loc:@eegnet_network/skip_processing/1x1compress3/weights"
      }
    }
  }
  attr {
    key: "_output_shapes"
    value {
      list {
        shape {
        }
      }
    }
  }
  attr {
    key: "dtype"
    value {
      type: DT_FLOAT
    }
  }
}
node {
  name: "init_ops/report_uninitialized_variables/IsVariableInitialized_150"
  op: "IsVariableInitialized"
  input: "eegnet_network/skip_processing/1x1compress3/weights/Adam_1"
  attr {
    key: "_class"
    value {
      list {
        s: "loc:@eegnet_network/skip_processing/1x1compress3/weights"
      }
    }
  }
  attr {
    key: "_output_shapes"
    value {
      list {
        shape {
        }
      }
    }
  }
  attr {
    key: "dtype"
    value {
      type: DT_FLOAT
    }
  }
}
node {
  name: "init_ops/report_uninitialized_variables/IsVariableInitialized_151"
  op: "IsVariableInitialized"
  input: "eegnet_network/skip_processing/1x1compress3/BatchNorm/beta/Adam"
  attr {
    key: "_class"
    value {
      list {
        s: "loc:@eegnet_network/skip_processing/1x1compress3/BatchNorm/beta"
      }
    }
  }
  attr {
    key: "_output_shapes"
    value {
      list {
        shape {
        }
      }
    }
  }
  attr {
    key: "dtype"
    value {
      type: DT_FLOAT
    }
  }
}
node {
  name: "init_ops/report_uninitialized_variables/IsVariableInitialized_152"
  op: "IsVariableInitialized"
  input: "eegnet_network/skip_processing/1x1compress3/BatchNorm/beta/Adam_1"
  attr {
    key: "_class"
    value {
      list {
        s: "loc:@eegnet_network/skip_processing/1x1compress3/BatchNorm/beta"
      }
    }
  }
  attr {
    key: "_output_shapes"
    value {
      list {
        shape {
        }
      }
    }
  }
  attr {
    key: "dtype"
    value {
      type: DT_FLOAT
    }
  }
}
node {
  name: "init_ops/report_uninitialized_variables/IsVariableInitialized_153"
  op: "IsVariableInitialized"
  input: "eegnet_network/skip_processing/1x5reduce3/weights/Adam"
  attr {
    key: "_class"
    value {
      list {
        s: "loc:@eegnet_network/skip_processing/1x5reduce3/weights"
      }
    }
  }
  attr {
    key: "_output_shapes"
    value {
      list {
        shape {
        }
      }
    }
  }
  attr {
    key: "dtype"
    value {
      type: DT_FLOAT
    }
  }
}
node {
  name: "init_ops/report_uninitialized_variables/IsVariableInitialized_154"
  op: "IsVariableInitialized"
  input: "eegnet_network/skip_processing/1x5reduce3/weights/Adam_1"
  attr {
    key: "_class"
    value {
      list {
        s: "loc:@eegnet_network/skip_processing/1x5reduce3/weights"
      }
    }
  }
  attr {
    key: "_output_shapes"
    value {
      list {
        shape {
        }
      }
    }
  }
  attr {
    key: "dtype"
    value {
      type: DT_FLOAT
    }
  }
}
node {
  name: "init_ops/report_uninitialized_variables/IsVariableInitialized_155"
  op: "IsVariableInitialized"
  input: "eegnet_network/skip_processing/1x5reduce3/BatchNorm/beta/Adam"
  attr {
    key: "_class"
    value {
      list {
        s: "loc:@eegnet_network/skip_processing/1x5reduce3/BatchNorm/beta"
      }
    }
  }
  attr {
    key: "_output_shapes"
    value {
      list {
        shape {
        }
      }
    }
  }
  attr {
    key: "dtype"
    value {
      type: DT_FLOAT
    }
  }
}
node {
  name: "init_ops/report_uninitialized_variables/IsVariableInitialized_156"
  op: "IsVariableInitialized"
  input: "eegnet_network/skip_processing/1x5reduce3/BatchNorm/beta/Adam_1"
  attr {
    key: "_class"
    value {
      list {
        s: "loc:@eegnet_network/skip_processing/1x5reduce3/BatchNorm/beta"
      }
    }
  }
  attr {
    key: "_output_shapes"
    value {
      list {
        shape {
        }
      }
    }
  }
  attr {
    key: "dtype"
    value {
      type: DT_FLOAT
    }
  }
}
node {
  name: "init_ops/report_uninitialized_variables/IsVariableInitialized_157"
  op: "IsVariableInitialized"
  input: "eegnet_network/logits/fc1/weights/Adam"
  attr {
    key: "_class"
    value {
      list {
        s: "loc:@eegnet_network/logits/fc1/weights"
      }
    }
  }
  attr {
    key: "_output_shapes"
    value {
      list {
        shape {
        }
      }
    }
  }
  attr {
    key: "dtype"
    value {
      type: DT_FLOAT
    }
  }
}
node {
  name: "init_ops/report_uninitialized_variables/IsVariableInitialized_158"
  op: "IsVariableInitialized"
  input: "eegnet_network/logits/fc1/weights/Adam_1"
  attr {
    key: "_class"
    value {
      list {
        s: "loc:@eegnet_network/logits/fc1/weights"
      }
    }
  }
  attr {
    key: "_output_shapes"
    value {
      list {
        shape {
        }
      }
    }
  }
  attr {
    key: "dtype"
    value {
      type: DT_FLOAT
    }
  }
}
node {
  name: "init_ops/report_uninitialized_variables/IsVariableInitialized_159"
  op: "IsVariableInitialized"
  input: "eegnet_network/logits/fc1/biases/Adam"
  attr {
    key: "_class"
    value {
      list {
        s: "loc:@eegnet_network/logits/fc1/biases"
      }
    }
  }
  attr {
    key: "_output_shapes"
    value {
      list {
        shape {
        }
      }
    }
  }
  attr {
    key: "dtype"
    value {
      type: DT_FLOAT
    }
  }
}
node {
  name: "init_ops/report_uninitialized_variables/IsVariableInitialized_160"
  op: "IsVariableInitialized"
  input: "eegnet_network/logits/fc1/biases/Adam_1"
  attr {
    key: "_class"
    value {
      list {
        s: "loc:@eegnet_network/logits/fc1/biases"
      }
    }
  }
  attr {
    key: "_output_shapes"
    value {
      list {
        shape {
        }
      }
    }
  }
  attr {
    key: "dtype"
    value {
      type: DT_FLOAT
    }
  }
}
node {
  name: "init_ops/report_uninitialized_variables/pack"
  op: "Pack"
  input: "init_ops/report_uninitialized_variables/IsVariableInitialized"
  input: "init_ops/report_uninitialized_variables/IsVariableInitialized_1"
  input: "init_ops/report_uninitialized_variables/IsVariableInitialized_2"
  input: "init_ops/report_uninitialized_variables/IsVariableInitialized_3"
  input: "init_ops/report_uninitialized_variables/IsVariableInitialized_4"
  input: "init_ops/report_uninitialized_variables/IsVariableInitialized_5"
  input: "init_ops/report_uninitialized_variables/IsVariableInitialized_6"
  input: "init_ops/report_uninitialized_variables/IsVariableInitialized_7"
  input: "init_ops/report_uninitialized_variables/IsVariableInitialized_8"
  input: "init_ops/report_uninitialized_variables/IsVariableInitialized_9"
  input: "init_ops/report_uninitialized_variables/IsVariableInitialized_10"
  input: "init_ops/report_uninitialized_variables/IsVariableInitialized_11"
  input: "init_ops/report_uninitialized_variables/IsVariableInitialized_12"
  input: "init_ops/report_uninitialized_variables/IsVariableInitialized_13"
  input: "init_ops/report_uninitialized_variables/IsVariableInitialized_14"
  input: "init_ops/report_uninitialized_variables/IsVariableInitialized_15"
  input: "init_ops/report_uninitialized_variables/IsVariableInitialized_16"
  input: "init_ops/report_uninitialized_variables/IsVariableInitialized_17"
  input: "init_ops/report_uninitialized_variables/IsVariableInitialized_18"
  input: "init_ops/report_uninitialized_variables/IsVariableInitialized_19"
  input: "init_ops/report_uninitialized_variables/IsVariableInitialized_20"
  input: "init_ops/report_uninitialized_variables/IsVariableInitialized_21"
  input: "init_ops/report_uninitialized_variables/IsVariableInitialized_22"
  input: "init_ops/report_uninitialized_variables/IsVariableInitialized_23"
  input: "init_ops/report_uninitialized_variables/IsVariableInitialized_24"
  input: "init_ops/report_uninitialized_variables/IsVariableInitialized_25"
  input: "init_ops/report_uninitialized_variables/IsVariableInitialized_26"
  input: "init_ops/report_uninitialized_variables/IsVariableInitialized_27"
  input: "init_ops/report_uninitialized_variables/IsVariableInitialized_28"
  input: "init_ops/report_uninitialized_variables/IsVariableInitialized_29"
  input: "init_ops/report_uninitialized_variables/IsVariableInitialized_30"
  input: "init_ops/report_uninitialized_variables/IsVariableInitialized_31"
  input: "init_ops/report_uninitialized_variables/IsVariableInitialized_32"
  input: "init_ops/report_uninitialized_variables/IsVariableInitialized_33"
  input: "init_ops/report_uninitialized_variables/IsVariableInitialized_34"
  input: "init_ops/report_uninitialized_variables/IsVariableInitialized_35"
  input: "init_ops/report_uninitialized_variables/IsVariableInitialized_36"
  input: "init_ops/report_uninitialized_variables/IsVariableInitialized_37"
  input: "init_ops/report_uninitialized_variables/IsVariableInitialized_38"
  input: "init_ops/report_uninitialized_variables/IsVariableInitialized_39"
  input: "init_ops/report_uninitialized_variables/IsVariableInitialized_40"
  input: "init_ops/report_uninitialized_variables/IsVariableInitialized_41"
  input: "init_ops/report_uninitialized_variables/IsVariableInitialized_42"
  input: "init_ops/report_uninitialized_variables/IsVariableInitialized_43"
  input: "init_ops/report_uninitialized_variables/IsVariableInitialized_44"
  input: "init_ops/report_uninitialized_variables/IsVariableInitialized_45"
  input: "init_ops/report_uninitialized_variables/IsVariableInitialized_46"
  input: "init_ops/report_uninitialized_variables/IsVariableInitialized_47"
  input: "init_ops/report_uninitialized_variables/IsVariableInitialized_48"
  input: "init_ops/report_uninitialized_variables/IsVariableInitialized_49"
  input: "init_ops/report_uninitialized_variables/IsVariableInitialized_50"
  input: "init_ops/report_uninitialized_variables/IsVariableInitialized_51"
  input: "init_ops/report_uninitialized_variables/IsVariableInitialized_52"
  input: "init_ops/report_uninitialized_variables/IsVariableInitialized_53"
  input: "init_ops/report_uninitialized_variables/IsVariableInitialized_54"
  input: "init_ops/report_uninitialized_variables/IsVariableInitialized_55"
  input: "init_ops/report_uninitialized_variables/IsVariableInitialized_56"
  input: "init_ops/report_uninitialized_variables/IsVariableInitialized_57"
  input: "init_ops/report_uninitialized_variables/IsVariableInitialized_58"
  input: "init_ops/report_uninitialized_variables/IsVariableInitialized_59"
  input: "init_ops/report_uninitialized_variables/IsVariableInitialized_60"
  input: "init_ops/report_uninitialized_variables/IsVariableInitialized_61"
  input: "init_ops/report_uninitialized_variables/IsVariableInitialized_62"
  input: "init_ops/report_uninitialized_variables/IsVariableInitialized_63"
  input: "init_ops/report_uninitialized_variables/IsVariableInitialized_64"
  input: "init_ops/report_uninitialized_variables/IsVariableInitialized_65"
  input: "init_ops/report_uninitialized_variables/IsVariableInitialized_66"
  input: "init_ops/report_uninitialized_variables/IsVariableInitialized_67"
  input: "init_ops/report_uninitialized_variables/IsVariableInitialized_68"
  input: "init_ops/report_uninitialized_variables/IsVariableInitialized_69"
  input: "init_ops/report_uninitialized_variables/IsVariableInitialized_70"
  input: "init_ops/report_uninitialized_variables/IsVariableInitialized_71"
  input: "init_ops/report_uninitialized_variables/IsVariableInitialized_72"
  input: "init_ops/report_uninitialized_variables/IsVariableInitialized_73"
  input: "init_ops/report_uninitialized_variables/IsVariableInitialized_74"
  input: "init_ops/report_uninitialized_variables/IsVariableInitialized_75"
  input: "init_ops/report_uninitialized_variables/IsVariableInitialized_76"
  input: "init_ops/report_uninitialized_variables/IsVariableInitialized_77"
  input: "init_ops/report_uninitialized_variables/IsVariableInitialized_78"
  input: "init_ops/report_uninitialized_variables/IsVariableInitialized_79"
  input: "init_ops/report_uninitialized_variables/IsVariableInitialized_80"
  input: "init_ops/report_uninitialized_variables/IsVariableInitialized_81"
  input: "init_ops/report_uninitialized_variables/IsVariableInitialized_82"
  input: "init_ops/report_uninitialized_variables/IsVariableInitialized_83"
  input: "init_ops/report_uninitialized_variables/IsVariableInitialized_84"
  input: "init_ops/report_uninitialized_variables/IsVariableInitialized_85"
  input: "init_ops/report_uninitialized_variables/IsVariableInitialized_86"
  input: "init_ops/report_uninitialized_variables/IsVariableInitialized_87"
  input: "init_ops/report_uninitialized_variables/IsVariableInitialized_88"
  input: "init_ops/report_uninitialized_variables/IsVariableInitialized_89"
  input: "init_ops/report_uninitialized_variables/IsVariableInitialized_90"
  input: "init_ops/report_uninitialized_variables/IsVariableInitialized_91"
  input: "init_ops/report_uninitialized_variables/IsVariableInitialized_92"
  input: "init_ops/report_uninitialized_variables/IsVariableInitialized_93"
  input: "init_ops/report_uninitialized_variables/IsVariableInitialized_94"
  input: "init_ops/report_uninitialized_variables/IsVariableInitialized_95"
  input: "init_ops/report_uninitialized_variables/IsVariableInitialized_96"
  input: "init_ops/report_uninitialized_variables/IsVariableInitialized_97"
  input: "init_ops/report_uninitialized_variables/IsVariableInitialized_98"
  input: "init_ops/report_uninitialized_variables/IsVariableInitialized_99"
  input: "init_ops/report_uninitialized_variables/IsVariableInitialized_100"
  input: "init_ops/report_uninitialized_variables/IsVariableInitialized_101"
  input: "init_ops/report_uninitialized_variables/IsVariableInitialized_102"
  input: "init_ops/report_uninitialized_variables/IsVariableInitialized_103"
  input: "init_ops/report_uninitialized_variables/IsVariableInitialized_104"
  input: "init_ops/report_uninitialized_variables/IsVariableInitialized_105"
  input: "init_ops/report_uninitialized_variables/IsVariableInitialized_106"
  input: "init_ops/report_uninitialized_variables/IsVariableInitialized_107"
  input: "init_ops/report_uninitialized_variables/IsVariableInitialized_108"
  input: "init_ops/report_uninitialized_variables/IsVariableInitialized_109"
  input: "init_ops/report_uninitialized_variables/IsVariableInitialized_110"
  input: "init_ops/report_uninitialized_variables/IsVariableInitialized_111"
  input: "init_ops/report_uninitialized_variables/IsVariableInitialized_112"
  input: "init_ops/report_uninitialized_variables/IsVariableInitialized_113"
  input: "init_ops/report_uninitialized_variables/IsVariableInitialized_114"
  input: "init_ops/report_uninitialized_variables/IsVariableInitialized_115"
  input: "init_ops/report_uninitialized_variables/IsVariableInitialized_116"
  input: "init_ops/report_uninitialized_variables/IsVariableInitialized_117"
  input: "init_ops/report_uninitialized_variables/IsVariableInitialized_118"
  input: "init_ops/report_uninitialized_variables/IsVariableInitialized_119"
  input: "init_ops/report_uninitialized_variables/IsVariableInitialized_120"
  input: "init_ops/report_uninitialized_variables/IsVariableInitialized_121"
  input: "init_ops/report_uninitialized_variables/IsVariableInitialized_122"
  input: "init_ops/report_uninitialized_variables/IsVariableInitialized_123"
  input: "init_ops/report_uninitialized_variables/IsVariableInitialized_124"
  input: "init_ops/report_uninitialized_variables/IsVariableInitialized_125"
  input: "init_ops/report_uninitialized_variables/IsVariableInitialized_126"
  input: "init_ops/report_uninitialized_variables/IsVariableInitialized_127"
  input: "init_ops/report_uninitialized_variables/IsVariableInitialized_128"
  input: "init_ops/report_uninitialized_variables/IsVariableInitialized_129"
  input: "init_ops/report_uninitialized_variables/IsVariableInitialized_130"
  input: "init_ops/report_uninitialized_variables/IsVariableInitialized_131"
  input: "init_ops/report_uninitialized_variables/IsVariableInitialized_132"
  input: "init_ops/report_uninitialized_variables/IsVariableInitialized_133"
  input: "init_ops/report_uninitialized_variables/IsVariableInitialized_134"
  input: "init_ops/report_uninitialized_variables/IsVariableInitialized_135"
  input: "init_ops/report_uninitialized_variables/IsVariableInitialized_136"
  input: "init_ops/report_uninitialized_variables/IsVariableInitialized_137"
  input: "init_ops/report_uninitialized_variables/IsVariableInitialized_138"
  input: "init_ops/report_uninitialized_variables/IsVariableInitialized_139"
  input: "init_ops/report_uninitialized_variables/IsVariableInitialized_140"
  input: "init_ops/report_uninitialized_variables/IsVariableInitialized_141"
  input: "init_ops/report_uninitialized_variables/IsVariableInitialized_142"
  input: "init_ops/report_uninitialized_variables/IsVariableInitialized_143"
  input: "init_ops/report_uninitialized_variables/IsVariableInitialized_144"
  input: "init_ops/report_uninitialized_variables/IsVariableInitialized_145"
  input: "init_ops/report_uninitialized_variables/IsVariableInitialized_146"
  input: "init_ops/report_uninitialized_variables/IsVariableInitialized_147"
  input: "init_ops/report_uninitialized_variables/IsVariableInitialized_148"
  input: "init_ops/report_uninitialized_variables/IsVariableInitialized_149"
  input: "init_ops/report_uninitialized_variables/IsVariableInitialized_150"
  input: "init_ops/report_uninitialized_variables/IsVariableInitialized_151"
  input: "init_ops/report_uninitialized_variables/IsVariableInitialized_152"
  input: "init_ops/report_uninitialized_variables/IsVariableInitialized_153"
  input: "init_ops/report_uninitialized_variables/IsVariableInitialized_154"
  input: "init_ops/report_uninitialized_variables/IsVariableInitialized_155"
  input: "init_ops/report_uninitialized_variables/IsVariableInitialized_156"
  input: "init_ops/report_uninitialized_variables/IsVariableInitialized_157"
  input: "init_ops/report_uninitialized_variables/IsVariableInitialized_158"
  input: "init_ops/report_uninitialized_variables/IsVariableInitialized_159"
  input: "init_ops/report_uninitialized_variables/IsVariableInitialized_160"
  attr {
    key: "N"
    value {
      i: 161
    }
  }
  attr {
    key: "T"
    value {
      type: DT_BOOL
    }
  }
  attr {
    key: "_output_shapes"
    value {
      list {
        shape {
          dim {
            size: 161
          }
        }
      }
    }
  }
  attr {
    key: "axis"
    value {
      i: 0
    }
  }
}
node {
  name: "init_ops/report_uninitialized_variables/LogicalNot"
  op: "LogicalNot"
  input: "init_ops/report_uninitialized_variables/pack"
  attr {
    key: "_output_shapes"
    value {
      list {
        shape {
          dim {
            size: 161
          }
        }
      }
    }
  }
}
node {
  name: "init_ops/report_uninitialized_variables/Const"
  op: "Const"
  attr {
    key: "_output_shapes"
    value {
      list {
        shape {
          dim {
            size: 161
          }
        }
      }
    }
  }
  attr {
    key: "dtype"
    value {
      type: DT_STRING
    }
  }
  attr {
    key: "value"
    value {
      tensor {
        dtype: DT_STRING
        tensor_shape {
          dim {
            size: 161
          }
        }
        string_val: "eegnet_network/input_layer/conv1/weights"
        string_val: "eegnet_network/input_layer/conv1/BatchNorm/beta"
        string_val: "eegnet_network/input_layer/conv1/BatchNorm/moving_mean"
        string_val: "eegnet_network/input_layer/conv1/BatchNorm/moving_variance"
        string_val: "eegnet_network/hidden/layer1/dilconv/weights"
        string_val: "eegnet_network/hidden/layer1/dilconv/BatchNorm/beta"
        string_val: "eegnet_network/hidden/layer1/dilconv/BatchNorm/moving_mean"
        string_val: "eegnet_network/hidden/layer1/dilconv/BatchNorm/moving_variance"
        string_val: "eegnet_network/hidden/layer1/1x1skip/weights"
        string_val: "eegnet_network/hidden/layer1/1x1skip/BatchNorm/beta"
        string_val: "eegnet_network/hidden/layer1/1x1skip/BatchNorm/moving_mean"
        string_val: "eegnet_network/hidden/layer1/1x1skip/BatchNorm/moving_variance"
        string_val: "eegnet_network/hidden/layer2/dilconv/weights"
        string_val: "eegnet_network/hidden/layer2/dilconv/BatchNorm/beta"
        string_val: "eegnet_network/hidden/layer2/dilconv/BatchNorm/moving_mean"
        string_val: "eegnet_network/hidden/layer2/dilconv/BatchNorm/moving_variance"
        string_val: "eegnet_network/hidden/layer2/1x1skip/weights"
        string_val: "eegnet_network/hidden/layer2/1x1skip/BatchNorm/beta"
        string_val: "eegnet_network/hidden/layer2/1x1skip/BatchNorm/moving_mean"
        string_val: "eegnet_network/hidden/layer2/1x1skip/BatchNorm/moving_variance"
        string_val: "eegnet_network/hidden/layer3/dilconv/weights"
        string_val: "eegnet_network/hidden/layer3/dilconv/BatchNorm/beta"
        string_val: "eegnet_network/hidden/layer3/dilconv/BatchNorm/moving_mean"
        string_val: "eegnet_network/hidden/layer3/dilconv/BatchNorm/moving_variance"
        string_val: "eegnet_network/hidden/layer3/1x1skip/weights"
        string_val: "eegnet_network/hidden/layer3/1x1skip/BatchNorm/beta"
        string_val: "eegnet_network/hidden/layer3/1x1skip/BatchNorm/moving_mean"
        string_val: "eegnet_network/hidden/layer3/1x1skip/BatchNorm/moving_variance"
        string_val: "eegnet_network/hidden/layer4/dilconv/weights"
        string_val: "eegnet_network/hidden/layer4/dilconv/BatchNorm/beta"
        string_val: "eegnet_network/hidden/layer4/dilconv/BatchNorm/moving_mean"
        string_val: "eegnet_network/hidden/layer4/dilconv/BatchNorm/moving_variance"
        string_val: "eegnet_network/hidden/layer4/1x1skip/weights"
        string_val: "eegnet_network/hidden/layer4/1x1skip/BatchNorm/beta"
        string_val: "eegnet_network/hidden/layer4/1x1skip/BatchNorm/moving_mean"
        string_val: "eegnet_network/hidden/layer4/1x1skip/BatchNorm/moving_variance"
        string_val: "eegnet_network/hidden/layer5/dilconv/weights"
        string_val: "eegnet_network/hidden/layer5/dilconv/BatchNorm/beta"
        string_val: "eegnet_network/hidden/layer5/dilconv/BatchNorm/moving_mean"
        string_val: "eegnet_network/hidden/layer5/dilconv/BatchNorm/moving_variance"
        string_val: "eegnet_network/hidden/layer5/1x1skip/weights"
        string_val: "eegnet_network/hidden/layer5/1x1skip/BatchNorm/beta"
        string_val: "eegnet_network/hidden/layer5/1x1skip/BatchNorm/moving_mean"
        string_val: "eegnet_network/hidden/layer5/1x1skip/BatchNorm/moving_variance"
        string_val: "eegnet_network/hidden/layer6/dilconv/weights"
        string_val: "eegnet_network/hidden/layer6/dilconv/BatchNorm/beta"
        string_val: "eegnet_network/hidden/layer6/dilconv/BatchNorm/moving_mean"
        string_val: "eegnet_network/hidden/layer6/dilconv/BatchNorm/moving_variance"
        string_val: "eegnet_network/hidden/layer6/1x1skip/weights"
        string_val: "eegnet_network/hidden/layer6/1x1skip/BatchNorm/beta"
        string_val: "eegnet_network/hidden/layer6/1x1skip/BatchNorm/moving_mean"
        string_val: "eegnet_network/hidden/layer6/1x1skip/BatchNorm/moving_variance"
        string_val: "eegnet_network/skip_processing/1x1compress1/weights"
        string_val: "eegnet_network/skip_processing/1x1compress1/BatchNorm/beta"
        string_val: "eegnet_network/skip_processing/1x1compress1/BatchNorm/moving_mean"
        string_val: "eegnet_network/skip_processing/1x1compress1/BatchNorm/moving_variance"
        string_val: "eegnet_network/skip_processing/1x5reduce1/weights"
        string_val: "eegnet_network/skip_processing/1x5reduce1/BatchNorm/beta"
        string_val: "eegnet_network/skip_processing/1x5reduce1/BatchNorm/moving_mean"
        string_val: "eegnet_network/skip_processing/1x5reduce1/BatchNorm/moving_variance"
        string_val: "eegnet_network/skip_processing/1x1compress2/weights"
        string_val: "eegnet_network/skip_processing/1x1compress2/BatchNorm/beta"
        string_val: "eegnet_network/skip_processing/1x1compress2/BatchNorm/moving_mean"
        string_val: "eegnet_network/skip_processing/1x1compress2/BatchNorm/moving_variance"
        string_val: "eegnet_network/skip_processing/1x5reduce2/weights"
        string_val: "eegnet_network/skip_processing/1x5reduce2/BatchNorm/beta"
        string_val: "eegnet_network/skip_processing/1x5reduce2/BatchNorm/moving_mean"
        string_val: "eegnet_network/skip_processing/1x5reduce2/BatchNorm/moving_variance"
        string_val: "eegnet_network/skip_processing/1x1compress3/weights"
        string_val: "eegnet_network/skip_processing/1x1compress3/BatchNorm/beta"
        string_val: "eegnet_network/skip_processing/1x1compress3/BatchNorm/moving_mean"
        string_val: "eegnet_network/skip_processing/1x1compress3/BatchNorm/moving_variance"
        string_val: "eegnet_network/skip_processing/1x5reduce3/weights"
        string_val: "eegnet_network/skip_processing/1x5reduce3/BatchNorm/beta"
        string_val: "eegnet_network/skip_processing/1x5reduce3/BatchNorm/moving_mean"
        string_val: "eegnet_network/skip_processing/1x5reduce3/BatchNorm/moving_variance"
        string_val: "eegnet_network/logits/fc1/weights"
        string_val: "eegnet_network/logits/fc1/biases"
        string_val: "global_step"
        string_val: "beta1_power"
        string_val: "beta2_power"
        string_val: "eegnet_network/input_layer/conv1/weights/Adam"
        string_val: "eegnet_network/input_layer/conv1/weights/Adam_1"
        string_val: "eegnet_network/input_layer/conv1/BatchNorm/beta/Adam"
        string_val: "eegnet_network/input_layer/conv1/BatchNorm/beta/Adam_1"
        string_val: "eegnet_network/hidden/layer1/dilconv/weights/Adam"
        string_val: "eegnet_network/hidden/layer1/dilconv/weights/Adam_1"
        string_val: "eegnet_network/hidden/layer1/dilconv/BatchNorm/beta/Adam"
        string_val: "eegnet_network/hidden/layer1/dilconv/BatchNorm/beta/Adam_1"
        string_val: "eegnet_network/hidden/layer1/1x1skip/weights/Adam"
        string_val: "eegnet_network/hidden/layer1/1x1skip/weights/Adam_1"
        string_val: "eegnet_network/hidden/layer1/1x1skip/BatchNorm/beta/Adam"
        string_val: "eegnet_network/hidden/layer1/1x1skip/BatchNorm/beta/Adam_1"
        string_val: "eegnet_network/hidden/layer2/dilconv/weights/Adam"
        string_val: "eegnet_network/hidden/layer2/dilconv/weights/Adam_1"
        string_val: "eegnet_network/hidden/layer2/dilconv/BatchNorm/beta/Adam"
        string_val: "eegnet_network/hidden/layer2/dilconv/BatchNorm/beta/Adam_1"
        string_val: "eegnet_network/hidden/layer2/1x1skip/weights/Adam"
        string_val: "eegnet_network/hidden/layer2/1x1skip/weights/Adam_1"
        string_val: "eegnet_network/hidden/layer2/1x1skip/BatchNorm/beta/Adam"
        string_val: "eegnet_network/hidden/layer2/1x1skip/BatchNorm/beta/Adam_1"
        string_val: "eegnet_network/hidden/layer3/dilconv/weights/Adam"
        string_val: "eegnet_network/hidden/layer3/dilconv/weights/Adam_1"
        string_val: "eegnet_network/hidden/layer3/dilconv/BatchNorm/beta/Adam"
        string_val: "eegnet_network/hidden/layer3/dilconv/BatchNorm/beta/Adam_1"
        string_val: "eegnet_network/hidden/layer3/1x1skip/weights/Adam"
        string_val: "eegnet_network/hidden/layer3/1x1skip/weights/Adam_1"
        string_val: "eegnet_network/hidden/layer3/1x1skip/BatchNorm/beta/Adam"
        string_val: "eegnet_network/hidden/layer3/1x1skip/BatchNorm/beta/Adam_1"
        string_val: "eegnet_network/hidden/layer4/dilconv/weights/Adam"
        string_val: "eegnet_network/hidden/layer4/dilconv/weights/Adam_1"
        string_val: "eegnet_network/hidden/layer4/dilconv/BatchNorm/beta/Adam"
        string_val: "eegnet_network/hidden/layer4/dilconv/BatchNorm/beta/Adam_1"
        string_val: "eegnet_network/hidden/layer4/1x1skip/weights/Adam"
        string_val: "eegnet_network/hidden/layer4/1x1skip/weights/Adam_1"
        string_val: "eegnet_network/hidden/layer4/1x1skip/BatchNorm/beta/Adam"
        string_val: "eegnet_network/hidden/layer4/1x1skip/BatchNorm/beta/Adam_1"
        string_val: "eegnet_network/hidden/layer5/dilconv/weights/Adam"
        string_val: "eegnet_network/hidden/layer5/dilconv/weights/Adam_1"
        string_val: "eegnet_network/hidden/layer5/dilconv/BatchNorm/beta/Adam"
        string_val: "eegnet_network/hidden/layer5/dilconv/BatchNorm/beta/Adam_1"
        string_val: "eegnet_network/hidden/layer5/1x1skip/weights/Adam"
        string_val: "eegnet_network/hidden/layer5/1x1skip/weights/Adam_1"
        string_val: "eegnet_network/hidden/layer5/1x1skip/BatchNorm/beta/Adam"
        string_val: "eegnet_network/hidden/layer5/1x1skip/BatchNorm/beta/Adam_1"
        string_val: "eegnet_network/hidden/layer6/dilconv/weights/Adam"
        string_val: "eegnet_network/hidden/layer6/dilconv/weights/Adam_1"
        string_val: "eegnet_network/hidden/layer6/dilconv/BatchNorm/beta/Adam"
        string_val: "eegnet_network/hidden/layer6/dilconv/BatchNorm/beta/Adam_1"
        string_val: "eegnet_network/hidden/layer6/1x1skip/weights/Adam"
        string_val: "eegnet_network/hidden/layer6/1x1skip/weights/Adam_1"
        string_val: "eegnet_network/hidden/layer6/1x1skip/BatchNorm/beta/Adam"
        string_val: "eegnet_network/hidden/layer6/1x1skip/BatchNorm/beta/Adam_1"
        string_val: "eegnet_network/skip_processing/1x1compress1/weights/Adam"
        string_val: "eegnet_network/skip_processing/1x1compress1/weights/Adam_1"
        string_val: "eegnet_network/skip_processing/1x1compress1/BatchNorm/beta/Adam"
        string_val: "eegnet_network/skip_processing/1x1compress1/BatchNorm/beta/Adam_1"
        string_val: "eegnet_network/skip_processing/1x5reduce1/weights/Adam"
        string_val: "eegnet_network/skip_processing/1x5reduce1/weights/Adam_1"
        string_val: "eegnet_network/skip_processing/1x5reduce1/BatchNorm/beta/Adam"
        string_val: "eegnet_network/skip_processing/1x5reduce1/BatchNorm/beta/Adam_1"
        string_val: "eegnet_network/skip_processing/1x1compress2/weights/Adam"
        string_val: "eegnet_network/skip_processing/1x1compress2/weights/Adam_1"
        string_val: "eegnet_network/skip_processing/1x1compress2/BatchNorm/beta/Adam"
        string_val: "eegnet_network/skip_processing/1x1compress2/BatchNorm/beta/Adam_1"
        string_val: "eegnet_network/skip_processing/1x5reduce2/weights/Adam"
        string_val: "eegnet_network/skip_processing/1x5reduce2/weights/Adam_1"
        string_val: "eegnet_network/skip_processing/1x5reduce2/BatchNorm/beta/Adam"
        string_val: "eegnet_network/skip_processing/1x5reduce2/BatchNorm/beta/Adam_1"
        string_val: "eegnet_network/skip_processing/1x1compress3/weights/Adam"
        string_val: "eegnet_network/skip_processing/1x1compress3/weights/Adam_1"
        string_val: "eegnet_network/skip_processing/1x1compress3/BatchNorm/beta/Adam"
        string_val: "eegnet_network/skip_processing/1x1compress3/BatchNorm/beta/Adam_1"
        string_val: "eegnet_network/skip_processing/1x5reduce3/weights/Adam"
        string_val: "eegnet_network/skip_processing/1x5reduce3/weights/Adam_1"
        string_val: "eegnet_network/skip_processing/1x5reduce3/BatchNorm/beta/Adam"
        string_val: "eegnet_network/skip_processing/1x5reduce3/BatchNorm/beta/Adam_1"
        string_val: "eegnet_network/logits/fc1/weights/Adam"
        string_val: "eegnet_network/logits/fc1/weights/Adam_1"
        string_val: "eegnet_network/logits/fc1/biases/Adam"
        string_val: "eegnet_network/logits/fc1/biases/Adam_1"
      }
    }
  }
}
node {
  name: "init_ops/report_uninitialized_variables/boolean_mask/Shape"
  op: "Const"
  attr {
    key: "_output_shapes"
    value {
      list {
        shape {
          dim {
            size: 1
          }
        }
      }
    }
  }
  attr {
    key: "dtype"
    value {
      type: DT_INT32
    }
  }
  attr {
    key: "value"
    value {
      tensor {
        dtype: DT_INT32
        tensor_shape {
          dim {
            size: 1
          }
        }
        int_val: 161
      }
    }
  }
}
node {
  name: "init_ops/report_uninitialized_variables/boolean_mask/strided_slice/pack"
  op: "Const"
  attr {
    key: "_output_shapes"
    value {
      list {
        shape {
          dim {
            size: 1
          }
        }
      }
    }
  }
  attr {
    key: "dtype"
    value {
      type: DT_INT32
    }
  }
  attr {
    key: "value"
    value {
      tensor {
        dtype: DT_INT32
        tensor_shape {
          dim {
            size: 1
          }
        }
        int_val: 1
      }
    }
  }
}
node {
  name: "init_ops/report_uninitialized_variables/boolean_mask/strided_slice/pack_1"
  op: "Const"
  attr {
    key: "_output_shapes"
    value {
      list {
        shape {
          dim {
            size: 1
          }
        }
      }
    }
  }
  attr {
    key: "dtype"
    value {
      type: DT_INT32
    }
  }
  attr {
    key: "value"
    value {
      tensor {
        dtype: DT_INT32
        tensor_shape {
          dim {
            size: 1
          }
        }
        int_val: 0
      }
    }
  }
}
node {
  name: "init_ops/report_uninitialized_variables/boolean_mask/strided_slice/pack_2"
  op: "Const"
  attr {
    key: "_output_shapes"
    value {
      list {
        shape {
          dim {
            size: 1
          }
        }
      }
    }
  }
  attr {
    key: "dtype"
    value {
      type: DT_INT32
    }
  }
  attr {
    key: "value"
    value {
      tensor {
        dtype: DT_INT32
        tensor_shape {
          dim {
            size: 1
          }
        }
        int_val: 1
      }
    }
  }
}
node {
  name: "init_ops/report_uninitialized_variables/boolean_mask/strided_slice"
  op: "StridedSlice"
  input: "init_ops/report_uninitialized_variables/boolean_mask/Shape"
  input: "init_ops/report_uninitialized_variables/boolean_mask/strided_slice/pack"
  input: "init_ops/report_uninitialized_variables/boolean_mask/strided_slice/pack_1"
  input: "init_ops/report_uninitialized_variables/boolean_mask/strided_slice/pack_2"
  attr {
    key: "Index"
    value {
      type: DT_INT32
    }
  }
  attr {
    key: "T"
    value {
      type: DT_INT32
    }
  }
  attr {
    key: "_output_shapes"
    value {
      list {
        shape {
          dim {
          }
        }
      }
    }
  }
  attr {
    key: "begin_mask"
    value {
      i: 0
    }
  }
  attr {
    key: "ellipsis_mask"
    value {
      i: 0
    }
  }
  attr {
    key: "end_mask"
    value {
      i: 1
    }
  }
  attr {
    key: "new_axis_mask"
    value {
      i: 0
    }
  }
  attr {
    key: "shrink_axis_mask"
    value {
      i: 0
    }
  }
}
node {
  name: "init_ops/report_uninitialized_variables/boolean_mask/concat/concat_dim"
  op: "Const"
  attr {
    key: "_output_shapes"
    value {
      list {
        shape {
        }
      }
    }
  }
  attr {
    key: "dtype"
    value {
      type: DT_INT32
    }
  }
  attr {
    key: "value"
    value {
      tensor {
        dtype: DT_INT32
        tensor_shape {
        }
        int_val: 0
      }
    }
  }
}
node {
  name: "init_ops/report_uninitialized_variables/boolean_mask/concat/values_0"
  op: "Const"
  attr {
    key: "_output_shapes"
    value {
      list {
        shape {
          dim {
            size: 1
          }
        }
      }
    }
  }
  attr {
    key: "dtype"
    value {
      type: DT_INT32
    }
  }
  attr {
    key: "value"
    value {
      tensor {
        dtype: DT_INT32
        tensor_shape {
          dim {
            size: 1
          }
        }
        int_val: -1
      }
    }
  }
}
node {
  name: "init_ops/report_uninitialized_variables/boolean_mask/concat"
  op: "Concat"
  input: "init_ops/report_uninitialized_variables/boolean_mask/concat/concat_dim"
  input: "init_ops/report_uninitialized_variables/boolean_mask/concat/values_0"
  input: "init_ops/report_uninitialized_variables/boolean_mask/strided_slice"
  attr {
    key: "N"
    value {
      i: 2
    }
  }
  attr {
    key: "T"
    value {
      type: DT_INT32
    }
  }
  attr {
    key: "_output_shapes"
    value {
      list {
        shape {
          dim {
            size: 1
          }
        }
      }
    }
  }
}
node {
  name: "init_ops/report_uninitialized_variables/boolean_mask/Reshape"
  op: "Reshape"
  input: "init_ops/report_uninitialized_variables/Const"
  input: "init_ops/report_uninitialized_variables/boolean_mask/concat"
  attr {
    key: "T"
    value {
      type: DT_STRING
    }
  }
  attr {
    key: "Tshape"
    value {
      type: DT_INT32
    }
  }
  attr {
    key: "_output_shapes"
    value {
      list {
        shape {
          dim {
            size: 161
          }
        }
      }
    }
  }
}
node {
  name: "init_ops/report_uninitialized_variables/boolean_mask/Reshape_1/shape"
  op: "Const"
  attr {
    key: "_output_shapes"
    value {
      list {
        shape {
          dim {
            size: 1
          }
        }
      }
    }
  }
  attr {
    key: "dtype"
    value {
      type: DT_INT32
    }
  }
  attr {
    key: "value"
    value {
      tensor {
        dtype: DT_INT32
        tensor_shape {
          dim {
            size: 1
          }
        }
        int_val: -1
      }
    }
  }
}
node {
  name: "init_ops/report_uninitialized_variables/boolean_mask/Reshape_1"
  op: "Reshape"
  input: "init_ops/report_uninitialized_variables/LogicalNot"
  input: "init_ops/report_uninitialized_variables/boolean_mask/Reshape_1/shape"
  attr {
    key: "T"
    value {
      type: DT_BOOL
    }
  }
  attr {
    key: "Tshape"
    value {
      type: DT_INT32
    }
  }
  attr {
    key: "_output_shapes"
    value {
      list {
        shape {
          dim {
            size: 161
          }
        }
      }
    }
  }
}
node {
  name: "init_ops/report_uninitialized_variables/boolean_mask/Where"
  op: "Where"
  input: "init_ops/report_uninitialized_variables/boolean_mask/Reshape_1"
  attr {
    key: "_output_shapes"
    value {
      list {
        shape {
          dim {
            size: -1
          }
          dim {
            size: 1
          }
        }
      }
    }
  }
}
node {
  name: "init_ops/report_uninitialized_variables/boolean_mask/Squeeze"
  op: "Squeeze"
  input: "init_ops/report_uninitialized_variables/boolean_mask/Where"
  attr {
    key: "T"
    value {
      type: DT_INT64
    }
  }
  attr {
    key: "_output_shapes"
    value {
      list {
        shape {
          dim {
            size: -1
          }
        }
      }
    }
  }
  attr {
    key: "squeeze_dims"
    value {
      list {
        i: 1
      }
    }
  }
}
node {
  name: "init_ops/report_uninitialized_variables/boolean_mask/Gather"
  op: "Gather"
  input: "init_ops/report_uninitialized_variables/boolean_mask/Reshape"
  input: "init_ops/report_uninitialized_variables/boolean_mask/Squeeze"
  attr {
    key: "Tindices"
    value {
      type: DT_INT64
    }
  }
  attr {
    key: "Tparams"
    value {
      type: DT_STRING
    }
  }
  attr {
    key: "_output_shapes"
    value {
      list {
        shape {
          dim {
            size: -1
          }
        }
      }
    }
  }
  attr {
    key: "validate_indices"
    value {
      b: true
    }
  }
}
node {
  name: "init_ops/init_1"
  op: "NoOp"
}
node {
  name: "init_ops/init_all_tables"
  op: "NoOp"
}
node {
  name: "init_ops/group_deps"
  op: "NoOp"
  input: "^init_ops/init_1"
  input: "^init_ops/init_all_tables"
}
node {
  name: "MergeSummary/MergeSummary"
  op: "MergeSummary"
  input: "parallel_read/input_producer/ScalarSummary"
  input: "parallel_read/ScalarSummary"
  input: "shuffle_batch/ScalarSummary"
  input: "HistogramSummary"
  input: "HistogramSummary_1"
  input: "HistogramSummary_2"
  input: "HistogramSummary_3"
  input: "HistogramSummary_4"
  input: "HistogramSummary_5"
  input: "HistogramSummary_6"
  input: "HistogramSummary_7"
  input: "HistogramSummary_8"
  input: "HistogramSummary_9"
  input: "HistogramSummary_10"
  input: "HistogramSummary_11"
  input: "HistogramSummary_12"
  input: "HistogramSummary_13"
  input: "HistogramSummary_14"
  input: "HistogramSummary_15"
  input: "HistogramSummary_16"
  input: "HistogramSummary_17"
  input: "HistogramSummary_18"
  input: "HistogramSummary_19"
  input: "HistogramSummary_20"
  input: "HistogramSummary_21"
  input: "HistogramSummary_22"
  input: "HistogramSummary_23"
  input: "HistogramSummary_24"
  input: "HistogramSummary_25"
  input: "HistogramSummary_26"
  input: "HistogramSummary_27"
  input: "HistogramSummary_28"
  input: "HistogramSummary_29"
  input: "HistogramSummary_30"
  input: "HistogramSummary_31"
  input: "HistogramSummary_32"
  input: "HistogramSummary_33"
  input: "HistogramSummary_34"
  input: "HistogramSummary_35"
  input: "HistogramSummary_36"
  input: "HistogramSummary_37"
  input: "HistogramSummary_38"
  input: "HistogramSummary_39"
  input: "ScalarSummary"
  attr {
    key: "N"
    value {
      i: 44
    }
  }
  attr {
    key: "_output_shapes"
    value {
      list {
        shape {
        }
      }
    }
  }
}
node {
  name: "train_step/GreaterEqual/y"
  op: "Const"
  attr {
    key: "_output_shapes"
    value {
      list {
        shape {
        }
      }
    }
  }
  attr {
    key: "dtype"
    value {
      type: DT_INT64
    }
  }
  attr {
    key: "value"
    value {
      tensor {
        dtype: DT_INT64
        tensor_shape {
        }
        int64_val: 25001
      }
    }
  }
}
node {
  name: "train_step/GreaterEqual"
  op: "GreaterEqual"
  input: "global_step/read"
  input: "train_step/GreaterEqual/y"
  attr {
    key: "T"
    value {
      type: DT_INT64
    }
  }
  attr {
    key: "_output_shapes"
    value {
      list {
        shape {
        }
      }
    }
  }
}
node {
  name: "train_step/Mod/y"
  op: "Const"
  attr {
    key: "_output_shapes"
    value {
      list {
        shape {
        }
      }
    }
  }
  attr {
    key: "dtype"
    value {
      type: DT_INT64
    }
  }
  attr {
    key: "value"
    value {
      tensor {
        dtype: DT_INT64
        tensor_shape {
        }
        int64_val: 1
      }
    }
  }
}
node {
  name: "train_step/Mod"
  op: "Mod"
  input: "global_step/read"
  input: "train_step/Mod/y"
  attr {
    key: "T"
    value {
      type: DT_INT64
    }
  }
  attr {
    key: "_output_shapes"
    value {
      list {
        shape {
        }
      }
    }
  }
}
node {
  name: "train_step/Equal/y"
  op: "Const"
  attr {
    key: "_output_shapes"
    value {
      list {
        shape {
        }
      }
    }
  }
  attr {
    key: "dtype"
    value {
      type: DT_INT64
    }
  }
  attr {
    key: "value"
    value {
      tensor {
        dtype: DT_INT64
        tensor_shape {
        }
        int64_val: 0
      }
    }
  }
}
node {
  name: "train_step/Equal"
  op: "Equal"
  input: "train_step/Mod"
  input: "train_step/Equal/y"
  attr {
    key: "T"
    value {
      type: DT_INT64
    }
  }
  attr {
    key: "_output_shapes"
    value {
      list {
        shape {
        }
      }
    }
  }
}
node {
  name: "train_step/Mod_1/y"
  op: "Const"
  attr {
    key: "_output_shapes"
    value {
      list {
        shape {
        }
      }
    }
  }
  attr {
    key: "dtype"
    value {
      type: DT_INT64
    }
  }
  attr {
    key: "value"
    value {
      tensor {
        dtype: DT_INT64
        tensor_shape {
        }
        int64_val: 3600
      }
    }
  }
}
node {
  name: "train_step/Mod_1"
  op: "Mod"
  input: "global_step/read"
  input: "train_step/Mod_1/y"
  attr {
    key: "T"
    value {
      type: DT_INT64
    }
  }
  attr {
    key: "_output_shapes"
    value {
      list {
        shape {
        }
      }
    }
  }
}
node {
  name: "train_step/Equal_1/y"
  op: "Const"
  attr {
    key: "_output_shapes"
    value {
      list {
        shape {
        }
      }
    }
  }
  attr {
    key: "dtype"
    value {
      type: DT_INT64
    }
  }
  attr {
    key: "value"
    value {
      tensor {
        dtype: DT_INT64
        tensor_shape {
        }
        int64_val: 0
      }
    }
  }
}
node {
  name: "train_step/Equal_1"
  op: "Equal"
  input: "train_step/Mod_1"
  input: "train_step/Equal_1/y"
  attr {
    key: "T"
    value {
      type: DT_INT64
    }
  }
  attr {
    key: "_output_shapes"
    value {
      list {
        shape {
        }
      }
    }
  }
}
versions {
  producer: 15
}
